transimpedance_prediction/model.pth (torch, 4224 bytes, 3 tensors)

weight f4 [64, 2]
00000000: ceac 82b9 1baf 2143 db0c 01be 94bd 0dbf
00000010: 8525 1db9 7dec 1f43 e408 21b9 090c 2043
00000020: 5751 18bf 64d6 ae3e be49 75be 2949 31bf
00000030: 5c48 10b9 6d97 2043 772f b9be dc7f c83e
00000040: 1d58 21b9 8299 1d43 a1ba f1b8 c082 1d43
00000050: f654 81be 8fc7 353e ae30 dbbd cec7 d63e
00000060: 310d 39be 71b0 55bf c35e bcb8 3d03 1e43
00000070: f954 21b9 1c69 1c43 eb0a 21b9 9fe6 1c43
00000080: edd2 0cb9 e43f 1c43 0fc6 20b9 47ab 1d43
00000090: 1e5a d7be 58fc bebd 1140 83be 467b ae3d
000000a0: 8087 2bbf 6c2b cfbe 21d6 e8be a6b8 babe
000000b0: 3ace f5be f344 3f3e 7ea8 beb8 3e05 2243
000000c0: 698d 20b9 36f9 2043 6729 0eb9 4705 1f43
000000d0: fae7 10bf 09fd 173f 6258 1eb9 edfb 1c43
000000e0: 1281 8ebe 4b84 573e 7bcf f5be e86c 3b3e
000000f0: 3424 2dbe fc52 72be de40 6bbe 8009 2e3f
00000100: e147 c1b8 7802 1e43 966a bfb8 7c71 1d43
00000110: 790f 90be 73a5 593d f49c aeb8 4047 1d43
00000120: 2ad9 cdbe 0053 0b3f 3c02 27bf e490 8dbe
00000130: 19d6 b7b8 e440 1e43 00fb beb8 d1ba 1f43
00000140: 2a6d 77b8 5409 1d43 adea 76b8 a214 2043
00000150: 98ad 61be 8473 c73e 4217 30bf d231 20bd
00000160: 94e5 00bf bd8f 16bf 5433 62be cc2d 34bf
00000170: e3dd cab8 16df 1f43 97d2 1cb9 d544 1f43
00000180: 2251 1bbf 37ef 80bc 0d98 0fb9 ea0e 1c43
00000190: d3a8 19bf 224c b33e 70fb 96be 18be 823e
000001a0: 9723 10b9 7500 1c43 9ef5 fabe b63a 57be
000001b0: 59b1 c1be 7d0f 2d3e 69ea 1eb9 7a5e 1e43
000001c0: 7723 c2be a2cb 023f c967 26b9 d80d 1f43
000001d0: e097 19b9 f68f 1d43 be26 c0b8 a901 1f43
000001e0: 035f c1b8 5a15 1e43 7e53 0db9 86cc 1e43
000001f0: 4bb3 19b9 ee86 2043 2be8 0eb9 c86d 1e43
-0.00024924282 161.684 -0.1260256 -0.553674 -0.00014986664 159.92378 -0.00015357469 160.04701
-0.59499115 0.34147942 -0.23953912 -0.6925226 -0.00013759866 160.5915 -0.36169025 0.3916005
-0.00015386981 157.59964 -0.00011526538 157.51074 -0.25260133 0.17751907 -0.10702644 0.41949314
-0.18071438 -0.83472353 -8.982189e-05 158.01265 -0.00015385811 156.41058 -0.00015358224 156.90086
-0.00013430016 156.24957 -0.00015332572 157.66905 -0.4206094 -0.093254745 -0.25634816 0.08519606
-0.6700363 -0.40462816 -0.45475867 -0.36469 -0.480089 0.18678646 -9.09129e-05 162.02048
-0.00015311468 160.97348 -0.00013557599 159.02061 -0.5660397 0.59370476 -0.0001510098 156.98409
-0.27832848 0.2104656 -0.48009858 0.18303263 -0.16908342 -0.23664469 -0.22973964 0.67983246
-9.216346e-05 158.00964 -9.127443e-05 157.4433 -0.28136805 0.0531363 -8.326201e-05 157.27832
-0.40204746 0.5442352 -0.65237784 -0.27649605 -8.765999e-05 158.25348 -9.1066584e-05 159.72975
-5.8991056e-05 157.03644 -5.886953e-05 160.0806 -0.22038877 0.3895532 -0.6878549 -0.039110012
-0.5035031 -0.5881308 -0.22089893 -0.7038238 -9.67344e-05 159.87143 -0.0001495577 159.26888
-0.60670674 -0.015739067 -0.00013694186 156.05826 -0.6002323 0.35019022 -0.29488707 0.25535655
-0.00013746168 156.00179 -0.49015516 -0.2101849 -0.37830618 0.1690044 -0.00015155379 158.36905
-0.37917683 0.5109197 -0.00015869657 159.05408 -0.00014647795 157.56235 -9.16249e-05 159.00648
-9.2206545e-05 158.0834 -0.00013477911 158.79892 -0.00014658009 160.52707 -0.00013628665 158.42883

bias f4 [64]
00000000: 5f6b 1a43 f11f 59be a863 1943 b5fa 1843
00000010: 7739 ac3e 74a7 04bf 1245 1943 9f4e 88be
00000020: 4981 1643 528b 1643 f6e9 ad3d 3b94 20bf
00000030: 9def 3abf 977c 1643 1b25 1743 faf4 1543
00000040: 99e4 1543 f8e1 1743 6080 f63d ec11 a3be
00000050: 80ee bcbd f6b7 0cbf 84f0 d53d c279 1a43
00000060: ee30 1a43 3306 1843 c283 56be 2f17 1743
00000070: e635 71be a6b1 30bf 8c27 2cbe aa38 553d
00000080: 0379 1743 a8a5 1743 3b54 4f3d 45d8 1743
00000090: 9248 99be 050d de3b 6f63 1843 ef01 1943
000000a0: f070 1743 51f7 1843 3bbb 02bf a793 bf3e
000000b0: 9db0 22bf 0d16 35be df19 1a43 7a23 1843
000000c0: 0671 b1bd 80b0 1443 2e42 72be 64e7 15bf
000000d0: 6149 1643 9eb9 a83e 439c c4be ee0c 1843
000000e0: bfac 9cbe a879 1943 b312 1743 a38d 1843
000000f0: 457d 1743 d051 1743 f11b 1943 3810 1843
154.41942 -0.21203591 153.38928 152.97932 0.33637592 -0.51818013 153.2698 -0.26622483
150.50502 150.54422 0.0849189 -0.6272618 -0.7302187 150.48668 151.14494 149.95694
149.89296 151.88269 0.12036204 -0.3184961 -0.09225178 -0.549682 0.10446265 154.47562
154.19113 152.02422 -0.20948699 151.09056 -0.23555717 -0.6902107 -0.16811961 0.052055992
151.4727 151.6471 0.050617438 151.8448 -0.2993818 0.0067764544 152.38841 153.00755
151.44116 152.96608 -0.5106694 0.37417337 -0.6355074 -0.17684193 154.10106 152.13858
-0.08664136 148.68945 -0.23658058 -0.585562 150.28664 0.32954115 -0.38400468 152.0505
-0.30600545 153.47522 151.07304 152.55327 151.48933 151.31958 153.10915 152.06335

weight f4 [1, 64]
00000000: 26d8 1240 e46c d7bd c814 0a40 5090 2340
00000010: 752e bdbd b43a 4abd 3061 c93f 4a3d 87be
00000020: 5495 dc3f 37e2 5940 d4a1 de3d 0a18 823d
00000030: 99b2 4a3e 1320 6140 0a0e d33f 8f66 4240
00000040: 62fd da3f b886 1640 a823 e63c c27a debd
00000050: 1616 953d bec6 c53d 2015 8d3e 0d8f 1a40
00000060: 81a6 2d40 6e3e 983f 8a12 b8bd 0ab6 1340
00000070: ac81 7d3d 8303 8fbd e601 e7bd 1b10 b6bd
00000080: 2dd3 2240 000d 2f40 f231 51bd 494a b03f
00000090: e614 fcbd 32a8 d33d 4e09 5a40 2f21 1140
000000a0: 45ee 7f40 02d0 e13f b8a6 d3bd ac41 783e
000000b0: cde9 05bf 227a cc3d 99ee e53f 7231 ce3f
000000c0: 80ed c9bc b1c5 913f 8074 2fbb afaf a5bd
000000d0: 3742 2940 126c 9cbd 0837 bc3d 14cf 3640
000000e0: 3fa3 afbd f18e 8d3f 9c9c cc3f 70da 9b40
000000f0: 9e98 3040 7edd 2f40 497e 3440 3bdb d13f
2.2944427 -0.10518816 2.1575184 2.5556831 -0.092373766 -0.04937239 1.5732784 -0.26413947
1.7233071 3.404432 0.1087071 0.06352241 0.19794692 3.5175827 1.6488659 3.0375097
1.7108576 2.3519726 0.028093174 -0.10863258 0.07279603 0.09657048 0.2755518 2.4149811
2.7132876 1.1894052 -0.08987911 2.3079858 0.061891243 -0.06983092 -0.11279659 -0.088897906
2.5441391 2.7351685 -0.051073022 1.377267 -0.123086736 0.10334815 3.406818 2.2676504
3.9989178 1.7641604 -0.103345335 0.24243802 -0.52309877 0.099842325 1.7963439 1.610884
-0.024649382 1.1388456 -0.002677232 -0.080901496 2.6446664 -0.076378 0.09190184 2.856389
-0.085760586 1.1059247 1.5985293 4.8704147 2.759315 2.7478938 2.8202078 1.6395029
