transimpedance_prediction/model.pth (torch, 4224 bytes, 3 tensors)

weight f4 [64, 2]
000000 2f 45 0c be 27 83 a1 be 99 3d 9d bb b0 15 22 43
       -0.13698266 -0.31545374 -0.004798603 162.08472
000010 91 da 71 bb 5b 5a 21 43 9e b3 b2 bb e3 c1 22 43
       -0.0036903957 161.35295 -0.005453541 162.75737
000020 99 64 3b be b6 b8 0f bd 04 29 1f be bb 4c 16 be
       -0.18300094 -0.035088263 -0.1554299 -0.14677708
000030 ff 91 0a bf 20 5c 6f 3e f1 f0 55 bb f8 d9 20 43
       -0.5412902 0.23374987 -0.0032644833 160.85144
000040 87 30 4e be 58 37 e1 3e cf 21 3d be b6 bd a7 bc
       -0.20135699 0.43987536 -0.18469928 -0.020476203
000050 76 45 2f bf 7e 15 dc 3e eb 2a 0f bf a0 d8 96 be
       -0.68465364 0.42985147 -0.5592486 -0.29462147
000060 1a bd 34 bb ba 0b 23 43 b0 98 73 bb ad 8b 24 43
       -0.0027578534 163.0458 -0.0037169866 164.54561
000070 6b ac 2e bb 83 ff 21 43 c1 c6 a9 be 38 af b1 be
       -0.0026653062 161.9981 -0.3315945 -0.34703994
000080 70 da 83 be 88 8a 41 be 57 b5 7a be 19 2d 26 3f
       -0.25752592 -0.18900502 -0.24483238 0.64912564
000090 6a 59 ee ba ce db 20 43 48 17 93 be 8a 82 22 bf
       -0.0018184606 160.85861 -0.287287 -0.63480437
0000a0 93 87 33 be 08 1f 8e bd 75 dc 1e bb bb d3 22 43
       -0.17532186 -0.069395125 -0.002424029 162.82707
0000b0 7a 32 49 bc 99 3b 25 43 dd c9 b7 bb 2c dc 22 43
       -0.012280101 165.2328 -0.005608781 162.86005
0000c0 c8 aa 2c bc d2 3e 22 43 f2 d8 ef be 7f 4e 69 bf
       -0.010538764 162.24539 -0.46845204 -0.911354
0000d0 40 aa 52 bb 8c 75 20 43 d0 fa 1a be 67 38 a4 3e
       -0.0032144934 160.45917 -0.1513474 0.32074282
0000e0 6d 4e a0 ba 4e 35 22 43 b9 f9 e0 bb 96 f8 20 43
       -0.0012230404 162.20822 -0.0068657068 160.97104
0000f0 b5 56 0d bb 1c 5e 21 43 de ce 3a bd 48 6f 28 bf
       -0.0021566574 161.36761 -0.04560744 -0.657948
000100 eb 8d ee be f3 d5 b2 be 91 04 5a bf 02 37 55 bd
       -0.4659265 -0.34928855 -0.8516322 -0.052054413
000110 ba fc 1b bf 3b 48 c7 be b8 67 cf be bf 55 b3 3e
       -0.60932505 -0.38922295 -0.4050882 0.35026357
000120 92 f3 06 bf cc 72 33 bf f3 9e 47 bb 81 48 24 43
       -0.5271541 -0.7009704 -0.0030459731 164.28322
000130 d4 1b 1d bb 1b 47 20 43 46 0d 72 bb 10 f4 20 43
       -0.0023972886 160.27776 -0.003693418 160.95337
000140 a5 a1 fa bd b6 d8 92 be e7 cb 02 bf 83 8e 90 3e
       -0.122378625 -0.28680962 -0.5109238 0.28233728
000150 0f f2 11 bf 79 ac 5e be 97 69 e1 be ae a6 39 be
       -0.5700998 -0.2174548 -0.4402587 -0.1812999
000160 6f b2 3f bb c3 d4 23 43 95 52 a2 ba 5e 04 25 43
       -0.0029250642 163.8311 -0.001238423 165.01706
000170 b6 f0 08 bb 73 53 22 43 bd 9d 91 be 17 9f 1e 43
       -0.0020895428 162.32597 -0.28440657 158.62144
000180 81 d5 eb be bd f3 ea be 67 5a 99 bb 15 ea 23 43
       -0.46061328 -0.45889083 -0.0046799663 163.91438
000190 a8 cd 5c bb 56 fc 20 43 ed 35 26 bb 84 5b 21 43
       -0.0033691917 160.98569 -0.0025361732 161.35748
0001a0 dc a8 05 bf 30 fb 1e 3f e9 79 33 bf 2c ab 04 bf
       -0.52210784 0.6210203 -0.70107895 -0.5182369
0001b0 f2 20 00 bb 64 94 23 43 c1 d9 e6 be 8b 70 12 3f
       -0.0019550887 163.57965 -0.45088008 0.57202977
0001c0 35 4b 9c bb 1a b0 20 43 30 36 e1 ba 4d 84 1f 43
       -0.0047697076 160.6879 -0.0017182287 159.5168
0001d0 f9 d2 b7 be 02 6d e5 be 97 5c 1f bf 05 95 7d be
       -0.35903147 -0.4480973 -0.62250656 -0.24763878
0001e0 8f da 0c bb 2d ef 22 43 f0 1f ba ba 2e 52 20 43
       -0.0021492576 162.93428 -0.0014200192 160.32101
0001f0 15 82 ae bb e8 28 21 43 71 ff 11 bb 18 68 20 43
       -0.0053255656 161.15979 -0.00222775 160.40662

bias f4 [64]
000000 97 44 d0 be e8 62 1b 43 fd ee 19 43 6f ad 1b 43
       -0.4067733 155.38635 153.93355 155.67747
000010 28 a0 af be 53 4a 16 bf 24 06 f9 bd f9 a9 1a 43
       -0.34301877 -0.5870716 -0.12159374 154.66396
000020 ac c8 44 bd e2 a2 49 bd 73 38 76 3e 98 d6 09 be
       -0.048042938 -0.049227603 0.24044971 -0.13460767
000030 b4 ff 1a 43 80 bb 1c 43 50 1e 1a 43 8d f3 f6 be
       154.99884 156.73242 154.11841 -0.4823269
000040 cd 36 52 3d 57 34 57 be dd df 19 43 c9 53 6d be
       0.051321793 -0.2101606 153.87447 -0.23176493
000050 c9 61 12 3e 56 e5 1a 43 fb a5 1d 43 1f 40 1b 43
       0.14295115 154.89584 157.64836 155.25047
000060 96 89 1a 43 65 22 a9 3d 91 36 19 43 a9 77 c7 be
       154.53745 0.08258513 153.21315 -0.3895848
000070 14 aa 1a 43 71 48 1a 43 4a 49 1a 43 b3 7a e4 be
       154.66437 154.28297 154.28629 -0.44624862
000080 8e ec a3 3e 12 13 f4 3e 81 6e a5 3e 0f 51 7b bd
       0.32016414 0.476708 0.3231087 -0.0613566
000090 fa 06 f7 be 4d 1d 1d 43 e2 3c 1a 43 65 ce 19 43
       -0.4824751 157.11446 154.23782 153.80623
0000a0 6d 44 29 3d f8 13 0b bf ed 9c 32 bf bd b1 a2 be
       0.04132502 -0.54327345 -0.697707 -0.3177623
0000b0 2f 4c 1c 43 51 0d 1e 43 a8 21 1a 43 b4 ba 17 43
       156.29759 158.05202 154.13147 151.72931
0000c0 b6 87 f6 3d 96 56 1c 43 95 b7 1a 43 89 5c 1a 43
       0.120376036 156.33823 154.71712 154.36147
0000d0 63 3c f5 3e 74 5d 56 be 26 55 1c 43 50 f2 24 bf
       0.47897634 -0.20934087 156.33261 -0.6443224
0000e0 7e 3c 1a 43 38 7c 18 43 49 77 cd bd b8 fc 9d be
       154.2363 152.48523 -0.100325175 -0.30856872
0000f0 d0 da 1b 43 dd 34 19 43 bb 35 19 43 86 2f 19 43
       155.85474 153.2065 153.20988 153.18564

weight f4 [1, 64]
000000 a2 40 0e 3e c4 e6 38 40 1c 34 e9 3f 92 99 0c 40
       0.13891843 2.8890848 1.8219028 2.1968732
000010 80 8a 40 3b 1e a9 af bd d4 7e 6d 3d c3 40 62 40
       0.0029379427 -0.085771784 0.05798228 3.5352027
000020 68 af e8 bc c4 6c e6 bd f6 32 8e 3d f8 20 9b bd
       -0.028403953 -0.11251214 0.06943314 -0.07574648
000030 0c 86 10 40 17 48 04 40 95 87 2f 40 79 44 8d be
       2.2581816 2.0669 2.7426503 -0.27591303
000040 b2 2f fc 3d 30 10 d0 be a3 9e 0d 3f d8 c3 9f bc
       0.12313785 -0.4063735 0.55320185 -0.019502565
000050 10 d2 fb bc 4e 6e 8a 40 1d 9f 1c 40 a5 b7 30 40
       -0.030739814 4.325965 2.4472115 2.7612088
000060 f7 7b 15 40 b3 62 36 3e 61 f2 0a 40 88 1b 61 bd
       2.3356912 0.17811088 2.1710436 -0.054957896
000070 91 8d 55 40 cc 28 0f 40 e7 7e 04 40 60 85 c9 bd
       3.3367655 2.236865 2.0702455 -0.098398924
000080 48 b3 fc bd 52 6e 37 3e 16 3b d6 3d 05 0b 0d 3d
       -0.12338883 0.17913178 0.104604885 0.034434337
000090 ea 81 84 bd 53 1e d2 3f bc 96 05 40 93 53 81 40
       -0.06470092 1.6415504 2.087325 4.041452
0000a0 2f a0 1a be ea 4b ff bd 20 a1 e2 3d e0 1b ea 3b
       -0.15100168 -0.12465651 0.110658884 0.0071444362
0000b0 05 6a fd 3f 94 fd 29 40 19 e6 dd 3f 49 22 be 3f
       1.979798 2.6561022 1.7335845 1.4854213
0000c0 b0 7b c8 3d 55 2c ec 3f 6c 3e 0d 40 ed 1b 44 40
       0.097892165 1.8451029 2.206935 3.0642045
0000d0 a0 fd 8d 3b 40 29 2e 3b 34 7b 3d 40 d8 38 db 3c
       0.004333213 0.002657488 2.9606447 0.026760504
0000e0 31 a8 32 40 d5 26 85 3f 58 ff 23 bd 70 de 80 3c
       2.7915156 1.0402476 -0.040038437 0.015731066
0000f0 68 8d 9f 3f b3 06 29 40 24 5f 2f 40 b2 8d 2b 40
       1.2465029 2.641034 2.740182 2.6805234
