transimpedance_prediction/model.pth (torch, 2944 bytes, 3 tensors)

network.0.weight f4 [64, 2]
0	0xbd58c95c	-0.052926406
1	0x43150f64	149.06012
2	0xbd5b189e	-0.053490274
3	0x4311c270	145.75952
4	0xbdf794dd	-0.1208894
5	0x4314b92a	148.7233
6	0xbe1be69d	-0.1522469
7	0xbf6c2242	-0.92239773
8	0xbe3056ce	-0.17220613
9	0x4313fe25	147.99275
10	0xbe11f174	-0.14252263
11	0x43137a16	147.4769
12	0xbe415eb2	-0.1888378
13	0xbf02c640	-0.51083755
14	0xbf0aee48	-0.5426984
15	0xbf4cd993	-0.8001949
16	0xbdd0e8f7	-0.102006845
17	0x431385f9	147.52333
18	0xbe1d75c0	-0.1537695
19	0x431367b4	147.40509
20	0xbd91dff2	-0.07122792
21	0xbf1e513a	-0.6184269
22	0xbe1ea366	-0.15492019
23	0x431682e1	150.51125
24	0xbe1585e5	-0.14601858
25	0x4314a8ef	148.6599
26	0xbe0f645f	-0.14003132
27	0xbe4da3b5	-0.2008198
28	0xbe0422b9	-0.1290387
29	0x43138503	147.51958
30	0xbf269f73	-0.6508705
31	0x3ed065d0	0.40702677
32	0xbe00e7bd	-0.12588401
33	0x43149808	148.59387
34	0xbe4a9f50	-0.19787335
35	0x4312cd5d	146.8022
36	0xbe240dcd	-0.1602089
37	0x43139459	147.57948
38	0xbd6872d4	-0.056750134
39	0x431449eb	148.28874
40	0xbe0478d2	-0.12936714
41	0x3e55cca1	0.20878841
42	0xbd82c13e	-0.06384514
43	0xbe633baa	-0.22190729
44	0xbe4517c2	-0.19247344
45	0xbe0aaf31	-0.13543393
46	0xbdf47314	-0.11936012
47	0x43149b7b	148.60735
48	0xbc92acf9	-0.017904745
49	0x4315fe87	149.99425
50	0xbf0518f9	-0.5199123
51	0x3e6745c3	0.22585206
52	0xbe984ebb	-0.29747567
53	0xbebc2028	-0.36743283
54	0xbe23cb19	-0.15995444
55	0x4313834a	147.51285
56	0xbe006d62	-0.12541726
57	0x431526c5	149.15144
58	0xbf1d1185	-0.6135486
59	0x3e61ab49	0.22037996
60	0xbcdea183	-0.027176624
61	0x3d8f8e05	0.0700951
62	0xbd9d5456	-0.076821014
63	0x43147ad0	148.47974
64	0xbdbad18e	-0.09122001
65	0x4310430d	144.26192
66	0xbe2c225b	-0.1680998
67	0x4315d12e	149.81711
68	0xbd9c343d	-0.07627151
69	0x4314d75c	148.84125
70	0xbd2af6fe	-0.041739456
71	0xbf2230bc	-0.6335561
72	0xbe00df1f	-0.12585114
73	0x43130ee9	147.05824
74	0xbe119d1a	-0.14220086
75	0x4315d359	149.82558
76	0xbd5d4ee1	-0.054030303
77	0x4315c124	149.75446
78	0xbe389244	-0.18024546
79	0x3f27c2c0	0.6553154
80	0xbdbeb16d	-0.09311185
81	0x4313937d	147.57613
82	0xbba2d55b	-0.0049692816
83	0x3e68a062	0.22717431
84	0xbe2a5831	-0.16635205
85	0x43133412	147.2034
86	0xbe0007b6	-0.12502941
87	0x43149e4a	148.61832
88	0xbe26cbd3	-0.1628869
89	0x43148c91	148.54909
90	0xbdfbca12	-0.12294401
91	0x4311857d	145.52144
92	0xbda0fd0d	-0.078607656
93	0x431388b6	147.53403
94	0xbd885971	-0.066576846
95	0xbedee96b	-0.4353746
96	0xbd412663	-0.04715575
97	0xbf1f9f9f	-0.6235294
98	0xbb72fd99	-0.0037077426
99	0xbe230b9b	-0.15922396
100	0xbedff073	-0.43738136
101	0x3eb88927	0.3604214
102	0xbdf4a44f	-0.11945402
103	0x4314726e	148.44699
104	0xbf2e5a14	-0.681062
105	0x3f260ab4	0.6486008
106	0xbe991be9	-0.29904106
107	0xbf58e253	-0.84720343
108	0xbec2b945	-0.38031974
109	0xbdb6f7ae	-0.0893396
110	0xbe3266a3	-0.17421965
111	0x43149652	148.58719
112	0xbe1c8e00	-0.15288544
113	0x4313e9e0	147.91357
114	0xbe12cf02	-0.1433678
115	0x431466c4	148.40143
116	0xbdf5f65d	-0.12009881
117	0x4314e41f	148.8911
118	0xbf00351f	-0.50081056
119	0x3f1e6b26	0.61882246
120	0xbefe68f1	-0.4968944
121	0xbf16aef2	-0.58860695
122	0xbe1981d0	-0.14990926
123	0x43137e25	147.49275
124	0xbe832bfe	-0.256195
125	0xbf20e513	-0.6284954
126	0xbd9d294c	-0.076738924
127	0x43146b0d	148.41817

network.0.bias f4 [64]
0	0x430e987b	142.59563
1	0x430b5ffc	139.37494
2	0x430eeb3d	142.9189
3	0xbeeb29d4	-0.4593035
4	0x430dddf4	141.867
5	0x430d6c9f	141.4243
6	0xbf83b259	-1.0288802
7	0x3e2244dc	0.1584658
8	0x430ca4d6	140.64389
9	0x430cc0b5	140.75276
10	0xbef8b448	-0.48575044
11	0x430f319c	143.19379
12	0x430ec4ea	142.7692
13	0xbf72cccb	-0.9484374
14	0x430d36aa	141.21353
15	0x3e3c8765	0.18411024
16	0x430dd670	141.83765
17	0x430c90a2	140.56497
18	0x430dc7f0	141.781
19	0x430cf29e	140.94772
20	0xbf064651	-0.52451044
21	0x3d05ff13	0.03271396
22	0xbe24f985	-0.16110809
23	0x430d0dd4	141.05402
24	0x430eb852	142.72
25	0xbea6532f	-0.3248534
26	0xbea7d648	-0.3278067
27	0x430c7b9a	140.48282
28	0x430e425d	142.25923
29	0x3f0e9cf9	0.5570827
30	0xbdd7aef6	-0.10531418
31	0x430df04c	141.93866
32	0x430941e5	137.2574
33	0x430f3553	143.2083
34	0x430e5057	142.31383
35	0xbec03f76	-0.37548417
36	0x430b6b9a	139.42032
37	0x430efd29	142.9889
38	0x430f3545	143.20808
39	0xbe38fb5c	-0.18064636
40	0x430c749a	140.45547
41	0xbecaf32c	-0.3963865
42	0x430d12b0	141.073
43	0x430ecf86	142.81064
44	0x430d577a	141.3417
45	0x430bc377	139.76353
46	0x430d53bb	141.32707
47	0xbf0296b7	-0.5101122
48	0xbe03f37c	-0.1288585
49	0xbe4c202a	-0.19934145
50	0x3e784bc0	0.24247646
51	0x430cfd7e	140.9902
52	0x3e82cccc	0.25546873
53	0xbd84fa62	-0.06493069
54	0x3e99d217	0.30043098
55	0x430e45f2	142.27322
56	0x430e516f	142.3181
57	0x430e8cf1	142.55055
58	0x430e566b	142.33757
59	0x3ca1d5ea	0.019755322
60	0x3d777b71	0.060420457
61	0x430ca093	140.62724
62	0x3da3f20f	0.080051534
63	0x430e7691	142.46315

network.2.weight f4 [1, 64]
0	0x40989dbf	4.769256
1	0x4029e12d	2.6543686
2	0x40716e46	3.7723556
3	0x3e3ce34e	0.18446085
4	0x3f8fb704	1.1227727
5	0x3fac0838	1.3440008
6	0x3e15d2a3	0.14631133
7	0x3e4cf98c	0.2001707
8	0x406c544f	3.6926458
9	0x3f41cf15	0.7570661
10	0x3d84b2d6	0.06479423
11	0x3f8f1ef0	1.1181316
12	0x3f1eae7c	0.6198499
13	0x3e6babfa	0.23014823
14	0x3fee48a4	1.8615918
15	0x3d84e978	0.06489843
16	0x3fd3132d	1.6490227
17	0x3fd86caf	1.6908168
18	0x40238c6f	2.5554464
19	0x3fed95b5	1.8561312
20	0xbdabe584	-0.08393386
21	0xbd372ca4	-0.044720307
22	0xbd909bf8	-0.07060999
23	0x40108ff9	2.2587874
24	0x3fb40d9c	1.4066653
25	0xbdeb0f2a	-0.11477502
26	0xbd6b7208	-0.057481796
27	0x4076ad77	3.8543375
28	0x3fef5e03	1.8700565
29	0x3d88aeec	0.06673989
30	0x3d945506	0.072427794
31	0x3fd7f699	1.6872131
32	0x405ede9d	3.4823372
33	0x4005d194	2.0909166
34	0x3f0a9942	0.541401
35	0x3df09042	0.11746265
36	0x4024073d	2.5629418
37	0x3fd2587c	1.6433253
38	0x4057bae6	3.3707824
39	0x3db39fd2	0.08770718
40	0x3f99c540	1.2013321
41	0x3e19219a	0.14954224
42	0x3f6d0cf5	0.92597896
43	0x3faf1c39	1.3680488
44	0x4019ffad	2.4062302
45	0x3fdceedb	1.7260393
46	0x4058f67c	3.3900442
47	0xbc86a0a8	-0.016434029
48	0x3c58d7e0	0.013235062
49	0xbce5ac18	-0.028036162
50	0xbccff6c8	-0.02538623
51	0x3ffa4157	1.955119
52	0xbd9ecf16	-0.07754342
53	0x3e2dfd03	0.16991048
54	0xbdfce0e6	-0.123475835
55	0x3f88a6a1	1.0675851
56	0x3fa9b1f2	1.325743
57	0x4013071a	2.2973084
58	0x3ffc1987	1.969529
59	0x3d0bc9c8	0.03412798
60	0x3dccf7be	0.100081906
61	0x4043aa2b	3.0572612
62	0x3d8001de	0.06250356
63	0x3fbfc19a	1.4980958
