TargetApproach/Checkpoints/3/model.pth (torch, 274292 bytes, 6 tensors)

weight f4 [256, 3]
00000000: 7b0e be3e bf8b b8be a0c8 a03d c642 d1bd
00000010: 6edc c63d f13b f33d 21b2 afbe 43c6 433e
00000020: c28a 63be 38af dbbe 3c1f 88be f5e2 09bf
00000030: cf0c b6be d342 4e3e b96b df3e 3495 083f
00000040: bf2b c0bd c362 9f3d 5eae 01bf c1fb 81be
00000050: 5560 e8be 9149 a0be a948 023c 55ae d5be
00000060: 26ad f9be 8a1f ffbd c349 15be 026f 0bbf
00000070: 9535 4d3e 9a30 743e 2d3c 94be df3b fcbe
00000080: 1ac6 9dbe 4085 a8be 7232 f53e 05ce e83e
00000090: 2741 cfbe 4688 883e 8b83 b93d 4c1e c3be
000000a0: 3ea3 efbe 4ee4 e43e 5339 4bbe 0529 db3e
000000b0: 8014 6a3d 1960 ad3d d038 ee3e 5d70 78be
000000c0: 218f 13bf a72e c43e 87d8 033f ad3b 87be
000000d0: a8b7 053f 0000 80be a404 9abd 35e0 88be
000000e0: 0120 0abf c0ef a7be fe48 973e 3b22 10bf
000000f0: f271 a93d ed53 e93e a29a f6be 10cb e53d
00000100: b7d5 dc3d 07aa cbbd 0634 303e 8653 b73e
00000110: 98e4 013f a595 dfbe 60d4 b2bd bed8 c2be
00000120: a85b 123e 71df d73e b335 62be bc43 ad3d
00000130: ff21 27bd 614a 2d3d 69c4 103f 8e49 b2be
00000140: 62e0 81be 0e23 ff3e 1d58 833e 73a6 063f
00000150: 0f94 f6be cb6f f0be b432 b9be 7bdc d83e
00000160: 1b60 043f a415 29be 1304 dd3d ca63 08bf
00000170: bda0 a9be d2b1 d23d aca2 a93e 3f58 0f3f
00000180: 5848 debd 3530 9fbe 63b6 143e 0ddc 45bd
00000190: 8bf2 fb3e 4512 aebd 4f18 e1be 8cbc 893d
000001a0: 863d 86be 0b30 af3e 35bb 00bf 42ce 3abe
000001b0: ab3a 923c 1593 e6be 1b41 0c3f 4d24 153e
000001c0: c3b6 04bf fc11 0abf ffc4 4dbe 429e cfbe
000001d0: bdcc 5f3e 47e3 cfbe f7de 7cbe 999b 33bc
000001e0: a567 19be 1ff0 f8be bd4e 9cbd d87f afbd
000001f0: 467c 07bf a890 9d3e fa3e f23d ba4a 7f3e
00000200: b667 3a3e 7d5d b13e ffb6 763d e2be b53e
00000210: e8f8 eebe 9959 98bd e76e 463e dbad 0abe
00000220: 337e c4be fc9a f5be 7634 0c3f f707 1b3e
00000230: edd5 abbe 7f6a 6e3e da70 fa3e 6790 a23e
00000240: 8e30 443e b115 10be 240b f63e 08b8 e13d
00000250: f204 13bf b5ec a73e 0b28 993e d33c 663d
00000260: 46b7 033e fe4d 39be 3c62 28bd 28ce 9e3e
00000270: dddf ed3e c3f9 febd b0fa 1f3e 7b98 04bd
00000280: 1b8c ba3a c2fa 8b3d 081d 003f e1a8 a5be
00000290: 9c01 59bc e014 e2bd 4527 dd3e 902d 143f
000002a0: d880 b63e 0e17 b2bd a5b1 053f b304 9a3e
000002b0: b80c 683e 0bd3 dbbd 3ab1 c93e d09e ea3e
000002c0: b0ae d9be d9fd c43d d8da 3ebb a0af b8be
000002d0: 1d53 23be e65d 123f 609f 0cbf 21bd 03be
000002e0: c4ea ca3d 3625 d63d b275 903e 6139 c63d
000002f0: 3337 b3bc 0b49 f4be 9aa9 e13e 9dd8 2dbe
00000300: ed0a b0be 1a9b 173e 9175 123f 2f86 9e3e
00000310: df23 023f 5a9b 0cbf 248c 39be 8cfb 5dbe
00000320: a548 523d b98b 7d3e 705b 4fbe 57c1 183e
00000330: 9e08 ef3e fea2 663e aebd 093f 1756 023e
00000340: d516 03be 10f6 213d 3567 9d3e e0ea 85be
00000350: 434f 9ebe ee1b d8be 4a76 ba3e e670 07bf
00000360: 4f1a b63e b55e 78bd 643e 573e 49bd 06bf
00000370: d69a cc3e 8970 a53e ea21 143f 5925 983d
00000380: 01c6 37bd a2f7 85bd 4bc7 05bf b23a 9ebe
00000390: ffbf 35bd 4920 463e f622 fb3e b636 d93e
000003a0: 8152 773d 07aa 0ebf 2140 963e 1afa aebe
000003b0: bfe2 b33e f489 093f caab adbe a8cd 4d3d
000003c0: 971d e03e 9822 1d3d 1c4a 053f f194 bebe
000003d0: db39 a83c e070 b33d 598a 4dbe aa9a edbd
000003e0: 8523 d3be e2dc 3e3e a8fe c43e c478 0fbf
000003f0: eacd 823e a03e 033f ee54 82be cfb5 e93d
0.37120423 -0.36044118 0.07850766 -0.10217814 0.097100124 0.11876667 -0.3431559 0.191186
-0.222209 -0.4290712 -0.2658633 -0.53861934 -0.35556647 0.20142679 0.43636873 0.53352666
-0.09383344 0.07782509 -0.5065669 -0.25387385 -0.45385996 -0.31306127 0.007951894 -0.41734567
-0.48764914 -0.124571875 -0.14578919 -0.5446626 0.20039971 0.23846665 -0.2895216 -0.49264428
-0.30815202 -0.32914162 0.4789005 0.4546968 -0.40479395 0.26666468 0.09058293 -0.38109052
-0.4680423 0.44705433 -0.19846086 0.42804733 0.057148457 0.08465595 0.4652772 -0.24261613
-0.5764027 0.38316843 0.5150227 -0.26412717 0.5223336 -0.25 -0.075204164 -0.26733556
-0.53955084 -0.32800102 0.29547876 -0.5630223 0.082736865 0.45571843 -0.4816485 0.11220372
0.1078295 -0.099445395 0.17207345 0.3580591 0.5073943 -0.43668857 -0.087319136 -0.38055986
0.14292777 0.4216266 -0.22090797 0.08460185 -0.040803906 0.04230726 0.565497 -0.34821743
-0.25366503 0.49831432 0.25653163 0.5259773 -0.48159835 -0.4696029 -0.36171496 0.42355713
0.51709145 -0.16512161 0.10791793 -0.53277266 -0.33130446 0.10287823 0.3313192 0.5599403
-0.10853642 -0.31091467 0.145227 -0.04830556 0.49208483 -0.084995784 -0.43963858 0.067254156
-0.26218814 0.3421634 -0.50285655 -0.18242744 0.01785024 -0.4503409 0.54786843 0.14564629
-0.5184137 -0.5393369 -0.2009468 -0.4055043 0.21855445 -0.40603086 -0.2469443 -0.01096239
-0.14980944 -0.48620698 -0.07632206 -0.08569306 -0.52924 0.30774426 0.11828418 0.2493085
0.18203625 0.34641638 0.060233112 0.35497195 -0.46674275 -0.074389644 0.19378243 -0.13542883
-0.38377532 -0.47969806 0.5476755 0.15139757 -0.3356165 0.23282813 0.48914224 0.31750795
0.19159147 -0.14070775 0.48055375 0.11021429 -0.5742942 0.3279778 0.29913363 0.05621035
0.12862882 -0.18096158 -0.04110931 0.3101666 0.46459857 -0.12449982 0.15622973 -0.03237198
0.0014232429 0.06834938 0.500443 -0.32355407 -0.013245013 -0.11039138 0.43194023 0.5788202
0.35645175 -0.086958036 0.5222419 0.3008171 0.22661102 -0.107336126 0.39393026 0.4582429
-0.42516088 0.0961873 -0.002912214 -0.3607149 -0.15949674 0.5717453 -0.54930687 -0.12865116
0.09908059 0.10456316 0.28214794 0.09678913 -0.021876907 -0.47711977 0.44074708 -0.16977163
-0.34383336 0.1480526 0.5721064 0.3096175 0.50835985 -0.5492455 -0.18119866 -0.21677989
0.05133881 0.24760331 -0.20249724 0.14917503 0.46686262 0.22523114 0.53805053 0.12728153
-0.12801678 0.039541304 0.30742803 -0.26155758 -0.30919847 -0.4220881 0.36418372 -0.52906644
0.35566947 -0.060637195 0.21019894 -0.52632576 0.3996188 0.3231242 0.5786425 0.074289985
-0.044866566 -0.06541373 -0.5225722 -0.30904156 -0.044372555 0.19348253 0.4905011 0.42424554
0.060381416 -0.5572819 0.293458 -0.34175187 0.3513393 0.53726125 -0.33920127 0.050244957
0.43772575 0.03836307 0.52066207 -0.37223008 0.0205354 0.087617636 -0.20072307 -0.116017655
-0.41238037 0.18638948 0.38475537 -0.5604365 0.25547725 0.51267433 -0.2545542 0.1141163

bias f4 [256]
00000000: 7a17 f13e aab2 d6be 6311 cdbb 5181 953e
00000010: 26e1 2f3e 0e1e 10be ed81 8bbe 589d 2dbe
00000020: 65fd 8b3d a701 18be bd26 b4bc b744 9a3e
00000030: ac25 713e d9ec dbbe 7c43 17be a919 023f
00000040: c3c3 abbc f587 cbbe aaff f53e 150f e13e
00000050: d388 763e e18a 923e 10d6 863c 92ef a0be
00000060: 38b4 0c3d ce44 e03e 192c 02bf 7fa6 3d3d
00000070: 1221 f03e a63f 163e 352d 223e cc53 95bb
00000080: 436c acbe da9f e6bc 12c6 c6be 24d9 9bbe
00000090: 4493 8ebe 9f6b 82bc 6b2c 17be 9d62 423e
000000a0: 93f4 59be 6be9 1f3e 659c f7be 5e93 c0be
000000b0: 7dd3 45be efe8 12bf bf72 a0be b0e3 41bd
000000c0: d615 bf3e a676 7dbc c367 143f 4939 ccbd
000000d0: 1c4d 1bbe bbf7 75bd c60f 35be fe55 9a3e
000000e0: 603e 773d 068c d3be 445f 01bf f398 cfbe
000000f0: 639f 88be 0808 08bf b108 06bf b0d6 bd3e
00000100: d062 ddbe 79e9 e43d 911b 88be 268a 3abe
00000110: 3128 d83e 4441 593e e5e4 f4be 8d4a 90be
00000120: 93e7 c53e af60 8f3e b256 b43d 3b4d 273e
00000130: faa3 903d 005d 09bf 78d9 8b3d eba4 973e
00000140: 80ac debe f9a8 0ebf 37ea 573d 35ca 573e
00000150: cc3e d13e 3d89 c5be 22a8 dc3e 144a 963e
00000160: 8c08 10be ad3a 8c3e c585 523e 8c45 d73e
00000170: d0f5 17bd 690f 0bbf 2839 8cbe 6ca8 d8bd
00000180: c52d 443e 3207 de3e ad4b 22bd 86be 2c3e
00000190: bb17 043f 4822 0d3f 40d2 bdbb 06ba 40bd
000001a0: b69d f9bd 7700 2b3e 9393 743e c9d5 b83d
000001b0: 8af3 e6be a444 a7be e799 b63d 3db4 143f
000001c0: 9978 c9be ff49 93be 2af4 d23c 7712 083f
000001d0: 8f7d 4d3e 773f bebd 9374 44be 2950 91be
000001e0: ba5a 5abd 8731 7e3e ee53 72be ae5f ed3e
000001f0: 5901 953e ac82 0ebf 2e3a 813e c16d 88be
00000200: d121 ebbe 8120 fc3e fe4c a13e 2d2d d5be
00000210: 2013 c13e f718 8cbe 8890 c7be 4613 02bf
00000220: 1e9c a23d e66a 463e 8a62 c1be 42ef 903e
00000230: 103d 2ebe c597 6e3d 2b47 eabd 7f81 9c3d
00000240: 7d43 57be d945 f6bd 1969 193e d1a8 813e
00000250: d610 e6be f154 de3e b2ba afbe b728 613e
00000260: 0c07 64be ecd6 ce3d d526 45bd 06bd abbe
00000270: 3b30 cc3d af45 08bf 64ec 983e b197 29be
00000280: 3ac0 b8be 5d8d b5be 246a 87be ca2e ec3d
00000290: b813 6dbe f51c 453e 839c 913b 643f acbe
000002a0: 105f 9e3d ebbc 093e 06e2 e2be 4c2d bf3e
000002b0: 5771 033f 9ad2 e5be c109 01be 7e2c b83e
000002c0: 78c4 d83e e366 b8be aa35 6fbe 6ff1 55be
000002d0: 3222 68be 112c 013f aa75 85be c4bc a7be
000002e0: 8ca0 87be cc04 0d3f fe3d 96bd e63a 13bf
000002f0: 6105 683e 66b2 963e 3540 67be 563e 933e
00000300: ac7e f9be 153f 64bd 4bfc ba3d 5e73 b93c
00000310: 45b1 773e d3c2 953e b0e5 0bbf 3c32 593e
00000320: 3e7a 033f db87 41be 76a4 01bf 3f44 a1be
00000330: a330 003f 74bc b23d 77e0 cb3b 1d10 fa3e
00000340: 4d6d b13b a405 dc3e 553e e5be 4700 d73e
00000350: 4971 9ebe cea4 3abe cf19 e53e 2dbc 093f
00000360: fb3d 953e 56b4 fabe 0850 3dbe 8892 82be
00000370: 79da aabd daec e8be 8fae 333e 3a29 55be
00000380: 915f 353e 767e 63bd 0aba d23e 7b10 973e
00000390: a0ef 8b3e 0c36 073f c43a a83e 2194 c23e
000003a0: a167 b0be 82df e73e b9a5 813e 5418 ddbe
000003b0: c218 133f 7269 c63e a4c7 77be 810f dc3e
000003c0: 8c6a b03e 0643 883e f2e1 89be 1efc e0be
000003d0: a3be c23c a9a8 0dbf 1f07 9e3e cb46 01be
000003e0: ea3e bdbe 8931 893e 9cc7 c83d f133 033e
000003f0: d7e4 27be 2fba d93e a118 653e 9387 8f3d
0.47088224 -0.41933185 -0.006258176 0.29200223 0.17175731 -0.14073965 -0.27247563 -0.16954553
0.068354405 -0.1484438 -0.021991128 0.3013055 0.23549527 -0.42954138 -0.14771837 0.50820404
-0.02096737 -0.39752164 0.4804662 0.4395682 0.24075632 0.2862158 0.016459495 -0.31432778
0.034351557 0.43802494 -0.5084854 0.04630136 0.4690023 0.14672717 0.15837558 -0.0045571085
-0.33676347 -0.028152395 -0.3882299 -0.30439103 -0.2784673 -0.015920458 -0.14763038 0.1898293
-0.21284704 0.15616386 -0.48361507 -0.37612432 -0.19318958 -0.5738668 -0.31337544 -0.04733628
0.37321347 -0.0154701825 0.5797083 -0.09971864 -0.15166134 -0.060050707 -0.17681798 0.30143732
0.06036222 -0.41317767 -0.5053599 -0.40546378 -0.26684102 -0.53137255 -0.5235701 0.37077856
-0.4323945 0.11177344 -0.26583531 -0.18216762 0.42218164 0.21216303 -0.47830883 -0.28181878
0.3865324 0.2800345 0.08805598 0.16338055 0.07062526 -0.5365753 0.06828588 0.2961801
-0.43490982 -0.5572658 0.0527136 0.2107323 0.40868223 -0.38581267 0.43097025 0.29353392
-0.1406576 0.27388516 0.20558842 0.42045248 -0.03709966 -0.5432039 -0.27387357 -0.10578999
0.19158085 0.43364865 -0.03962295 0.16869554 0.5159871 0.55130434 -0.005792886 -0.047052406
-0.12188284 0.16699396 0.2388442 0.09025151 -0.4510768 -0.32669556 0.08916073 0.5808752
-0.3934982 -0.28767392 0.025751192 0.53153175 0.20067428 -0.09289449 -0.19185095 -0.2838147
-0.05330918 0.2482358 -0.23664829 0.4636206 0.2910259 -0.5566814 0.252397 -0.26646236
-0.45924237 0.4924355 0.31504053 -0.4163603 0.37709904 -0.27362797 -0.38977456 -0.5081066
0.07939933 0.19376716 -0.37770492 0.2830754 -0.17015481 0.058250207 -0.114393555 0.07641887
-0.21021838 -0.12025041 0.14981498 0.2532411 -0.4493472 0.4342418 -0.34322125 0.21988188
-0.22268313 0.10099587 -0.048132736 -0.3354265 0.09970137 -0.5323133 0.29867852 -0.16561772
-0.36084157 -0.35459414 -0.26448166 0.11532362 -0.23152053 0.19249327 0.0044437065 -0.33642113
0.077329755 0.13450973 -0.44313067 0.37339246 0.5134482 -0.4488724 -0.12601377 0.35971445
0.42337394 -0.36015996 -0.23360315 -0.20892881 -0.22669294 0.50457865 -0.26066333 -0.32761204
-0.26489675 0.55085444 -0.07336043 -0.57511747 0.22658302 0.29432982 -0.22583087 0.28758496
-0.48729455 -0.055724222 0.09130152 0.02263802 0.24188717 0.29250202 -0.5464735 0.21210569
0.513584 -0.18899481 -0.5064157 -0.3149738 0.50074214 0.08727351 0.0062218267 0.48840418
0.005414641 0.42973053 -0.44774118 0.419924 -0.30945805 -0.1822693 0.44746253 0.5380276
0.2914885 -0.4896571 -0.18487561 -0.2550242 -0.083424516 -0.45493203 0.17547058 -0.20816508
0.17712237 -0.055540524 0.41157562 0.2950476 0.27331257 0.52816844 0.32857335 0.38003638
-0.34454063 0.4528771 0.2532175 -0.43182623 0.5745965 0.38752323 -0.2419725 0.4298058
0.3445629 0.26613635 -0.26930195 -0.4394235 0.023772543 -0.5533548 0.30864808 -0.12624662
-0.36962062 0.26795605 0.098036975 0.12812783 -0.16395889 0.4252486 0.22372676 0.070082806

weight f4 [256, 256]
00000000: dee3 6fbd 6777 66bc 7aa8 31bd d88b 4dbd
00000010: debe 6bbc 7a3f 07bb 5e4e 2b3d 8006 0a3d
00000020: e885 fdbb 4d0f 20bd 8023 2a3b 5cfb 71bd
00000030: cc3b 273d 9067 f33c e84f 9dbc f6ff 62bd
00000040: 6e53 e2bb 5e2e ac3c bbb2 71bd 57fc 123c
00000050: 1153 863c 59af 2f3d 02c2 f3bb 02fe 14bd
00000060: 63a8 43bd 033c adba bf80 17bc 5137 17bd
00000070: 40af d43c b624 5b3d 8a14 46bd 9239 1fbd
00000080: a092 0cbd 702a 75bd 58db 543d 604e 433b
00000090: 21c8 7bbd 4e2f f2bc 6645 f9bc 2caf 89bc
000000a0: 7a60 30bd c036 603c bf4c 16bd b750 6a3d
000000b0: 1970 73bd 28e0 153d 6c98 7bbd 991f 1b3d
000000c0: 19c6 1c3d 955f 843c 5152 c8bb a61a 493d
000000d0: c8f8 46bc 60a8 f5bb c9d3 593d c89f 323d
000000e0: 5f7d 82bd 73bb b5bb 07f3 ed3b 54e7 f43c
000000f0: 9bac 7cbb 16ca 623d 223d 083c 2e56 863c
00000100: c3fa 23bd ed22 9ab9 2762 16bd 0c9f 673c
00000110: 6181 3cbd b284 abbc f79d f4ba 2b0f 573d
00000120: 8961 18bd 1d9f 1b3c 8e58 05bd b1f3 74bd
00000130: 9e73 8bba 9cba 893a 9cb0 063d 0733 cd3c
00000140: c22d 5fbd 1abb 383d 60ba 6c3d a987 dc3c
00000150: 26f9 5a3d b1e6 1a3d 4f04 7abc eef6 793d
00000160: 18f8 78bc 0ae2 78bd e44c 8e3c 6ce2 dfbc
00000170: 9e02 81bd ff12 703d 9557 11bd 554b 4abc
00000180: 5414 553d b6bb 723d 0ac3 a5bc 70a9 363d
00000190: c9d3 073d 486f bdbb 960d 89bc 8172 aebc
000001a0: 8795 ac3c 6c81 71bc 50cd 1bbd 3ebc 403d
000001b0: f019 b2bc bf8e ab3c 645c 493d dc94 c03c
000001c0: ce9d f33c b57f 4cbd f169 bf3c fb5d 5bbc
000001d0: d0e2 503d b623 3abd 8b47 1fbd 8047 e83a
000001e0: 84c3 54bd f02c 583c bb95 dc3c 2f54 563d
000001f0: e31a 5bbc 8450 80bc 5d99 d23c 0840 0dbd
00000200: 082f 023d 801f 1abd 5035 24bd 25f7 01bd
00000210: 8573 21bd 98cb 72bd c18f 59bd b813 5c3d
00000220: f6ad c2ba 80a5 b53b bc36 623d 6b15 dcbc
00000230: c25a 09bd 23cd 50bd c47a 5f3c 2e57 9cba
00000240: 2ca1 633d 3c0d 5e3d 9c51 c13c 9604 6f3b
00000250: 8a83 2ebd 728c e63c 80eb d4bc 6d3b dfbc
00000260: 2f96 39bd c0b6 ad3b 839c 27bb 5c7b 39bc
00000270: 7720 cebc 6914 d0ba 18f4 743d 8601 debc
00000280: dc9d e53c a463 9f3c 7fb9 06bd 10db fa3b
00000290: d0df 7fbb cde5 383d 8dd8 063c 9547 063d
000002a0: 0e93 463d 6478 ce3c 5277 243d 2c8e 4cbc
000002b0: 66de 46ba 364e 8b3c f4e6 443d bdaa 82bc
000002c0: 3c61 12bd 0495 92bc 1cc9 023d 38fb d4bc
000002d0: 77a1 0abb d9d7 50bc 55c4 583d 2c14 6dbc
000002e0: 7809 abbc 8574 60bb ea17 223d afbe 12bd
000002f0: 2e9a b3bc 2c38 24bb 9ec8 1e3d 2723 0d3d
00000300: 6a2a 4fbd d0e4 3b3d 19cd 9dbc 65a1 3ebd
00000310: 5048 2fbd 9057 7fbd d802 9d3c 426d 61bd
00000320: b4f9 48bc 64e0 f73c a9bd 0a3d 307e f9bb
00000330: a24e ee3c 1fd6 65bd dc1e 833c 997d b8bc
00000340: d0a9 c1bb f0cb 843b 408c 923c c781 103d
00000350: 03bb 233b fb8d 543c a345 3c3d 71e6 fd3c
00000360: 2035 f0bb 8850 5fbd 11e4 4c3c 8cc4 953c
00000370: 6caf 543c be63 ea3c 9a19 343d 547a 06bd
00000380: dd3b 14bd 7199 1f3c 7e9a 353d 217d 6bbd
00000390: c3aa b7bc acac cbbc e097 bf3c b1da 4ebd
000003a0: daee a2bc 9221 50bd bb1d 34bd 2831 40bd
000003b0: d66f 47b9 2a59 5bbd 4668 8dbc 419a 9f3c
000003c0: 5810 a0bb a606 c8bc eaec 1a3d d1af 423d
000003d0: 5e8e 25ba fc83 b9bc d490 3ebd ad56 163d
000003e0: 0452 ad3c 9a5e 7dbd 67f5 5cbd a306 ffbc
000003f0: d0ad 4ebd 7333 4abd 5824 be3c 3bf5 4ebd
-0.05856692 -0.014066554 -0.043373562 -0.050182194 -0.014388768 -0.00206372 0.041822784 0.033697605
-0.00773691 -0.039077092 0.00259611 -0.059077606 0.04082851 0.029712468 -0.019203141 -0.055419885
-0.0069069183 0.021018203 -0.05900834 0.008971295 0.016397031 0.042891834 -0.007438899 -0.036375053
-0.047768008 -0.0013216737 -0.009247004 -0.03691799 0.025962472 0.053501807 -0.04835943 -0.038873263
-0.03431952 -0.059854925 0.051966995 0.0029801354 -0.061470155 -0.029563572 -0.0304286 -0.016807161
-0.043060757 0.013684928 -0.036694285 0.057205882 -0.059433077 0.036590725 -0.061424658 0.03787193
0.03827486 0.016158858 -0.0061133285 0.04909768 -0.012144275 -0.0074968785 0.05318049 0.04360941
-0.06371569 -0.0055460273 0.007261637 0.029895462 -0.003855503 0.055368505 0.008315356 0.016398516
-0.040034067 -0.0002939919 -0.0367147 0.014137041 -0.046021823 -0.020937297 -0.00186628 0.0525047
-0.03720239 0.009498385 -0.032555155 -0.059802715 -0.0010639315 0.0010507884 0.03288327 0.025048746
-0.054486997 0.04510031 0.05779493 0.026920157 0.053460263 0.03781766 -0.015259816 0.061026506
-0.015195869 -0.060762443 0.017370649 -0.027329646 -0.06299327 0.058611866 -0.035483915 -0.012347062
0.05202134 0.059261046 -0.020234603 0.044595182 0.03316096 -0.005781088 -0.016730111 -0.021294834
0.021067394 -0.014740329 -0.038037598 0.04705452 -0.021740884 0.02094209 0.049160376 0.023508482
0.029738333 -0.04992648 0.023365946 -0.013389106 0.050997555 -0.045444213 -0.038886588 0.0017721504
-0.05194427 0.013194308 0.026926866 0.052326377 -0.0133731095 -0.015663393 0.025707895 -0.034484893
0.031783134 -0.037627697 -0.040089905 -0.031729836 -0.03941681 -0.059276193 -0.05311561 0.053729743
-0.001485287 0.005543411 0.05522798 -0.026865682 -0.03353382 -0.050976884 0.013640109 -0.0011927837
0.055573627 0.05421184 0.023598485 0.003647124 -0.042605914 0.028143141 -0.025991201 -0.027250016
-0.04530924 0.0053013265 -0.0025575466 -0.011320915 -0.025161965 -0.0015875223 0.0598031 -0.027100336
0.028029375 0.019456692 -0.032891747 0.007655509 -0.0039043315 0.04514103 0.008230341 0.03278311
0.048480086 0.025203891 0.040152855 -0.012485068 -0.00075862405 0.017005067 0.048071817 -0.015950555
-0.03573726 -0.017893322 0.031930074 -0.025998697 -0.002115337 -0.012746775 0.05292161 -0.014470141
-0.020878538 -0.0034249139 0.039573587 -0.03582638 -0.021924105 -0.0025057895 0.038765542 0.034457352
-0.05057756 0.04587251 -0.019262837 -0.046540637 -0.042793572 -0.062339365 0.019166395 -0.055035837
-0.012266565 0.030258365 0.03387228 -0.0076139197 0.02909023 -0.056112405 0.016005926 -0.022520827
-0.005910136 0.0040526316 0.017889142 0.035280015 0.0024983294 0.012973304 0.04596485 0.030993672
-0.0073305517 -0.05452016 0.012505547 0.018282197 0.012981277 0.028612014 0.043969728 -0.032831505
-0.036189903 0.009741173 0.04433679 -0.05749238 -0.022420293 -0.02486261 0.02338785 -0.05050153
-0.019889284 -0.050813265 -0.043973666 -0.04692188 -0.00019019781 -0.05355183 -0.017261636 0.019482734
-0.004884761 -0.024417233 0.037823595 0.047530953 -0.0006315465 -0.022645943 -0.046524838 0.036703754
0.021157272 -0.061857797 -0.05394497 -0.031131094 -0.05045873 -0.049365472 0.02321069 -0.05052684

bias f4 [256]
00000000: 3b40 513d 664f 823d ac34 d8bc f871 72bc
00000010: cad4 51bd ab4e 293c fa49 f1bb 7bf5 2fbd
00000020: a4f0 c93c 2e2f c53c 8049 15ba 86d1 6e3d
00000030: 2255 a5bc 24cf 63bd 00e6 d3b8 7ee6 613d
00000040: 6384 e53b 5e2b 143d 306b 26bd e93c 3b3c
00000050: d530 1e3d 5288 693d 4648 aabc 6c0e 083d
00000060: 6f58 f93b ba47 dfbc 5a8a 56bd c216 3b3d
00000070: 1d27 2fbc b951 0ebd 0d03 48bc 9919 8f3c
00000080: 2602 66bd d14f eb3c 9c8f a0bc f6eb f4bc
00000090: 273d 0f3d 54c2 933c fccf e8bc 9cd6 41bd
000000a0: db16 da3b d6dd aebc 9ae9 3ebd 7c9c 983b
000000b0: 5256 363d 5217 c9bc dc8d 363d e15f 4fbd
000000c0: 00ca 103a c3cb e5bb 8cee 0dbd e5d8 8bbb
000000d0: aed4 5dbd c700 6bbd 59ac f23c c618 5d3d
000000e0: e25c 9d3c 99c6 933c 1163 35bd 72e9 013b
000000f0: 46af 3bbd 50c9 623c 013a 623d 386e 6ebc
00000100: 68b6 5bbd 10f8 833c 3fa6 fc3c 651e 1d3d
00000110: 90fc 233c 07c8 76bd f06f cc3b 80dc 683c
00000120: 14b7 1c3d 645c c83c e699 c93c c823 343d
00000130: 94de 10bd 7098 eebb 9e50 a9bc 3534 283d
00000140: 40ca 66bd 02b5 5c3d 2158 4a3d ec50 5bbc
00000150: fbe1 803d 2130 e0bb 6cce fa3c b8b2 643c
00000160: 9f0a 08bc 4e59 f6bc 794c 77bd 9591 f03b
00000170: 3f15 333d 816e bbbc 60e2 503b 2c9c 0bbd
00000180: e051 df3b c3d2 cbbb 8a6a d8bc 10bf 083c
00000190: 6160 813c a201 6a3d 4716 09bd 7863 343d
000001a0: bbc7 09bd aa07 183b eb81 50bc c4d4 863d
000001b0: 52d4 503d 0ab8 87bd 6863 d9bc 6061 c53b
000001c0: f01d 7b3d 441f 21bd 8530 b53c 3eba 0fbd
000001d0: 769c 583d d81e 82bc b248 2ebd 74c3 563d
000001e0: d18c dbbc 525f f6bc d821 0fbc 8cf9 d3bc
000001f0: 50b8 cd3b 50a9 813d 0335 6abd b4a7 1b3d
00000200: 3f83 53bd 1594 c8bc 5304 553d aed1 00bc
00000210: 5f74 123c 7f2e 10bd 9789 593b 6ed5 25bd
00000220: 66b3 723d bc1b 0cbd 46fe 40bd 4aa2 8b3d
00000230: 6e74 5e3d ff55 623d 7a1a c9bb 7834 163c
00000240: 09f1 dabc 0a72 e1bc 47b3 08bc 8517 d5bc
00000250: 1fb7 253d eeed 6fbd 3ec4 f4bc 9881 973c
00000260: 6ec6 d33c e3a2 3fbd 2bbe 353d 0c51 103d
00000270: a1ed 5b3c 0833 86bc b073 563d f7ee 343c
00000280: 4b14 fa3c f589 dbbc 661e 09bd b2ad 423d
00000290: a91f 60bd bb35 183d ed58 db3a df94 6abd
000002a0: 58ce 613d ec59 d53c dbe7 863c 5cb5 dbbc
000002b0: 8686 17bd 288a 9ebb 9388 6bbd 0f0b af3c
000002c0: 0fec 193d 95c6 6bbd f7b8 433d dc41 db3c
000002d0: 32cc d03c 2e80 533d d4d9 773c 6d47 6ebd
000002e0: e375 39bd 1c48 4e3d de24 c1bc 8bea 65bd
000002f0: fa3d b03c 496e 6a3c 5982 e8bc 2268 69bd
00000300: 4a96 f4bc f1b8 523d d8d6 aa3c 75cd 203d
00000310: 19bd 9ebc b9a6 cabc 339d 8a3d 2007 bebb
00000320: f586 03bd a85a 23bd c33a 793d db10 52bd
00000330: 1f78 22bd 4a7a 283d f6bd e8bc 64f9 15bd
00000340: f3fb 35bd 3b44 b63c 31ec 60bd c075 82bd
00000350: 5284 02bd 0e82 72bd 9a94 963c 2dcf 22bd
00000360: 3dc4 b6bc 2854 0a3d 53e8 ed3c a7ba 17bd
00000370: 1e5d 6d3d 7f0e 933c 884e 2bbd 86d0 09bd
00000380: fcd8 27bc c1bb 3c3d cedc 5dbc 741e 59bd
00000390: c2d9 7d3d 605b 483b cb56 5a3d 7e71 0bbd
000003a0: 1280 37bd 8cd6 c1b7 6e3f 5ebd f2e7 eb3c
000003b0: 5a4e 88bd 69d4 663d 1513 9e3c cabb 48bd
000003c0: 9b0c 883d 62f4 043b 6a6f 2a3d 10a3 85bc
000003d0: 5025 a83c 147a b2bc 5635 2cbc 5686 9e39
000003e0: bde5 4b3c 3da5 08bd ba03 2dbd 34a4 fdbb
000003f0: 5c4d 0fbc a8bc 663d 032e 5fbc aef4 e6bc
0.051086646 0.063628 -0.026392303 -0.01479768 -0.051228322 0.010333697 -0.007363555 -0.042958718
0.02465088 0.024070349 -0.0005694851 0.058305286 -0.020182196 -0.055617467 -0.00010104105 0.055151455
0.007004307 0.03617417 -0.040629566 0.011428096 0.03862079 0.05701477 -0.020786416 0.03321688
0.007609419 -0.027255882 -0.052378036 0.045676 -0.010690478 -0.034745906 -0.012207759 0.01746826
-0.056154393 0.028724583 -0.019599728 -0.029897671 0.03497043 0.018036999 -0.028419487 -0.047323808
0.0066555566 -0.021346014 -0.0466095 0.0046573263 0.044515915 -0.024547253 0.04456888 -0.050628547
0.00055232644 -0.0070128157 -0.034651324 -0.004267799 -0.054157905 -0.05737379 0.029623197 0.053978704
0.019209329 0.018039035 -0.04428393 0.0019822982 -0.04582145 0.013841942 0.055231098 -0.014552645
-0.053640753 0.016109496 0.030840991 0.038359065 0.010008946 -0.060249355 0.00623893 0.014212728
0.038260534 0.024458118 0.024609517 0.043979436 -0.035368517 -0.0072813556 -0.020668324 0.041065414
-0.056345224 0.05388356 0.049400453 -0.0133859925 0.06293102 -0.006841675 0.030616008 0.0139586255
-0.0083033135 -0.03007188 -0.060375664 0.0073415735 0.043721434 -0.02287984 0.0031873211 -0.034084484
0.00681518 -0.006220193 -0.02641799 0.008346334 0.015793027 0.057130463 -0.03346851 0.044040173
-0.033637743 0.0023197928 -0.012726287 0.065835506 0.050983734 -0.066268995 -0.026536658 0.006023571
0.061307847 -0.039336458 0.022117862 -0.035089724 0.052883588 -0.015883848 -0.042549796 0.052432492
-0.026800545 -0.03007475 -0.008736096 -0.02587583 0.0062780753 0.06331122 -0.057179462 0.03800173
-0.051638838 -0.024484674 0.052006077 -0.0078624915 0.008938878 -0.035200592 0.0033193582 -0.040486746
0.05925312 -0.034206137 -0.047117494 0.068180636 0.054310255 0.055257794 -0.0061371895 0.009167783
-0.026726263 -0.027520198 -0.008343524 -0.026012192 0.04045784 -0.058576517 -0.029878732 0.018494412
0.025851455 -0.0467862 0.04437081 0.035233542 0.013423354 -0.016381755 0.052356422 0.011043302
0.030527255 -0.026799181 -0.033476256 0.04752893 -0.054717693 0.037160616 0.0016734876 -0.05727088
0.055128425 0.026043855 0.01646798 -0.026819877 -0.036993526 -0.004838247 -0.057503294 0.021367578
0.03757864 -0.05756243 0.047783818 0.026764803 0.025487993 0.051635914 0.015127618 -0.058173586
-0.04527844 0.050361738 -0.02357715 -0.05613188 0.021513928 0.014308521 -0.028382467 -0.056984074
-0.02985682 0.051445905 0.020854399 0.03925844 -0.019377278 -0.024737703 0.067682646 -0.005799189
-0.032111127 -0.03988138 0.060847055 -0.051285606 -0.039665338 0.04113225 -0.028410893 -0.03661479
-0.04442973 0.022249332 -0.05491275 -0.06370115 -0.03186447 -0.05920606 0.018381406 -0.03974836
-0.02231037 0.033771664 0.029041445 -0.03704324 0.05795013 0.017951248 -0.04182294 -0.03364613
-0.010244604 0.046077494 -0.0135414135 -0.053007558 0.06197525 0.0030572042 0.05330543 -0.03404378
-0.04479987 -2.3107299e-05 -0.05425971 0.028797124 -0.066555694 0.056354914 0.019296208 -0.049007215
0.06643029 0.0020287265 0.04161016 -0.016313106 0.020525604 -0.021786727 -0.010510763 0.00030236196
0.012444911 -0.03336071 -0.042239882 -0.007740522 -0.008746471 0.05633226 -0.01362181 -0.028192844

weight f4 [3, 256]
00000000: 052f 47bd 95a0 4c3d afcc 0b3d 8029 35bd
00000010: 15a2 1ebd a76c 643d 8c1a 43bd f4e9 00bc
00000020: e3ca 1cbd c551 d6bc aebc 2c3d e83c 78bc
00000030: 0086 803b 5e34 0cbc 1297 2abd 517d e23c
00000040: 35ff 9fbc 70fd 6d3d 46fc 29bd 15d1 83bb
00000050: 2ee3 043d 3ac0 d6bc 2f6d 3d3d 6446 1f3d
00000060: 9596 02bd 60b7 693c eb49 843d 6560 4e3c
00000070: 0678 e1bb d2ba 4abd c667 0b3d ef51 cebc
00000080: a84b 883c 2b53 af3b 9b0f a2bc 486d be3c
00000090: 52a9 423d 84ed 5f3c 2bca 523b d2d7 8cbc
000000a0: 3838 cab7 cebc dfbc a22f 883d 8460 cc3a
000000b0: 4824 53bd 40ff f53c 8a49 00bd 4d1f e8bc
000000c0: 4b94 79bd 2a28 51bd 143d 413d f6cf 72bd
000000d0: f824 8a3d 2cd2 45bd 5066 6fbd 1983 34bd
000000e0: 89f7 703d 9a85 613d f30f 87bc d224 933d
000000f0: 3685 bcbc b884 1b3d 168d 05bc 506f a83c
00000100: 4487 03bd a02b a2bb 7e40 06bd aa57 8f3d
00000110: 7e32 073d 2f5b 65bd e8f8 fa3c 261d 0d3d
00000120: 9e84 843c f251 4a3d 6fd5 9f3a ad5a 143d
00000130: 60ab fe3b 1454 e53c 221c 873d 086b 28bd
00000140: 8fb8 73bd bc62 e53c bcfa ee3c 71a3 69bd
00000150: f11c 6d3d a923 553d 76c8 f3bc a07b 203d
00000160: f943 4dbd 8070 88ba 7020 afbc 7868 3ebd
00000170: cdcf 25bc 02b1 4d3b 6cb9 c83c f422 57bc
00000180: 76b1 5f3d fd10 34bd 2282 353d 5855 613c
00000190: 284c 3e3d a82b b03c 1e6c 76bd f091 093d
000001a0: 4b8e 40bd f0f7 ec3b 8157 efbc 9ae0 f23c
000001b0: 185c 2a3c f65a 23bd f25c 18bd 24b6 6f3d
000001c0: 74db 88bb ab87 01bb 873e 5abc faa8 9bbc
000001d0: 0d0e 8f3c 1cf9 e63c 40a6 8f3c 21bb 4b3d
000001e0: bf07 94bc 082e dcbb 4749 03bd f217 aabc
000001f0: e0ad 1ebb a8e0 0b3d 5ae8 5fbd d0f0 2abd
00000200: 7c95 083d 9a1f 313d 6454 6e3d 2142 753c
00000210: 8838 55bd 6e5b 203d b7ec 453d 8f17 b03c
00000220: 2328 1abd f12b c2bc 071d dfbc 390c 37ba
00000230: 7b2b 3f3d 171b 9e3c 53ad 33bd 1cfa 76bc
00000240: 454a 413d fd32 ddbc 5b70 3f3d d45e 263d
00000250: 4eaf afbc be8e 9bbc dcab 533d 0a62 7f3d
00000260: 0ca1 d6bc a921 23bd 5029 22bd 9f8f 043d
00000270: 5046 77bc 30f6 59bd 8053 183b 29e7 b43c
00000280: 806e 5bbd 3aa2 2a3c 6826 653d f07a 0abd
00000290: 0839 ac3c 8819 9b3c c6e4 38bd 1896 2fbc
000002a0: 6001 1f3d 62a2 0abd 74eb 133b 0308 a2bc
000002b0: de9a 37bd 00f3 7f3a c962 a1bc 4c3e f73c
000002c0: 02a9 0b3d 58b3 d5bc 2c98 aa3c 4f2c cfbc
000002d0: c357 423c 6af6 dbbc 9483 47bc ccd4 7d3d
000002e0: aa52 58bd 90ca 6b3b 90cf 073c 96d3 14bd
000002f0: f055 193d b5b5 55bd e939 febc 10a7 d93c
00000300: f8e7 9b3c 2719 f0bc 7bde 0e3d be4d f1bc
00000310: 977e c7bc adcf 733b 1d3f 1a3d 6615 82bb
00000320: 1c1f 33bc a033 a8ba 8c37 863d 885c 713c
00000330: 2a53 e13b 743d d83c 3dd4 61bd a508 dfbc
00000340: 7087 68bd a100 38bd 7788 9c3b d5b4 0bbd
00000350: d769 f1bc 784f 1bbd 4baa 1bbd 8b91 d6bc
00000360: 4324 abbc 2f6d 553d bdea c33c 62cc e8bc
00000370: 0925 5ebd c0d4 623c 2b08 273d ccd0 30bb
00000380: d606 883d 1c5f f33c 78de 833c f794 2dbd
00000390: c005 49ba 40cd 5a3d f333 21bd b587 253d
000003a0: 8405 fe3c 2124 90bc 08fe c83c e005 c53c
000003b0: 2e31 8ebb eb93 933c f0d1 363d 828b 5bbd
000003c0: 0755 1f3d 6743 2dbd f825 81bc 14f6 273d
000003d0: 7ec8 78bd dc97 67bd 55e6 99bc a6c5 db3c
000003e0: 018a 163c 5dfe 04bd cd82 6fbd a291 6ebc
000003f0: 70d7 423c 25c7 633d 86a9 493d d0cb 423c
-0.048628826 0.04995783 0.03413075 -0.04422903 -0.038728792 0.05576768 -0.04763274 -0.007868279
-0.038279425 -0.026162038 0.042172126 -0.01515124 0.003922224 -0.008557407 -0.041647978 0.027647646
-0.019530872 0.058103025 -0.041500352 -0.0040227273 0.032443218 -0.026214708 0.046246704 0.03888549
-0.031881887 0.014264911 0.06459411 0.012596224 -0.006880763 -0.049494572 0.034034513 -0.025185553
0.016637638 0.0053504906 -0.019782832 0.023245469 0.047524758 0.013667468 0.0032163959 -0.017192755
-2.4106455e-05 -0.027311709 0.0664971 0.0015592729 -0.051548272 0.03002894 -0.031320132 -0.028335238
-0.06093244 -0.051063694 0.04717739 -0.05928036 0.067453325 -0.04829614 -0.058447182 -0.044070337
0.058829818 0.055059053 -0.016487097 0.07184757 -0.023012739 0.037968367 -0.008151313 0.02056089
-0.03211142 -0.004949048 -0.03277635 0.069991425 0.033007137 -0.055995163 0.030636266 0.034451626
0.016176518 0.049394555 0.0012194345 0.036219288 0.0077718943 0.027994193 0.06597163 -0.041117698
-0.05950218 0.028001182 0.029172294 -0.057040635 0.05788893 0.05203596 -0.029758673 0.039180398
-0.050113652 -0.0010409504 -0.021377772 -0.046486348 -0.010120344 0.0031386022 0.024502479 -0.013130892
0.0546126 -0.043961514 0.044313557 0.013753258 0.046459347 0.021505192 -0.060161702 0.033586442
-0.0470107 0.007231705 -0.02921653 0.029648114 0.010397933 -0.03988167 -0.037198015 0.058523312
-0.0041765515 -0.0019764702 -0.013320572 -0.019001473 0.017462755 0.028194956 0.017535329 0.049739007
-0.0180701 -0.0067193545 -0.032052305 -0.020763371 -0.0024212524 0.034149796 -0.054664947 -0.041733563
0.033345684 0.04324303 0.05818595 0.01496938 -0.052055866 0.039149694 0.048321452 0.021495609
-0.037635934 -0.023702594 -0.027235521 -0.00069827173 0.046672326 0.019300027 -0.043866467 -0.015074279
0.04718997 -0.027001852 0.04673801 0.04061778 -0.021445896 -0.018988963 0.05167757 0.062349357
-0.02619984 -0.039827023 -0.03959018 0.03236353 -0.015092447 -0.0532133 0.002324313 0.022082882
-0.053572178 0.010414654 0.05594483 -0.03380865 0.021023288 0.018933073 -0.04514005 -0.0107169375
0.03881967 -0.033846267 0.002257076 -0.01977921 -0.044825427 0.0009763688 -0.019700425 0.030181073
0.034096725 -0.026086494 0.020824514 -0.025289683 0.011861744 -0.026850898 -0.012177367 0.061970517
-0.05281321 0.003597889 0.008289233 -0.036334597 0.037435472 -0.052175242 -0.031033473 0.02656892
0.01903151 -0.029308869 0.034880143 -0.029456016 -0.024352355 0.0037202642 0.037657846 -0.003969836
-0.01093271 -0.0012832768 0.065535635 0.014731534 0.006876369 0.02639649 -0.055134047 -0.027225802
-0.05676979 -0.044922475 0.00477701 -0.034108 -0.029469414 -0.037917584 -0.0380042 -0.026192447
-0.020891314 0.05210608 0.023915643 -0.02841777 -0.05423454 0.013844669 0.040779274 -0.0026979921
0.06641929 0.029708438 0.016097292 -0.042378392 -0.00076683983 0.053418398 -0.039356183 0.040412623
0.03100849 -0.017595353 0.024535194 0.024050653 -0.004339359 0.018014869 0.044633806 -0.053599842
0.038899448 -0.042300608 -0.015765175 0.041006163 -0.06073808 -0.05654131 -0.018786589 0.026827645
0.009188176 -0.032469142 -0.05847435 -0.014561089 0.011892185 0.05560984 0.049233936 0.011889413

bias f4 [3]
00000000: 0657 33bd 1710 833d 6af5 cabc
-0.043784164 0.06399553 -0.024775226
