TargetApproach/Checkpoints/4/model.pth (torch, 274292 bytes, 6 tensors)

weight f4 [256, 3]
00000000: 06c5 afbe a804 053f 9853 e33e fa42 dbbe
00000010: 77db 613d 2197 11bf ca43 fe3e 563c 203d
00000020: 5bc3 b7bc 70aa 7ebe 739a 24be cf25 26be
00000030: 7d3b 9e3e a4fa 2cbe 00b6 8dbe 0895 343e
00000040: ca62 99be a408 4e3e eb81 443e 8960 a13e
00000050: 0caa b53e 60d4 9bbe 9937 a9be 2151 03be
00000060: a145 efbe 5647 703e 7d8a ffbe c8b6 f6bd
00000070: 23d3 efbd 503e f9be 8830 b13d 424d 673e
00000080: d56e f93e 9d7f e3be 7d88 943d 6de3 07bf
00000090: c488 913e 0888 ecbe 1b4f c9be b937 3fbe
000000a0: 08b1 adbe 7641 5abe 2e56 9f3e c0cb 0a3b
000000b0: 72ae d33e 6ade 803e a84d fabd 2f44 9ebe
000000c0: f723 f93e 22ac 0dbf 330b a9be 9681 913e
000000d0: 5c00 bcbd 0c0d c73e 2bd1 363e 6c5b 04bf
000000e0: 6830 9d3d 2485 28be c07a 053f 41dd 0dbf
000000f0: e24e cc3c d3a0 6bbe f79a b2bc 0f0b 01bc
00000100: 3937 143f 6501 89be 4a99 12bf b32f 44bd
00000110: 2166 0ebf e886 093f ef0f a4be 48fd ab3d
00000120: 9b54 cb3e 8f6e 943e ae47 f63e 36cb 83be
00000130: d93b 86be 9a9a b2be 81a3 e53d d346 da3e
00000140: 5940 cfbe b976 f23e 4011 c03d 723a abbe
00000150: dcaf 023f 2c5d c0be c146 0b3f 4ab9 143d
00000160: 4b0d 8bbe ba93 10bf 0ee7 01bf 49e6 f6bd
00000170: 378c f03d 8eb8 f53e a254 57be 01b2 2b3d
00000180: 3aa1 a03e 6b8a f83c 0606 bebe f5ab 91be
00000190: d53b e9bd 7072 81be 845f c63d 99df a33e
000001a0: 9a29 b13e 225a 883e 3a6b fcbe 2070 c9be
000001b0: 0815 42be c056 50bc 90bd 07bf 9776 83be
000001c0: aaa5 de3e 25ce ea3d 79f4 023f 61ee 06bf
000001d0: 796e 043f 5f46 2ebe c520 cebe 9a2a d9be
000001e0: 0096 dcbe 851e 803e f003 d13e e5ce 88be
000001f0: d29c f13e 9a69 e5be 6d48 f6be cd89 903b
00000200: 8612 0fbf 7193 76be 9f31 eb3e 072e 063e
00000210: 006a 04bf 6e30 10bf 8500 ad3e 104f b9be
00000220: 4c09 b83e 6996 123f 1bec 383e a63d 8fbe
00000230: 7ae7 dc3e 3ec1 e83e 83bb b1bd fb10 e4bd
00000240: e8ed 9ebe eb73 ef3e 7490 60be 110e f33e
00000250: 06a7 873d e40c 99be c30b 873e 7b67 bebe
00000260: 8276 cb3d 0088 e43e eb65 d9be e8fd 073c
00000270: 347b f53d c8c8 d3bd fca8 353e 1b7f 0f3e
00000280: 542d 5ebe 27f3 e3be 9c0e e33d 4246 f13e
00000290: 48af 91bd 103a 133f 27bd e6be 3e4a 8d3e
000002a0: 4669 46be 35d3 0cbf cfc8 bf3e e5bd e3bd
000002b0: c70f 313e 50f0 12bf c04e 093f b46f 97be
000002c0: a138 783e f5a0 91be e38c 02bf d7af e4bd
000002d0: 5520 80be ff64 42be 6961 d83e c153 10bf
000002e0: 62cc 08bf 0edf 48be b80a 13bd d405 06bf
000002f0: f49b 073f 77b5 5d3e 5b15 683e a5ab 463e
00000300: 77a4 0b3f b6ac 553e 47d8 03bf 4981 67be
00000310: d8ad 53bd 358b bcbe fe03 a2be 847f e2be
00000320: 1fb1 d3be 7c23 373e fcd6 d1bd 7e3e 823e
00000330: f443 013f 2f32 24be b523 02bf 9829 e5be
00000340: c43b 143f 3015 11bf 3b07 993e 0b32 8f3e
00000350: 3094 80bd ee86 e2be 35fb 283c c49e 093f
00000360: c0e8 b6be 0c2d 0c3f b001 80be 8a78 09be
00000370: 891e 0ebf 1df1 ed3e ff1e 80be 2356 f7be
00000380: cde4 8a3d c6cf 68bd 976f f93d a227 1bbe
00000390: f4e7 dfbe e588 cdbe f001 9f3e cb61 f7be
000003a0: f14a de3e b1ff 323e 2c4a 313c 6f17 53be
000003b0: 0eb0 043f 6ddd 0c3f caae 60be 9764 a03d
000003c0: 975b 8e3e 713d ad3e 820e 093d 700a f3bd
000003d0: deb5 013d 2613 ddbe efa1 07be d13d c73e
000003e0: b665 0bbf ca27 debe fc32 e7be e3e2 1e3e
000003f0: c924 123d bb51 d9bd 3dcd 983e e01b 67be
-0.34330004 0.5196023 0.44399714 -0.42824537 0.05514094 -0.5687123 0.49661094 0.03912004
-0.02243202 -0.24869704 -0.16074543 -0.1622536 0.3090476 -0.16892487 -0.27677917 0.17634976
-0.29958183 0.20120484 0.19190185 0.31518963 0.35481298 -0.30435467 -0.3305023 -0.12823917
-0.4673281 0.23464713 -0.49910346 -0.120465815 -0.11710193 -0.48680353 0.08651835 0.22588065
0.4871737 -0.444333 0.072525956 -0.530814 0.28424656 -0.46197534 -0.39318165 -0.186736
-0.33924127 -0.21314034 0.31120437 0.0021178573 0.4134403 0.25169688 -0.12221843 -0.30911395
0.48660251 -0.5534078 -0.33016357 0.2841918 -0.09179756 0.3887714 0.17853229 -0.51702
0.076752484 -0.16457039 0.52140427 -0.5541573 0.024939958 -0.23010568 -0.021802409 -0.007876172
0.57896763 -0.26758876 -0.5726515 -0.047897052 -0.55624586 0.53721476 -0.32043406 0.08397919
0.39712986 0.289906 0.48101562 -0.25740975 -0.26217535 -0.34883577 0.112128265 0.4263216
-0.4047878 0.47356203 0.0937829 -0.33443028 0.5104959 -0.37571084 0.54404837 0.036309518
-0.2715858 -0.5647541 -0.50743186 -0.12055642 0.11745494 0.47992367 -0.21028379 0.041917805
0.31373006 0.03033944 -0.3711397 -0.28451505 -0.11388365 -0.2528262 0.09686187 0.3200653
0.34602052 0.26631266 -0.49300557 -0.39343357 -0.18953335 -0.012715995 -0.53023624 -0.25676414
0.43485767 0.114651 0.51154286 -0.5270749 0.5173107 -0.17019032 -0.40259376 -0.42415315
-0.4308319 0.25023285 0.40823317 -0.26720348 0.47189957 -0.4480713 -0.4810213 0.0044109584
-0.5588764 -0.24079682 0.45936295 0.13103496 -0.51724243 -0.563239 0.3378946 -0.36193132
0.35944593 0.5726076 0.18058817 -0.27976722 0.43145353 0.45459932 -0.08678343 -0.11136051
-0.31040883 0.46768126 -0.21930104 0.4747167 0.06623654 -0.29892647 0.2637616 -0.37188324
0.09934713 0.4463501 -0.4246057 0.008300282 0.1198639 -0.1034103 0.17740244 0.1401333
-0.21696979 -0.44521448 0.11086771 0.47123915 -0.0711351 0.5751047 -0.45066187 0.27595705
-0.19376096 -0.55009776 0.37457892 -0.11120204 0.17291175 -0.5739794 0.5363579 -0.2957741
0.24240352 -0.28443113 -0.50996226 -0.11166351 -0.25024667 -0.1898384 0.42261818 -0.563778
-0.53436863 -0.19616339 -0.035898894 -0.52352643 0.5297234 0.21651255 0.22664396 0.19401415
0.5454783 0.20866665 -0.5150189 -0.22607912 -0.051679462 -0.36824957 -0.3164367 -0.44237912
-0.4134607 0.1788463 -0.10246083 0.25438303 0.50494313 -0.16034769 -0.50835735 -0.44758296
0.57903695 -0.56672955 0.2988833 0.27967867 -0.062782645 -0.44243568 0.010313799 0.5375788
-0.3572445 0.54756236 -0.25001287 -0.13424888 -0.5551534 0.46473017 -0.25023648 -0.48307905
0.067819215 -0.056838773 0.12179487 -0.15151837 -0.43731654 -0.40143505 0.31056166 -0.48316798
0.4341655 0.17480351 0.010820907 -0.20614408 0.5183114 0.5502537 -0.21941677 0.07831686
0.27804253 0.3383594 0.0334611 -0.11867225 0.031667583 -0.43178672 -0.13245367 0.3891435
-0.54452074 -0.43389732 -0.45156085 0.15516238 0.035679612 -0.10611292 0.29844084 -0.22569227

bias f4 [256]
00000000: 0547 063f 7f20 9cbe d8b2 7b3e 889d c4be
00000010: b550 df3d 9c23 023f 7ad4 c3be b81c 02bf
00000020: 0aed c1be c105 13be c877 d23e 5bcf 873c
00000030: 370f 9f3e 61d4 c63e fe9d 7b3e 6e95 a1be
00000040: 0d57 0d3f 2f45 a0be a673 933d 152c dcbe
00000050: 5981 f9be 17b0 b33e c210 bcbe c78f 773e
00000060: 6062 b13e 613d e23e ebd9 0c3e d487 073f
00000070: 5b50 143e 47d3 e3be b6f3 f9be f50e 0d3f
00000080: eaeb b43e 6d84 923d ef7d 0c3d 440e c13e
00000090: 3d0d edbe 047a bc3e 5245 223e d84d 7fbe
000000a0: 2f26 f83d 23b9 babe 29f4 833e 155e a63e
000000b0: 655e 5e3e 76cd febe 2e9b ec3e 8631 c9bd
000000c0: 7d19 37be ba5b bebe eea1 00be 27ef bcbe
000000d0: d11f f1be ca38 f53e dfd5 853e c96d 153f
000000e0: 859b 873e 4fd5 043f 911d 03bf 5349 09bf
000000f0: c0c7 77be 647d cdbe 0c24 aa3e 20ba b7be
00000100: 246e 94be 3a37 4bbd 877c e1be 5147 663e
00000110: ba85 93be 489d 7ebd 09b4 f3bd 4aa1 a63e
00000120: 3539 06bf 8b38 c83e 7082 e43e ff4e 103f
00000130: bfe0 d1be 72b1 ffbd 73c6 953e ef37 19bd
00000140: 848e 78be 0d34 60be 2389 f9be 2cd0 da3e
00000150: 05d5 1a3d 94c5 f9bd 8b51 c13d 8f12 ffbe
00000160: 7a4f 4a3e 6ce6 99be a25d cfbe b808 f0be
00000170: 1d47 ae3e 62b7 babe c355 c4be 28eb 44bd
00000180: 1add bfbc e562 09bf 94c9 b4bd 6589 0b3f
00000190: 0782 78be 466b 47be a265 4bbd a5d9 053e
000001a0: 60c4 10bf 0a97 c63e 03e9 29be f3e0 013f
000001b0: d5ca c03e a778 873e 6ca3 d0be a73a 953e
000001c0: ac9d 043f f81f 033f dc24 ad3e 7f88 4fbe
000001d0: 894b 59bd ba5b 913e 7888 8dbc e5bc 313e
000001e0: 0d14 f7bd b661 053f 663a 2a3a f21a d7be
000001f0: 83fb fbbe b9d0 973e 20fb db3e 2366 9a3e
00000200: 380a fb3e 4cda 1b3e cef7 98bd 80a1 073e
00000210: 99ab 62bc 6ef2 a03d 3a23 edbc aee9 47be
00000220: 3ede 3cbe f75e 31be 7ebd 493e 0a8a d2be
00000230: 2712 10be f83e 9cbe 0802 d9bd 5ac0 3a3e
00000240: 253c d3bb 26fb 5b3e 1f5a 353e 446c a13e
00000250: 4868 813c cf89 9a3e 5466 05bf fc9a f2be
00000260: fc97 703e 49d3 b1bd 1697 693e 0f2b 8f3c
00000270: 16f4 223e 2dfc 043e ad82 ddbd c252 f93e
00000280: 3b0e d4be d1f5 b83e ec9b e33d 819a a23e
00000290: 28a4 71bd db68 37bd 7954 f5be ddc4 603d
000002a0: 1ff4 ecbe 11a4 98be 312b 8a3e 6ee6 de3e
000002b0: 724b dbbe a307 9b3c 7785 cdbe 0feb babe
000002c0: 4161 d43d b7fd f33e c36f fdbe 46c0 61be
000002d0: 6798 623d d5ab 033f 3ae9 283e 9bc7 f4bd
000002e0: f73e 0bbe f3ac a83d c047 a5be 1c4e d1be
000002f0: 74ce 0ebf cbcc 91be 8d46 953e 2c52 11bf
00000300: 1cdb d23d fb95 933e e108 433e e41c 86be
00000310: cee4 33be 512c bc3d 4b30 4dbe c492 33be
00000320: 3a23 45bd bbe4 013f 6c55 963e 08b6 033e
00000330: a162 8b3e b949 ba3d 7152 d8be 3c22 213d
00000340: de3b 4f3e 3a47 103f 6942 443e 387d 9d3e
00000350: 205a 853e 9acc 59be 9637 303e 095f 8a3c
00000360: a8c8 9abe 12c8 4b3e 2ab5 1ebe 980e d1be
00000370: bbcc d93e 88f7 9a3e a5e5 e1be 6042 963e
00000380: f4bf 073f 59ee 63bd d059 e83e 450d 7c3c
00000390: 7599 8abd d91d c33e e59f 223e b150 c0be
000003a0: 6d70 a1be 2ed8 963d 7c9d f3bd 7c27 b6be
000003b0: c895 5fbe 876b c7bd 3a65 473e 5f0b a7bd
000003c0: 37c4 9fbe 0b7a 093d 3d33 c3be 3ce6 88be
000003d0: 6d40 cabe f5a7 00bf 9987 953e 2c3f 2f3e
000003e0: da4d ee3e 5b56 ae3e 122e e73e 0fc3 c6be
000003f0: 34fc c0bd 41dd 023f 1e06 d1be 6c3e 84be
0.5245212 -0.30493543 0.24579942 -0.38401437 0.109040655 0.50835586 -0.38248044 -0.5082507
-0.3787616 -0.14357664 0.4110701 0.016578367 0.31066296 0.38833907 0.24571988 -0.31559318
0.55210954 -0.31302783 0.071997926 -0.43002382 -0.48731497 0.35095283 -0.36731535 0.2417594
0.34645367 0.44187453 0.13755004 0.5294163 0.14483778 -0.4449713 -0.4881875 0.5510095
0.35336238 0.071541645 0.034299787 0.37706196 -0.46299163 0.3681184 0.15846756 -0.24932039
0.12116658 -0.36469373 0.25772217 0.32493654 0.21715696 -0.4976613 0.46212143 -0.09823899
-0.17880817 -0.37179357 -0.12561771 -0.3690121 -0.47094586 0.4789489 0.26139733 0.58370644
0.2648584 0.51887983 -0.5121699 -0.5362751 -0.24197292 -0.40134728 0.33230627 -0.3588419
-0.2899028 -0.049613215 -0.4404032 0.22488143 -0.28812963 -0.062161714 -0.11899573 0.3254493
-0.5243104 0.3910564 0.44630766 0.5637054 -0.4099178 -0.12485017 0.29252967 -0.037406858
-0.24273115 -0.21894856 -0.4873744 0.42736948 0.037800808 -0.12195888 0.09439381 -0.49818847
0.1975688 -0.3005861 -0.40501124 -0.46881652 0.3403863 -0.36468035 -0.3834668 -0.048075825
-0.02342086 -0.53666526 -0.088275105 0.5450652 -0.24268351 -0.19474515 -0.04965747 0.13071306
-0.56549644 0.3878711 -0.16592793 0.5073387 0.3765475 0.26459238 -0.4074968 0.2914631
0.5180309 0.51220655 0.33817184 -0.20266913 -0.05305055 0.28390294 -0.017276987 0.17357214
-0.12064371 0.5210222 0.00064936874 -0.42012745 -0.49215326 0.2965143 0.4296503 0.3015605
0.49031234 0.15219992 -0.0746914 0.13245201 -0.013834857 0.0785874 -0.028947461 -0.19522735
-0.18444154 -0.17321382 0.19701192 -0.4112094 -0.14069425 -0.3051679 -0.105960906 0.18237439
-0.006446379 0.21482524 0.1771016 0.31527913 0.015796795 0.30183265 -0.52109265 -0.4738387
0.23495477 -0.086828776 0.22811541 0.017476587 0.15913424 0.12986822 -0.1081594 0.48695952
-0.41417107 0.36125043 0.11113724 0.31758502 -0.058994442 -0.044777732 -0.4791601 0.054875243
-0.4628 -0.29812673 0.26986077 0.4353518 -0.42830998 0.01892454 -0.40140888 -0.3650746
0.10370112 0.47654507 -0.4949933 -0.22046003 0.055321123 0.5143407 0.16495219 -0.11952134
-0.13598238 0.082361124 -0.32281303 -0.40879905 -0.5578377 -0.28476557 0.29155388 -0.5676601
0.10295698 0.28825364 0.19046356 -0.26193917 -0.17567751 0.0918814 -0.20037954 -0.17536455
-0.048129298 0.5073964 0.29362047 0.12862408 0.27223685 0.09096093 -0.42250398 0.03933929
0.20237681 0.56358683 0.19165958 0.30759597 0.26045322 -0.21269456 0.17208704 0.01689102
-0.30231214 0.1990054 -0.15498796 -0.40831447 0.4253901 0.30266976 -0.44120517 0.29347515
0.5302727 -0.055647228 0.45381021 0.015384023 -0.06767551 0.3810871 0.15881307 -0.37561563
-0.31531087 0.07365452 -0.11895272 -0.35577 -0.21834481 -0.09737306 0.19472209 -0.08156466
-0.31204388 0.033563655 -0.3812503 -0.26738155 -0.39502278 -0.5025628 0.29205015 0.17113942
0.4654377 0.3405026 0.45152336 -0.38820693 -0.09423104 0.51118857 -0.4082498 -0.25828874

weight f4 [256, 256]
00000000: 893d 5cbd a428 23bc d6d6 17bd a453 53bd
00000010: 83e2 ffbc 83d2 c4bc a432 87bc 0a08 75bd
00000020: 0ab6 133c 5406 7d3d bbf6 0bbd 1055 c1bc
00000030: e18c 8f3c d2ed 1dbd 7d8f 4f3d 9642 5e3c
00000040: 0c18 e0bb 4855 56bc a0cd 843d ede3 33bd
00000050: 223f 063d 5d65 0bba 60ac 2a3b e6b9 1ebd
00000060: 6c38 cf3c d83e 393d 0397 883d fabf c23b
00000070: 0c37 af3b 0019 843b 34a4 9c3c 8e84 733d
00000080: 8b27 463d 2c7a 78bd d511 dc3c c27e 87bc
00000090: 5e00 623d 7a7a 31bd bff9 413d 187e e13c
000000a0: 0636 cd3c 6e6a 6ebd 4037 02bd 3b6c fb3c
000000b0: 24a1 9dbc e468 55bb 9c11 b63c 66fe 28bd
000000c0: 6f18 62bd 5d36 3d3d 127d 3a3d 6b02 2a3d
000000d0: b982 0dbd cc9d 023c 3dd6 f5bb 3f0a b8bc
000000e0: ccd4 9abc b2bc 10bc fd3f 23bd 3cbe 5ebd
000000f0: a8b4 52bc 56a5 593d 6753 cd3b a363 61bc
00000100: 8c5e 26bd 8e11 1f3d cc23 913c 1b67 32bd
00000110: 614e d93c 9cee bc3c 59cd 843d fb39 123d
00000120: 124c 03bd 00a6 283c 80c7 543d 31e8 9a3c
00000130: 3cc9 d3bc 846d 9ebc d93c 45bc 2746 4fbd
00000140: c615 61bc 76ad c7bc 4feb 54bd e270 233d
00000150: c823 803d a334 3d3d 9ce6 0d3d 5d22 06bd
00000160: d0a9 3a3c e24f b03c 9c56 21bd 01d0 d03c
00000170: 3413 d4bb 359b 2fbd c6ed 353d f038 1c3c
00000180: 0a42 7f3d 3144 143d a912 71bc 77e4 c13b
00000190: 380a c03c f45b 38bd 9cb8 d63c 3cb4 b63a
000001a0: 3897 c73c e791 7b3d 4435 14bd bd77 ffbc
000001b0: 4c36 13bd 3ee1 cc3b 2e57 483d eb58 093d
000001c0: 28a8 173d 8b24 ad3c 59ea e7bb b5b5 87bb
000001d0: 7554 303d 93e9 083d 1e13 273c 66fb 38bb
000001e0: 839a 883d d298 32bd 00ce 163a 0c8b da3c
000001f0: b853 36bd 8c5f 573d 56f1 253d 8c9b c4bc
00000200: 7a6d 463d 919f 6b3d b3de adba af68 8d3d
00000210: e8fa 583d 576f b83c 4811 4abd 5b02 a1bb
00000220: ecb0 b03c 4cf7 eb3c 1218 683d 7038 53bb
00000230: 3025 d63c 4462 6b3d fa34 ca3c d979 7d3c
00000240: b3f3 2f3d 8f53 57bd 61fd 8c3b 7b29 8bb9
00000250: 8188 2e3d a723 52bd 8e91 a4bc d4dc 4fbd
00000260: 5acf 50bd 7d8a ab3c 1ea4 853a b2d9 abbc
00000270: a019 d43c 8e35 25bd b6ec cbbc f7fd 1bbd
00000280: c0c9 9fba 0106 00bc 1c06 143d 2b38 173d
00000290: deed 543d c0f8 f7bc 2af3 c7bc 879c 2d3d
000002a0: e716 91bc 6802 a2bb 02a8 713d e7bc 12bd
000002b0: 08ab 823c 9527 603d f2f1 b73c 348a 58bb
000002c0: 373a 4f37 529b bfbc 8bff f1bb 5e3b 073d
000002d0: 15c2 23bd f966 633d 0a41 133d f1f0 5e3d
000002e0: 1d84 a9bc a79e e93a 7ed1 483c f05b c7bb
000002f0: 03e9 3bbd 94d3 0fbc 8019 343d 08dc 0f3d
00000300: e4f9 113c 5444 44bd a6d0 80bc b60e 5fbd
00000310: 043c 303d 2106 073d 5466 e33c 3cde cdba
00000320: 80d2 dc3b 09a9 d33c 1075 7abc bead a9bc
00000330: 318d 0a3d 0c90 d6bc 01b4 073b 6447 74bc
00000340: e032 6abc 27d5 563d 952d e7bc d630 d9bc
00000350: 6c43 183d f615 5d3d 05d3 683d 3e52 353d
00000360: 44f7 723d f0fe 083d cbb6 193d da91 56bd
00000370: 65b1 893d 9d56 43bd 9d68 63bd 39d7 b53c
00000380: 8660 bdbb 9540 193b 4b7e 9c3c d7f3 ebbc
00000390: b42a fb3c 591b 2abd 6d07 debc 6fcf 56bd
000003a0: 9ed9 36bd 468f 2c3d 38dd 7d3c e08c 373b
000003b0: 6e40 c6ba ce3d e7bc 3c6f 873d 701e 083c
000003c0: 19af e13c f089 5f3c 6092 873b 49e5 b8bb
000003d0: 602a 46bd b410 fbbc 00de 15bd ef1f 8b3d
000003e0: 6264 a83c 6f01 16bd ac5e 07bd 2f2c 58bd
000003f0: 6be2 353c 4c9d eabc e636 883d 439d 07bd
-0.053769622 -0.00995842 -0.037070118 -0.051593438 -0.031235939 -0.024026161 -0.01650364 -0.05982212
0.009015569 0.061773613 -0.034170847 -0.023600131 0.017523231 -0.03855688 0.05067395 0.01356568
-0.006838804 -0.013081856 0.06484532 -0.04391854 0.032775052 -0.00053175335 0.0026042685 -0.038751505
0.025295459 0.045225948 0.06669428 0.0059432955 0.0053471383 0.0040313005 0.019121267 0.059452586
0.048377555 -0.060663387 0.026863972 -0.016539935 0.05517613 -0.043329693 0.047357317 0.027525946
0.025050174 -0.058206968 -0.03179097 0.030691257 -0.019241877 -0.003256374 0.022225194 -0.04125824
-0.055199083 0.046194423 0.045529433 0.041506212 -0.034548495 0.007972192 -0.007502346 -0.022465823
-0.018900298 -0.008834051 -0.039855946 -0.05438064 -0.012860455 0.053136192 0.006266046 -0.013756665
-0.04061751 0.0388351 0.017717265 -0.04355536 0.026526632 0.023062997 0.064844795 0.035699826
-0.03205497 0.010293484 0.05194807 0.018909546 -0.025852792 -0.01933933 -0.012038433 -0.050604012
-0.013738101 -0.024374705 -0.05198222 0.039902575 0.06256825 0.046192776 0.034643754 -0.032747615
0.0113930255 0.021522466 -0.039389238 0.025489809 -0.0064720158 -0.042872626 0.04441621 0.009535059
0.06231884 0.036197845 -0.014713922 0.0059171277 0.023442373 -0.04500957 0.026211075 0.0013939212
0.024364099 0.06141844 -0.03618361 -0.031185025 -0.035940453 0.006252437 0.048911266 0.033532064
0.0370256 0.02113559 -0.007077497 -0.004141534 0.043049295 0.03342588 0.010197429 -0.0028226017
0.06670096 -0.043602772 0.0005752742 0.02667763 -0.044513434 0.052581355 0.04051336 -0.023999952
0.04844425 0.05752522 -0.0013265222 0.069047324 0.052973658 0.022514028 -0.049332887 -0.004913611
0.021568738 0.028804444 0.05666358 -0.0032229684 0.02614078 0.05746676 0.024683464 0.015470945
0.04295702 -0.052569922 0.004302666 -0.0002654305 0.04261065 -0.051303532 -0.020088937 -0.050747707
-0.050978996 0.02094006 0.0010196005 -0.020977829 0.025891125 -0.040334277 -0.024893146 -0.038083997
-0.0012190863 -0.007813931 0.03613864 0.0369188 0.05198466 -0.03026998 -0.024407942 0.042385604
-0.017711116 -0.0049441345 0.058998115 -0.035824683 0.015950695 0.05472525 0.022454236 -0.003304136
1.2351716e-05 -0.023389492 -0.0073851994 0.0330156 -0.039980013 0.055518124 0.035950698 0.054429
-0.02069288 0.0017823771 0.012256978 -0.006083958 -0.045876514 -0.0087784715 0.04396963 0.035121948
0.008909676 -0.047916725 -0.015724491 -0.05445739 0.043025985 0.03296483 0.027758755 -0.001570649
0.0067389607 0.025837438 -0.015286699 -0.02071273 0.033826057 -0.026191734 0.0020706656 -0.014909599
-0.014294356 0.05244937 -0.028219977 -0.026512545 0.037173674 0.05397602 0.05684187 0.044267885
0.059317842 0.033446252 0.03752784 -0.05238519 0.067232884 -0.047690023 -0.05551969 0.022197353
-0.0057793288 0.002338444 0.01910319 -0.028802795 0.03066001 -0.041529987 -0.02710315 -0.052443918
-0.04464113 0.042128824 0.015494637 0.0028007552 -0.0015125403 -0.028227713 0.06613013 0.008308038
0.027549313 0.013643727 0.0041373223 -0.0056425673 -0.048380256 -0.030647613 -0.03658867 0.067932
0.020555679 -0.03662246 -0.03304927 -0.05277651 0.0111013455 -0.028639458 0.06651096 -0.03310896

bias f4 [256]
00000000: 0dd2 363d 7dfe 81bd 3a84 a4bb 588e 243d
00000010: b1d7 68bd 897d a1bc 6937 7bbd b825 763d
00000020: d5ca 2dbc c1bc 433d 33e9 84bb fa69 a8bc
00000030: b040 df3b b29f 95bc 5731 223d 39da 553d
00000040: 76a4 673d e670 d8bb 4c8b 28bd 7825 e73a
00000050: e4f5 2ebd 8143 76bd 06cd d13c 6822 053c
00000060: f063 9d3b d4dd a1bc 3db8 313d 830a 45bd
00000070: e083 5d3c 10cf 2ebd 993a ebbb 0018 ed3b
00000080: 2169 f23c 3486 3e3d ddd4 4cbd 217f 7e3d
00000090: dd39 09bd 7cdd 683d a5fb 843c 7756 5d3b
000000a0: e895 2e3d 994f 013d 74ed 0e3c 2c65 3ebd
000000b0: ba6a 5f3d fd30 3dbb 3da3 263d 2dd9 77bb
000000c0: d4be 763d 3382 27bd 1787 6e3d cb04 6b3d
000000d0: 378c a73b fac1 65bd 3010 273d d43a b63c
000000e0: 04a6 5bbd 8ab9 3b3d 5b33 50bb 7e4b 103c
000000f0: c134 b83c b21a 5cbd e6c0 6b3d 0752 8a3d
00000100: a611 6d3d 4baf 3bbd 03e8 0e3d e0da 143c
00000110: 11f9 3b3b d87c a43c 84af 7ebd f186 c8bc
00000120: 7bcf d739 22ec 8abc 3d59 83bb 7f92 25bc
00000130: 97d7 783d 2627 3d3c e933 483c ac93 51bc
00000140: dc08 23bd c21d e13c a47c bb3c 30d6 54bd
00000150: 287d 0b3d 3e05 1e3d 5663 8b39 0ba4 02bd
00000160: 99d9 513d 03ef 0cbc 22ba eb3c 6636 14bd
00000170: 0881 083d 92be 09bd b7fe 883d 1172 37bd
00000180: aae6 19bd c895 9e3c de1a 52bd aa56 11bc
00000190: 3028 bbbc 44ce 463d 7760 5c3d ec5a 30bc
000001a0: 7745 c43b 6253 a0bc 9c28 8a3c addb 823d
000001b0: 765e 86bc 400f c6bc 1de2 34bd abca 873d
000001c0: cc19 4abd adfb 46bc 319e b23b 131b 283c
000001d0: d81d 13bc 9e1c 74bc c0b2 3f3c c770 43bb
000001e0: 8056 e03a e677 3abd 05c4 56bd 065f 3dbd
000001f0: 0df8 353c 57c6 d9bc 3754 9ebb 1437 3bbc
00000200: fb69 5bbd 313e 823d e71e 823d be97 35bd
00000210: 65a6 47bd 6909 093d 0ace c33c 06b2 063d
00000220: 456a 423d 6d90 90bc fb9b 643d 7c97 a53a
00000230: b65d 7ebd 9390 ac3c 2c44 0c3d e654 a8bc
00000240: 9ac7 5abc 7044 363d 2963 473d 2f3b 35bc
00000250: 9f7d 643c 8e53 8abc 33ab 433d 3b18 49bd
00000260: 2035 393d 80c3 3aba c175 0abd 596a e0bc
00000270: 5ee5 8b3c 1742 423c 450d 8d3c 8210 5e3d
00000280: ce59 bb3b 8467 6ebc 82b8 4d3d ea41 7fbd
00000290: a0c9 57bb f12d 863b 2b4a 7d3d 6262 6fbd
000002a0: 1cb7 4ebd 5b4d 0e3c 78d5 a83c 2e66 253d
000002b0: 4c63 dcbc 0ef2 c63c 044d 663d a5d4 393b
000002c0: 7fd8 e03c 3491 4c3d 5db2 7ebd 5f97 ccbc
000002d0: 19f4 f1bc 0bfb 53bc 726a d43c 2da0 0ebd
000002e0: 42c0 1cbb 40a9 da3b e22a 59bd 2c9a 853c
000002f0: ce12 313a 6e31 10bd ef57 dcbc c098 40bd
00000300: 46bb d63c d832 313d d74d 25bd c886 bb3c
00000310: 62f3 8dbc f423 44bc e4ea 18bd d24c 16bd
00000320: 4608 ec3c 96ef 5ebd 3cbb a2bc 9c9e 08bd
00000330: f8d1 463d 9ae2 703c e33f 693b fc76 343d
00000340: 800c afbc ba01 453c 25b0 393d 307c c33c
00000350: 94ec 943c b96c 573d 5763 5e3d 1600 44bd
00000360: fb56 1a3d c5f4 15bd 9967 5c3d 72fb 663d
00000370: 72e0 f9bc 6744 a0bc a685 57bd 44ad c03b
00000380: 076d 143d e6ac 25bb 48be fa3c e0cc 2cbd
00000390: dccf 093d 408a c33b f0c7 d63b acfc 5dbc
000003a0: bb57 78bd 7c57 3bbc 80ea 44bd 618b 2abc
000003b0: f99a f83a 6121 64bd ae62 e8bc 74f3 afb9
000003c0: 7ba6 4dbc ed6c a23b a8a5 45bd 92c5 6d3d
000003d0: d2a4 debc 3495 873c 6cc1 493c 7c4b 0d3b
000003e0: 27e8 7cbd 40d8 95bc f51c a5bc 5c77 ae3c
000003f0: b275 163d e34f 28bd 1cf5 623d 2380 a0bc
0.044633914 -0.06347368 -0.0050206454 0.040174812 -0.056846324 -0.01971318 -0.06133214 0.060094565
-0.010607441 0.04778743 -0.00405612 -0.020558346 0.0068131313 -0.018264625 0.039597835 0.052210066
0.056553327 -0.0066052554 -0.04114847 0.0017635068 -0.04271497 -0.06012297 0.025610458 0.008125879
0.0048031732 -0.019759096 0.043388594 -0.048105728 0.013520211 -0.04267794 -0.0071786162 0.007235527
0.029591145 0.046514705 -0.05000769 0.06213296 -0.03350245 0.05685185 0.016233275 0.003377346
0.04262343 0.03157005 0.008723605 -0.046483204 0.05454514 -0.002886831 0.04068302 -0.0037818656
0.06024058 -0.040895652 0.0582343 0.057377618 0.0051131505 -0.056093194 0.040786922 0.022244848
-0.05362512 0.04583124 -0.0031768891 0.008807061 0.022486093 -0.053736396 0.05755701 0.06753927
0.05787816 -0.04582147 0.034889232 0.009085387 0.002868239 0.020079061 -0.062179103 -0.024478408
0.0004116258 -0.0169583 -0.0040084408 -0.010105728 0.060752477 0.011544978 0.012219408 -0.012791555
-0.03980337 0.02748001 0.022886582 -0.051962078 0.034054905 0.038579218 0.00026586157 -0.031894725
0.051232908 -0.008601907 0.028775278 -0.03618469 0.03332618 -0.033629008 0.06689208 -0.044786517
-0.037573494 0.01935853 -0.051295154 -0.00887076 -0.022846311 0.048536554 0.053802934 -0.010763865
0.005989726 -0.01957101 0.016865067 0.06389556 -0.016402464 -0.024177194 -0.04416095 0.06630453
-0.049341008 -0.012144965 0.005450987 0.010260361 -0.008979283 -0.014899401 0.011700332 -0.002982186
0.0017115623 -0.0455245 -0.052433033 -0.0462332 0.011106503 -0.026583834 -0.0048318165 -0.011426706
-0.053567868 0.06359518 0.063535504 -0.044334166 -0.04874267 0.03345624 0.023901958 0.03288462
0.047464628 -0.017646993 0.055812817 0.0012633647 -0.06210109 0.021065032 0.0342447 -0.020548295
-0.013353253 0.04449886 0.04867855 -0.011061474 0.013945966 -0.016885545 0.04777069 -0.049095374
0.04521668 -0.00071244687 -0.033803705 -0.02739446 0.017077144 0.011856577 0.017218241 0.05421496
0.0057174927 -0.014551047 0.05022479 -0.06231872 -0.0032926574 0.004094832 0.06183831 -0.058443435
-0.050467595 0.008685435 0.020609602 0.04038065 -0.026902817 0.024285343 0.05622579 0.0028355506
0.027446983 0.049943164 -0.06218182 -0.024974523 -0.02953534 -0.012938271 0.025929663 -0.034820724
-0.0023918306 0.006673008 -0.05301941 0.016308866 0.0006754816 -0.03520339 -0.026897399 -0.047020674
0.026212346 0.04326138 -0.040357437 0.022891417 -0.017327968 -0.0119714625 -0.037333384 -0.036694355
0.028812539 -0.054427706 -0.019864671 -0.033354387 0.048540086 0.0147024635 0.0035591058 0.044058785
-0.021368265 0.012024337 0.045334 0.023862928 0.018179215 0.05259392 0.054293957 -0.047851644
0.037680607 -0.036610384 0.053809736 0.05639214 -0.030502532 -0.019563867 -0.05261769 0.00588003
0.03623679 -0.0025280057 0.030608311 -0.04218757 0.033645496 0.0059674084 0.006554596 -0.013549011
-0.06063054 -0.011434432 -0.0480752 -0.010409207 0.0018967084 -0.055695895 -0.028367367 -0.00033559988
-0.012551899 0.0049568326 -0.048253685 0.058049746 -0.027178202 0.016550638 0.012314182 0.0021559885
-0.061744835 -0.018291593 -0.02015541 0.02129715 0.036733337 -0.04109181 0.055409536 -0.01959235

weight f4 [3, 256]
00000000: 07e1 4a3d ce23 06bd 160a 023c d8bc 02bc
00000010: d9d6 7bbd 24c6 a53c 3829 3b3d 76ad 6f3d
00000020: e1b8 593d 97e4 64bd 7062 2d3d 34fc 47bd
00000030: 4e56 633d daad 47bb 9eaf 8b3d f2fe d63c
00000040: 940d bf3c 3fbc f73c 7891 2ebd fa78 833d
00000050: 3541 20bd cf2c 64bd c3c2 313c 645a 73bd
00000060: effc 5e3d fc6b d2bc 2825 54bd ab40 5aba
00000070: c8d2 7ebc 93d2 26bd 663b 0b3d e2b4 633d
00000080: 1689 753d b634 6a3d fddb 4abd 9bd4 e63c
00000090: 6ad0 24bd e7c3 20bd 5aaf 5cbd f16b 6fbd
000000a0: d8fb 5f3d 13d1 20bd 1bb1 1a3d 1092 423d
000000b0: e0d5 963c f562 75bd bbcd 8cbc 4787 b93c
000000c0: 043b a5bc 001a 2d3b 236d 553b 4ae6 1fbd
000000d0: 0b47 283d 817a 34bd a93f 603d f148 32bd
000000e0: a879 7e3d 5cb5 853d 0b7b 443d a5b0 723d
000000f0: fc5c 65bd 9a5e 2cbd 174d 6bbd 3491 9c3a
00000100: 2d7c c73c 1d14 043d ae57 503d 618d 843d
00000110: 4e64 263c 4cca cdbc 7a1e 14bd baf4 683d
00000120: 777c 2d3c 003c 6e3d 14bf c5bc 56de 553d
00000130: fba6 1c3d 4cfb 1e3d d7f6 5a3d a483 babc
00000140: 90ae ebbc 0c3f ef3c d01a 503d e04d 39bd
00000150: ec55 cd3c c0cd e93c 8c19 7d3d 2adc 48bd
00000160: ed8a 7e3d f1a6 47bd e357 453c bb4b 263d
00000170: 3069 e5bc 6cd9 d3bc f8d6 843d acf8 8a3b
00000180: 87e8 4dbd 7818 fe3b 48c0 e43a 9c21 24bd
00000190: f204 41bd 875c b6bb 65bc 88bc 32b9 3e3d
000001a0: c9e7 723d 0cf9 a93c 8a31 d23b d695 8a3d
000001b0: 89e8 0cbd 033a 123d 9d6f c43c 9e35 da3c
000001c0: 7882 45bc 8aaf 3abd ca58 b63c be9e f1bc
000001d0: ecac 04bd 9be9 4fba 46ec c13c f777 a13b
000001e0: 08bf 4d3d 509a 303c 7b17 3b3d ddcd fa3a
000001f0: a2c8 5f3c 73d4 4a3c a0ce e0bc ebe5 7fbc
00000200: 80e1 b23a 9622 303d 8252 273d 6e13 22bd
00000210: 9208 8c3d a430 6e3d 9881 a1bc 90dd 43bd
00000220: 9774 5dbd bb41 5f3c 942e 723c 8df1 1b3d
00000230: a445 d3bb fac3 683d f9c5 893c e083 15bb
00000240: 5188 d83b e100 723d 594e 9c3c 6b27 063c
00000250: cea4 74bd a369 723c a85b f8bc d0ec 30bd
00000260: 7b8a 7f3c 56aa aebc bef8 303d d3cd 85bc
00000270: b4bf a9bb 3f0a e3bc e802 643c 3c5a c33c
00000280: 1dd0 b33c 8514 2ebc 66a2 3a3d b581 4abc
00000290: 5aaf 1b3d bcd7 62bd a59f 3e3d 9fa3 2ebd
000002a0: fe26 503d 3fa7 933b e067 4f3b 10aa 863b
000002b0: 6c9a 18bd f201 95bc 9348 7c3d 636b 653c
000002c0: 11a3 333b 866d 733d 44c0 57bc 2c11 3fbd
000002d0: e0c4 5fbc f748 833d fb1f 8abc a2c4 433d
000002e0: 857e 94bc 50ee ab3c c521 7cbc 1e18 173d
000002f0: aa8a 6dbb 8b96 37bd 436d 3cbc 60c1 fb3c
00000300: 1b19 1fbc cffc 843c 00cb dbbc dcfa a53c
00000310: 4181 37bd 8743 623c ad95 413d fd48 e13c
00000320: b888 2cbd 7c39 5dbc 8e1a 5ebd a8b4 2e3d
00000330: e051 0c3b 30e8 833d fa26 4bbc 29c6 743d
00000340: 69a8 74bd b9ac 483d 9440 f93c e08a 6abd
00000350: 4cd2 903c 5007 5ebd 701e a73c 1400 693d
00000360: 940a 583d 5dad dfbc 9201 273d bef9 763d
00000370: c7de 5f3d 732f afba c740 9c3c 7e7d 8a3c
00000380: 3fa3 01bd fd7d 4fbd e0f5 b2bb 644a cebc
00000390: ee43 6e3c 0835 5c3c 3a5d bebc 3eea 5fbd
000003a0: 6487 b83c 847c a43c b141 7ebd 643d 403c
000003b0: 10f7 213d 498b 04bd 5264 90bc e3b1 f13b
000003c0: f205 6fbb 78dc 693c fdc6 30bc 9b35 0dbd
000003d0: e75b 56bd 2c1f 6b3d 8140 a5bc df57 363d
000003e0: a8f9 bebb 4b38 6a3d 72f6 703d 8c52 c5bc
000003f0: 719f 04bd 6d62 583d 4a37 3e3d 00ac 8bbc
0.04953101 -0.03274899 0.007936975 -0.007979594 -0.06148419 0.020236082 0.045693606 0.058515035
0.05315483 -0.055882063 0.042330205 -0.048824504 0.05550223 -0.0030468614 0.06820606 0.026244614
0.023321904 0.03024113 -0.0426192 0.06419559 -0.039124686 -0.055706795 0.0108496575 -0.059412375
0.054440435 -0.025686257 -0.051793247 -0.00083256763 -0.015553184 -0.040728163 0.033992194 0.055592425
0.05994519 0.057179175 -0.049526203 0.02817755 -0.04023782 -0.039249327 -0.053878166 -0.05845255
0.054683536 -0.03926189 0.037766557 0.047502577 0.01841253 -0.059908826 -0.017187944 0.022647513
-0.020169742 0.0026413202 0.0032566271 -0.03903798 0.041083377 -0.04406214 0.05474821 -0.043526594
0.06212774 0.06528732 0.047968905 0.059250493 -0.05599688 -0.042082407 -0.057446565 0.0011945129
0.024351204 0.032245744 0.050864868 0.064722784 0.01015575 -0.025120877 -0.036161877 0.056874014
0.010588757 0.05816269 -0.024138965 0.05221399 0.038245182 0.038813874 0.05345806 -0.02276785
-0.028769761 0.029204868 0.05080682 -0.045240283 0.025065385 0.028540492 0.06179194 -0.04903809
0.06214421 -0.048743192 0.01204488 0.040599566 -0.028004259 -0.02586051 0.064863145 0.00424107
-0.050270583 0.0077543817 0.0017452324 -0.040071115 -0.047123857 -0.0055652293 -0.016691396 0.046563335
0.05930308 0.020748638 0.006414597 0.0676686 -0.03440145 0.035699856 0.023979003 0.026636895
-0.012055032 -0.045577563 0.022259135 -0.02949464 -0.032391474 -0.0007931233 0.023672234 0.004927631
0.05023101 0.0107789785 0.04567669 0.0019134838 0.013658674 0.012379753 -0.027442276 -0.015618782
0.0013647527 0.043001734 0.04085017 -0.03956931 0.06837572 0.058151856 -0.019715115 -0.04781872
-0.054066267 0.013626511 0.014781613 0.038072158 -0.006447511 0.056827523 0.016818034 -0.00228142
0.006608047 0.05908287 0.019080328 0.008188109 -0.059727482 0.014795694 -0.030317143 -0.043194592
0.015596981 -0.021321457 0.04320597 -0.016333496 -0.0051803235 -0.027714847 0.0139167085 0.023846738
0.021949822 -0.010625009 0.04556503 -0.012360026 0.038009025 -0.05538152 0.046538968 -0.04263651
0.050818436 0.0045060213 0.0031647608 0.0041096285 -0.037256643 -0.018189404 0.06159265 0.014002654
0.0027410428 0.05943062 -0.013168398 -0.046647236 -0.0136577785 0.06410401 -0.016860953 0.047794946
-0.018126735 0.02098766 -0.015388911 0.036888234 -0.003624598 -0.044821303 -0.011500659 0.030731857
-0.009710575 0.01623383 -0.026830196 0.02026122 -0.044801 0.013810045 0.047261883 0.027500624
-0.042122573 -0.013502475 -0.054224543 0.042652756 0.0021411106 0.064407706 -0.012399429 0.059759293
-0.05973092 0.048992846 0.030426301 -0.057261348 0.017678402 -0.054206192 0.020400256 0.05688484
0.052744463 -0.027304346 0.040772982 0.060296766 0.054655816 -0.0013365581 0.019073857 0.016905542
-0.031649824 -0.05065726 -0.0054614395 -0.025181957 0.014542563 0.013440378 -0.023237813 -0.05466675
0.022525497 0.020078905 -0.062074367 0.011733387 0.039542258 -0.032359395 -0.017625961 0.007375942
-0.003647205 0.014273755 -0.01078963 -0.03447495 -0.05233374 0.057402775 -0.02017236 0.044517394
-0.005828101 0.05718259 0.05882878 -0.024087213 -0.032378618 0.05282824 0.046439447 -0.01704979

bias f4 [3]
00000000: c6e2 a03c f94b 883d 92c2 953c
0.019639384 0.06655116 0.018281255
