TargetApproach/Checkpoints/2/model.pth (torch, 274292 bytes, 6 tensors)

weight f4 [256, 3]
00000000: d558 9f3e 5f2e 843c 91f4 633e 83e1 b13d
00000010: f66d fd3e 550a 69bd 89a6 3d3e 20fa ddbe
00000020: 9506 e13d f1d2 8e3d d476 89bd 72e0 d5be
00000030: aa44 6cbe af57 b6be 0d9b 003f 971d 083f
00000040: e4a6 d73e a1e4 bdbd d645 0dbe cdab d73e
00000050: f5c7 0d3f e1a6 f2be b714 1f3e 58de 10bf
00000060: d6ce 0c3f 2084 6e3e c3e1 913d ed17 26be
00000070: f64a 50be 2daa e83e b6a3 073f 85c0 843e
00000080: dc86 8bbe 491d b23e 47a4 b3be 83ca 2dbe
00000090: e9ae 72be 8874 b0be 6a4e dc3e 4674 d03e
000000a0: 57af 73bd 7810 253e e3d6 9dbe 032d e3be
000000b0: 350c 8f3e bbd9 a9be a5dd 10be 164d 713d
000000c0: 82b3 37be e3b3 a1be 11fd 563c 31c1 023f
000000d0: d589 b4bd bf7b 2abe 91a7 833e 7862 df3e
000000e0: 5eca 093f 5260 273e 4e19 87be d07a 9d3e
000000f0: 2179 0f3f 7612 213c 9d18 febe 7920 cf3d
00000100: 667e f53e a2f1 e4be 0766 f83e c2e1 fc3b
00000110: 9c5a e3bb d6f2 6fbe 8078 a43e 7ec1 aebe
00000120: 6ec8 edbd 99de 973e 6154 4e3a a9ed bebe
00000130: 0816 68be 8698 e5be f066 ba3e 568d 3b3e
00000140: 25c3 eabe da70 d4be 004b bb3e 3715 bdbe
00000150: 2e25 cb3e 7cf4 8abe adfe ca3e c12f fd3e
00000160: af86 83be 5b79 ff3d 85e3 b9ba 5207 5fbd
00000170: a487 953e 0c70 f7be 8225 78be a60d 0b3e
00000180: 8b4e 853e 4b32 303e 4811 a93e b385 133f
00000190: 2941 fa3e 8962 b23e c12f 0c3d 7483 003f
000001a0: 39cd d5bd 00dc 9abe f0f4 053f 6a9e 0cbf
000001b0: 1e28 ff3e 78bb 75bd 0fa4 2a3e d08c a6be
000001c0: 17b2 fc3e a13b d33e 7038 813d 42ab b63e
000001d0: 51d4 7139 f18f cbbe 5053 03be e5c5 c8be
000001e0: 1bc8 e53d 6452 bc3e 9ef8 abbe b2ba cdbe
000001f0: 9888 b23e 0612 293e 1376 053d f7c4 7dbe
00000200: 8529 1cbe 3449 f4be df7a 08bf be7d d33c
00000210: bd27 9cbe a689 643e e5f9 dd3e f2ef 11bf
00000220: 3a74 613d 11e4 c83e 1cbe bd3e 3507 ac3c
00000230: 6e81 4dbe c5eb 193e d321 143f 527b 2ebe
00000240: c213 f8be 3855 f03e 5abc c7be 0185 bebe
00000250: 5c92 febd e57b 0f3f a043 f7be 7774 ba3e
00000260: 0afd 6bbe 6307 e73e d205 09be f48e 83be
00000270: 716b fb3c 0b14 12bf 0073 af3e f012 e23e
00000280: 8ca2 e73d d1a1 f83e 9af7 debe ba62 80be
00000290: 93c3 763e 12b8 0a3f 71eb bc3e 208e b1be
000002a0: b461 31be 2ca9 693e 6977 013d 9b4f b33d
000002b0: 1478 09bf 6c8c 123f 71d0 353d 57aa 0d3f
000002c0: 2893 e13e 4aac b53e 6670 373e 56bf adbe
000002d0: 8043 e6be 6a23 c5bd d036 f33e a104 a13e
000002e0: 126c a1be 0c66 023f eec7 12bf 7dc3 533e
000002f0: bfcf bfbe f4aa 033f c31f 0cbc e676 cb3e
00000300: 7a4c bdbe afd4 bcbe 4f73 66be e1a7 ad3d
00000310: a521 be3e 214d 7f3d d358 a23e 2bb5 a43e
00000320: c48a 253e 1731 823c 1bf5 eebe c3d5 8a3e
00000330: 4d73 d6bd 71dc 163e b795 993e 4769 2bbe
00000340: b89a 613e 077c dfbe 9dca e5be f39e 453e
00000350: be32 6dbe 431e e6be b31c 043f d9cf 053f
00000360: e666 883d ec78 2e3e fdb4 0cbf 95eb edbe
00000370: b310 11bf 0f85 ae3d 5f02 89bd f988 92bd
00000380: 5bec a93e ff56 b0be 0a3a d9be 4eec d2bd
00000390: 00a4 823d fbaf 0e3d b890 dfbd 3b46 593e
000003a0: 40ca 363d 477b dc3d 27a2 23be b646 debe
000003b0: 0295 f83e 9a28 08bf 6578 e2bd 4754 1b3e
000003c0: 54f4 6d3e 6d2a 16be 185e c03e 060a aabe
000003d0: 1172 e2be 4b4e f03e 0977 63bd cf93 2f3d
000003e0: c376 a0be d7a7 82be 47d4 9b3e ce4b 103e
000003f0: b04a 893e 6960 e33e 4a14 fb3e eef0 a6be
0.3112246 0.016135393 0.22261263 0.08685591 0.49497956 -0.05689462 0.1852056 -0.43354893
0.109875835 0.06973828 -0.06712118 -0.417728 -0.23073068 -0.35613772 0.5023659 0.5317015
0.42119515 -0.09272123 -0.13796172 0.4212326 0.55383235 -0.47392944 0.15535246 -0.5658927
0.55003107 0.23292589 0.07123139 -0.16220064 -0.20341095 0.45442334 0.5298418 0.2592813
-0.27251327 0.34787968 -0.3508627 -0.16971783 -0.23699535 -0.34463906 0.43028575 0.4071371
-0.05949339 0.16119564 -0.30828008 -0.4437028 0.27939 -0.33173928 -0.1414705 0.058911406
-0.1793957 -0.31582555 0.013121859 0.51076037 -0.08815352 -0.16648768 0.2571378 0.43629813
0.5382441 0.16345337 -0.26386493 0.3075776 0.56044203 0.009831062 -0.49628153 0.101136155
0.47947997 -0.447156 0.4851534 0.007717342 -0.0069382917 -0.23432478 0.32123184 -0.34131998
-0.116104946 0.29662016 0.000787085 -0.37290695 -0.22664654 -0.4484293 0.3640666 0.18315634
-0.45852008 -0.4149235 0.36580658 -0.36930248 0.39676803 -0.27139652 0.39647427 0.49450496
-0.25688693 0.124743186 -0.0014182186 -0.05445034 0.29205048 -0.48327672 -0.24233058 0.13579425
0.26036486 0.17206685 0.33020997 0.57625884 0.48877838 0.348408 0.03422523 0.5020058
-0.10439534 -0.30245972 0.5232687 -0.5492922 0.49835294 -0.059993237 0.16664146 -0.32529306
0.49354622 0.4125643 0.06309593 0.35677534 0.00023062645 -0.39758256 -0.1282475 -0.39213482
0.11219808 0.3678161 -0.33588117 -0.401815 0.34869838 0.16510782 0.032583307 -0.24782167
-0.15250213 -0.477121 -0.53312486 0.025816794 -0.30499068 0.22318134 0.43354717 -0.5700675
0.055042483 0.392365 0.37059104 0.02099953 -0.20068905 0.15031345 0.5786411 -0.1703923
-0.48452574 0.46940017 -0.39010888 -0.3721085 -0.124302596 0.56048423 -0.4829378 0.3641698
-0.23045745 0.45122823 -0.13381127 -0.25695002 0.03069088 -0.57061833 0.34267426 0.44155073
0.113103 0.48560956 -0.4354828 -0.25075322 0.24098043 0.5418712 0.36898378 -0.34678745
-0.17322427 0.2281844 0.03160802 0.08755418 -0.5369885 0.57245517 0.04438824 0.5533804
0.44057584 0.3548301 0.1791397 -0.3393504 -0.44973373 -0.09625895 0.47502756 0.31448844
-0.31527764 0.5093696 -0.5733632 0.20680042 -0.37463185 0.5143273 -0.008552494 0.3973915
-0.3697241 -0.36881015 -0.22504924 0.08479286 0.37135044 0.062329415 0.31708393 0.3216947
0.16166216 0.015892548 -0.46671376 0.27116212 -0.10471211 0.14732529 0.29997036 -0.16739379
0.22031677 -0.43649313 -0.44881144 0.19298916 -0.23163888 -0.44944963 0.5160629 0.52270275
0.06660251 0.17038316 -0.54963666 -0.46468797 -0.56666106 0.08521473 -0.066899054 -0.07155032
0.33188137 -0.34441373 -0.42427093 -0.10298978 0.06378937 0.034835797 -0.10916275 0.21218197
0.044626474 0.10765701 -0.15979825 -0.43413323 0.48551184 -0.53186953 -0.1105812 0.15168868
0.23237735 -0.14664622 0.37571788 -0.33210772 -0.4422765 0.46934733 -0.055533443 0.04286557
-0.31340608 -0.25518677 0.30435392 0.14091417 0.26814795 0.44409493 0.49038917 -0.3260569

bias f4 [256]
00000000: a5b1 e7be 141a cfbd b8e6 53be b2f5 55bd
00000010: cd5a 833e 6379 66be 7930 e4be ba40 c1be
00000020: 7b4e e3be 9672 4abe 08f1 a73c eebb 503e
00000030: 59d7 c43d 728c dcbe df70 cb3e a41b 013d
00000040: 55a8 ad3d c439 6f3e 50f0 edbd 5934 76bb
00000050: b56f 623e 8199 c6be 873d 4ebe b31d 903e
00000060: 5237 ca3e 4737 883e 28d6 e0be c283 dd3d
00000070: 6dc5 c7be 9462 313e a0cf efbe 2426 64be
00000080: 2ecf 8b3e 916d 113f 3af7 8abe 2d9f af3e
00000090: 5890 dbbe 13c6 3fbe 074c 073f 4c30 95bc
000000a0: f166 143f 41f1 f03e 7d6e 89be 4309 eabe
000000b0: e43e b53e 094f 9e3e 91b3 9c3e 06e9 273e
000000c0: c1c8 b4be 543a 55be 8695 10bf 884a 923e
000000d0: de3f 11bf bd1e a9be 1b3a febe dce3 843d
000000e0: bd37 b33e fe0b cbbe 94ac b7be 69a8 0c3e
000000f0: 6b86 023f c11c ee3e 190e d23e 6851 243e
00000100: 3c07 92be 2c53 fb3e 7dd3 d33e fa4c d93e
00000110: ebe6 4fbd cb35 85be 0d4c 2e3e 9f07 953d
00000120: 0f36 103f f5f6 833e c869 e5be a92b 7c3e
00000130: a59f 08bd 11de db3d c1b6 b83d 9f31 d23e
00000140: 2227 95be d2c2 f03e 5be6 f03d f7e5 cb3e
00000150: 5a08 913e a4d0 b03d 01f2 083e 1962 003d
00000160: f687 d1ba fb4d 563e 1237 723e 785d 06bf
00000170: 5f2b 74bb 6b92 8f3e 0c28 cd3e 1039 b53e
00000180: 7898 c2be f5ae eb3e daf8 dd3e 48c9 5bbe
00000190: bee8 ddbe 36d4 903e 5acf a4be 3693 d03c
000001a0: 421d d2be ed88 033f b151 843e 59ea 2a3e
000001b0: 371d eebe 0f36 79be b050 9a3e 851e 063f
000001c0: be55 07bf 7953 1c3e ea0a 71be 1b46 a4be
000001d0: 5650 d33e 9812 063f 1a35 f6be 8464 9bbd
000001e0: f510 f53e ec03 09be 7455 e03e 842b 29be
000001f0: e52c ac3d dbda 853d 7f75 7b3d 487a 01be
00000200: 3e0b 6a3d b245 21be 8d64 12bf c0ec a43e
00000210: 72e5 bcbe 5000 bcbe d0c3 64be ae9f f1be
00000220: 2ec5 b2be d6d0 a5be 6a81 8bbe d949 06bf
00000230: 2f3b b9bd 5087 d0be 767a a8be db1a 11bf
00000240: ee53 963d 4d94 fcbe 5e38 d0be 41a7 cabe
00000250: ff24 3d3e 73b8 15be ff05 11be 77f6 9ebe
00000260: b63c 383e e45a 423c 25eb ff3e 0520 d3be
00000270: c3cd 7a3e 58ac de3e 19a8 e03e 1891 6bbe
00000280: f610 d8bd d8cb 913e ca39 123f 0c70 ffbe
00000290: e8ba 953e 2a37 bebe f58a 05bf a622 9bbe
000002a0: c19b ef3e 607e 813e c7df f53e 2815 86be
000002b0: 727e 9abc 54e0 cdbd 0360 e63c fc09 09bf
000002c0: 7b74 be3e c7bf 933e 5c9d 2e3e f280 d03d
000002d0: c507 fe3e 748b 10bf b288 5e3e a080 b23c
000002e0: f6e9 e0be 4710 823e a1c3 d83e 8244 033e
000002f0: 3479 41be d666 09bf a4b4 eb3e d1e5 a1be
00000300: e8f3 283c 28c2 b03e 50f8 c03e c9e5 cbbe
00000310: dfa8 7f3e 3982 413e 0fcc 3f3d 3aea 31be
00000320: 72a2 d1be 3512 b1be 54ba dbbb 4d3e a63e
00000330: 89dc 173e eb2e 09bf 202b 96be aab1 e53e
00000340: 50a7 3fbe 6caf 1ebe dc83 273e 4bce 633e
00000350: 201d c2be e0fd fe3d 67c2 44be 5632 b9be
00000360: 8dbd b53e 10fa e53d 6b9a 023f 012f ebbd
00000370: c169 253c 6adb d63e c6b6 55be c902 f33e
00000380: 7b41 a9be 770d eebd 16b2 fa3d 01c9 3abe
00000390: 8df8 f4bd 2e0a e33e 84d4 963e 0a69 c83e
000003a0: df82 8cbe e204 a63e 88f3 f8be fd87 223d
000003b0: eb03 ee3e e821 0fbf 27ef 51be 783d 02bf
000003c0: 272b 073f c7b3 be3e bc6f 78be a700 123f
000003d0: 1ef1 1a3c d3d4 083f e15e 90bd 1948 dbbe
000003e0: 531a f23e 4282 28be 3c47 a53e e8c7 b4be
000003f0: a09b c1be ee18 c43a dbf2 17be 4668 223e
-0.4525272 -0.10112396 -0.20693481 -0.052236266 0.25655213 -0.22507243 -0.44568232 -0.37744695
-0.44395813 -0.19770274 0.020500675 0.2038419 0.09611387 -0.430759 0.3973455 0.0315205
0.084793724 0.2336188 -0.116181016 -0.0037567823 0.22112925 -0.3878899 -0.20140658 0.2814766
0.3949533 0.26604673 -0.43913388 0.108161464 -0.3901781 0.17322761 -0.46838093 -0.22280174
0.27306503 0.5680781 -0.27141744 0.3430113 -0.42883563 -0.18727903 0.52850384 -0.018211506
0.57969576 0.47059062 -0.26842108 -0.4571019 0.35399544 0.30919674 0.30605748 0.16397485
-0.35309413 -0.20823032 -0.56478155 0.28572488 -0.5673808 -0.33031264 -0.49653706 0.06488773
0.35003462 -0.39657587 -0.35873854 0.13736118 0.50986356 0.46506312 0.4102638 0.16046679
-0.28521144 0.49086893 0.4137229 0.4244154 -0.05075733 -0.26017603 0.17021199 0.07276844
0.56332487 0.2577435 -0.44807267 0.2462603 -0.033355374 0.10735715 0.090192325 0.41053483
-0.29131418 0.47023636 0.11762687 0.39823887 0.28326684 0.08633545 0.13373567 0.031343553
-0.0015985954 0.20928185 0.2365382 -0.5248637 -0.0037257296 0.28041396 0.40069616 0.35395098
-0.3800695 0.4603192 0.4335392 -0.21463501 -0.4334163 0.28286904 -0.32189447 0.02546082
-0.41037947 0.5138081 0.25843576 0.16690959 -0.46506664 -0.24337028 0.30139685 0.5239032
-0.5286521 0.15266217 -0.2353932 -0.32084736 0.4127223 0.5237212 -0.48087388 -0.07587531
0.478645 -0.13380402 0.43815196 -0.16520506 0.084070005 0.06535884 0.06139135 -0.12644303
0.057139628 -0.15749243 -0.5718468 0.32211876 -0.36893803 -0.36718988 -0.22340322 -0.47192138
-0.3491606 -0.32385892 -0.27247173 -0.5245643 -0.090444915 -0.40728235 -0.3290593 -0.56681603
0.07340227 -0.49331895 -0.40668005 -0.3958073 0.18471144 -0.14621143 -0.14162444 -0.31047413
0.1799191 0.01186249 0.4998409 -0.41235366 0.24492554 0.43490863 0.43878248 -0.23004568
-0.1055011 0.28475833 0.5711943 -0.49890172 0.2924416 -0.37151462 -0.52165157 -0.30299872
0.46798518 0.2529173 0.4802229 -0.26188016 -0.018859122 -0.10052553 0.028121954 -0.5353086
0.37198243 0.28857252 0.17052215 0.10180844 0.49615303 -0.5646279 0.21731833 0.021789849
-0.43928498 0.25403044 0.42336753 0.12819102 -0.18893892 -0.5367254 0.46036255 -0.31620649
0.010312058 0.3452313 0.37689447 -0.3982375 0.24966763 0.18897332 0.046825465 -0.17374507
-0.40944248 -0.34584203 -0.0067055617 0.32469407 0.14830221 -0.53587216 -0.29329777 0.4486211
-0.18716168 -0.15496606 0.16358894 0.22246663 -0.37912846 0.124507666 -0.19214784 -0.36171216
0.35496178 0.11229336 0.51016873 -0.11483575 0.0100960145 0.41964275 -0.20870504 0.47463062
-0.3305777 -0.11623662 0.122409984 -0.1824074 -0.1196147 0.44343704 0.29459012 0.39142638
-0.27443597 0.324256 -0.486233 0.03968047 0.46487364 -0.5591111 -0.20501386 -0.50875044
0.5280022 0.37246534 -0.24261373 0.57032245 0.009456901 0.53449744 -0.07049347 -0.42828444
0.4728571 -0.1645594 0.3228091 -0.35308766 -0.37814045 0.0014961043 -0.14838736 0.1586009

weight f4 [256, 256]
00000000: d943 a73c cfb9 50bd 0019 3dbd 54f6 21bd
00000010: 6133 33bd a058 7bbd df44 01bd e6f2 443d
00000020: 82a7 453b 208d 60bd 46bb 5fbd 536e 65bd
00000030: 3898 7a3d ccd8 39bd 90ba ebbb cce3 66bc
00000040: 7f96 40bd 5fe8 1ebd 8294 553d 544d 4fbd
00000050: a5a7 8f3c 396d b3bc 5fbe 12bc de2d d8bc
00000060: b1b4 e03c baaa 1bbd c47b d13a 896d 0a3d
00000070: 6178 773d c3d9 21bd a28c 2b3d 7af1 c3bc
00000080: a5ca 153d c972 853c e4c0 a13c af0f 543b
00000090: 864a 08bd 7100 653d 78c3 59bd 189a 9cbc
000000a0: e8fa 1d3d 904a 7e3c c01b 053c 0130 63bd
000000b0: cad5 403b aa81 41bd 2408 423d 253b 3dbb
000000c0: 93a2 7cbd 80d2 d2bc 7794 25bd 8850 f03c
000000d0: d0ec db3b d410 a83b aefc d1bc dc1a a83b
000000e0: 018d 06bd b859 2fbd f833 5dbd c9ab 5c3d
000000f0: a3d6 51bd 0932 a73c 7437 023d 177c c83c
00000100: 12f7 793d fd02 6ebc 8217 cc3b 6a6d 1cbd
00000110: 947f 54bd 4208 3e3d db89 c7ba ffa1 573d
00000120: 6447 da3a 9831 523d 64c6 513d 3ac6 423d
00000130: 6a52 79bd 9d09 043c 321b 3d3d 1439 d43c
00000140: 3637 553d 942a 6b3d 9098 85bc 0b1c 093d
00000150: 57d3 3e3d e90a 603c f3e2 483d 7874 9dbb
00000160: f255 3f3c 3b7e 2b3d ddeb 39bd 22ba 1ebd
00000170: a9da c0bc dedb 2e3c df7e 5fbd 78fd 2fbd
00000180: 81eb 93bc 6e5e 0e3d 4270 6dbd c8d6 4d3c
00000190: e91d 77bd 8841 d0bc c547 17bd e186 6bbd
000001a0: 000b 783c 9e7e 6c3d d06e 7ebd e0e7 853c
000001b0: 020a 843b 1d17 13bd c048 86bc 5750 cd3c
000001c0: d83b d4bb 2106 65bc 3a94 5ebd a3c1 7fbd
000001d0: 3381 333d d250 6dbd c462 cfbc 2042 e1ba
000001e0: 4a7b 47bd 485f 46bd 818d 10bd 78d9 5cbd
000001f0: 81d6 1c3d 5c3c 90bc 4ce6 0d3d b602 5a3c
00000200: 80e4 45bb 10a0 143c 3d67 47bd 4cc3 03bd
00000210: e651 16bd 5f2d a4bc ba82 56bd 2e7e 8c3b
00000220: 64b4 26bd 80fc 9db9 8c27 e6bc 185b 18bd
00000230: b003 713c f487 02bc 6553 7cbd 31fa 56bc
00000240: 5bba 423d 9a5a 5c3d e1fc f0bc 7e1e 5abd
00000250: 10af 56bb de5c edbc d981 29bd 526a 3ebd
00000260: 59ec 6c3d 389f b7bb 0229 c1bc dfe7 503d
00000270: 4c07 51bd e496 65bc 0e7d 343d de13 8b3c
00000280: a986 14bc 099b 483d 38b5 ecbb fef6 00bd
00000290: 12f7 00bd 809d 973c 08a4 d23c 82f8 e0bc
000002a0: 1ac1 60bd 9861 ebbc 506d 3fbc 96b2 053d
000002b0: 6538 413b 50a6 1fbc c0c4 1cbc 3ea7 26bd
000002c0: 3f7e 6ebd a652 0e3d fde5 7ebd f315 4f3d
000002d0: 6067 96bc ef7a 773d 9401 373d e326 78bd
000002e0: 887e 1c3d 5bc1 1bbd 9c81 a8bb 4acd 6abd
000002f0: 67ad 823c 0034 e3b9 f716 a9bb 6060 43bd
00000300: f017 9d3c 48e3 e1bc 6716 ef3c eefb 073d
00000310: 7e9c 64bc ec90 fe3c 2c22 1dbd a72e 9f3c
00000320: 2860 7f3d ba6b 24bd d5ec 88bc ac8b c53c
00000330: 8537 c73c 83c5 77bc e394 883c cf3b 8c3b
00000340: bddf 29bc 9b0c f4bc 9068 1bbd 14c1 003d
00000350: 1a11 77bd 354b 413d 28e5 92bc 2eda 46bd
00000360: 5244 80bb b098 c9bc b829 6b3c 34f2 1b3b
00000370: 8a5f 043d 23d0 233c 1b62 59bd 0d9b 1f3d
00000380: e791 8bba 7a6f 003c ca73 523d 27ce 43bd
00000390: a99f 053d 17af 1bbd dc53 833c 14bd ee3c
000003a0: 5216 27bc 174b a43c d869 9f3c 71fb 20bd
000003b0: bb65 4f3d f4e5 603c d157 383d e37a 34bc
000003c0: 13de 31ba 0d7d 62bd 2f63 35bd ad35 d5bc
000003d0: 46e4 43bd 8d78 ee3c 4689 34bc ecd9 cd3b
000003e0: 1866 20bc 6641 193d 7614 18bd 7257 593c
000003f0: 9c36 e2bc a5c5 393d abe2 6dbd 343b 6dbd
0.020418094 -0.05095845 -0.04616642 -0.039541557 -0.04375017 -0.061363816 -0.03155982 0.04808321
0.0030159657 -0.054822087 -0.054621957 -0.056013416 0.061180323 -0.04537277 -0.007193871 -0.014092397
-0.047018524 -0.038795825 0.05214358 -0.050610855 0.017535994 -0.021902667 -0.008956521 -0.026389059
0.02742991 -0.038004614 0.001598232 0.033795867 0.060417537 -0.039514314 0.041882165 -0.023918856
0.03657021 0.016290085 0.019745298 0.003235798 -0.033274196 0.055908624 -0.05316493 -0.019116446
0.03856936 0.015520707 0.008124292 -0.055465702 0.0029424303 -0.047242798 0.047371045 -0.0028874364
-0.06167848 -0.02573514 -0.04042479 0.029335275 0.00671158 0.005128959 -0.025633182 0.005130155
-0.032849316 -0.04281017 -0.05400464 0.053874765 -0.051230084 0.0204096 0.031791165 0.024473233
0.06102664 -0.01452708 0.0062283883 -0.038190283 -0.05187948 0.046394594 -0.0015223579 0.052644726
0.0016653356 0.051316828 0.05121459 0.047552325 -0.06086961 0.008058933 0.046168514 0.025906123
0.052054606 0.057413653 -0.016308099 0.03347401 0.046588268 0.013674476 0.04904456 -0.004805144
0.011678206 0.04186843 -0.045390952 -0.03875173 -0.023541765 0.010672538 -0.054564353 -0.042966336
-0.018056633 0.034758024 -0.057968386 0.012563415 -0.06033126 -0.025421873 -0.03693368 -0.057501677
0.015139341 0.05773794 -0.062117398 0.016345918 0.0040295133 -0.035910714 -0.016392112 0.025062723
-0.0064768605 -0.013978512 -0.05434058 -0.062440526 0.043824386 -0.057938404 -0.02531565 -0.0017185844
-0.048701562 -0.04843071 -0.0352912 -0.05391833 0.038290504 -0.017606907 0.034643456 0.01330631
-0.003019601 0.009071365 -0.04868244 -0.03216867 -0.0366992 -0.020041166 -0.052370764 0.0042875027
-0.040699378 -0.000301335 -0.02809503 -0.03719625 0.014710352 -0.007966984 -0.06160297 -0.013121174
0.047541004 0.053797342 -0.029417457 -0.053251736 -0.0032758154 -0.028974947 -0.041383598 -0.046488114
0.057842586 -0.005603697 -0.023579124 0.05100238 -0.05103235 -0.014013026 0.044064574 0.016977247
-0.009065309 0.048975978 -0.0072237514 -0.03148555 -0.031485625 0.018507719 0.025712982 -0.027462248
-0.054871656 -0.02873306 -0.011683777 0.032641016 0.0029483077 -0.009744242 -0.009568393 -0.04068684
-0.058225866 0.03474679 -0.062231053 0.05055804 -0.01835984 0.060419973 0.04467924 -0.06058396
0.038206607 -0.038026195 -0.0051424038 -0.057324685 0.015951825 -0.00043335557 -0.0051602083 -0.047699332
0.019176453 -0.027574196 0.029185487 0.033199243 -0.013953326 0.031074964 -0.038362667 0.019431425
0.06234756 -0.0401418 -0.016714493 0.024114452 0.024318466 -0.015122774 0.016672557 0.0042795907
-0.010368285 -0.029791167 -0.037941515 0.031434134 -0.060319044 0.047190864 -0.017931536 -0.048547916
-0.0039143944 -0.02460894 0.014353208 0.0023795487 0.032317676 0.009998354 -0.053072076 0.038966227
-0.0010648341 0.007839078 0.051379956 -0.047804024 0.032622967 -0.038008776 0.016031198 0.029142894
-0.010198193 0.020055337 0.01945965 -0.039302293 0.050634127 0.0137267 0.045005623 -0.011015627
-0.0006785106 -0.05529504 -0.044284042 -0.026026571 -0.04782512 0.029110217 -0.011019057 0.006282082
-0.009789966 0.037415884 -0.037128888 0.0132654775 -0.02761393 0.045354504 -0.058077496 -0.05791779

bias f4 [256]
00000000: 542f 553c 9331 553d 54f1 28bd dc60 3dbd
00000010: 9272 903b a68e 6c3d adf9 ba39 bec7 0abc
00000020: 1e38 0dbd e665 343d 00ca cb3c a8c5 3f3c
00000030: d88f e4bc afa1 4bbd 8d41 67bd 0bdf 463d
00000040: 7eb6 303d 2483 17bd bf69 2a3d df8a 613d
00000050: 7349 a13c 8ac0 d5bc d02c e73c 7878 8c3d
00000060: 0c58 8c3c cd2a 0f3d 0dde 943c 866e c23c
00000070: dd1b 473c 5738 0a3d a8ac 3ebd d489 383d
00000080: 31ae 4f3c 2fa6 783b 05b2 bd3c e801 7fbd
00000090: 74d3 a33c cd40 a5bc 482f 14bd 83ea 5e3d
000000a0: 4d6c 1d3d c99c 24bd 30dd 483d 2b7c 8fbc
000000b0: 056a 1fbd 4cd6 203d a6e9 babc 80dc ab3a
000000c0: f911 12bc c35d b33c 7b79 23bd 8e73 4fbd
000000d0: 2500 633c 7145 9cbc a6e8 6fbc 14c0 c73c
000000e0: 1a04 923c 763a 623d 3fce 2fbc 9d7c 70bd
000000f0: f404 5cbc 347a 71bc 2e27 fdbb a6f0 28bd
00000100: 99ed 81bc 0933 61bd 4f46 51bc df09 833d
00000110: e72d 0cbb 4aff 99ba 930e 4abd b07a 69bd
00000120: 63c4 b4bb c3d5 4e3d 404f 2abd 53ca 213d
00000130: 6ac2 41bd cacd 27bd 1484 743d e2d1 97b6
00000140: d093 21bd 2a8c 8dbc b3e8 a43c b281 1d3d
00000150: 7452 58bc 5d63 7cbc 517f 8e3c d4ab a5bc
00000160: acdc 36bd 9883 2e3d c326 1a3d 0177 9d38
00000170: f095 0e3d 0417 3cbd ba53 f2bc 2c48 7c3d
00000180: ad1b 42bd d73e 4abd 9460 0dbd 98ae 55bd
00000190: 3d9c 44bd 6689 3dbd a79b c13c 6886 ce3c
000001a0: cb50 b6bc 812c 8c3d 1c4b 6dbd c60d 2dbd
000001b0: 18db a1bb f1d7 113d 94bb 11bd 8484 d4bc
000001c0: 19d8 653d c808 4cbd 61c3 bdbc 30ae 563d
000001d0: 7e38 973c 4017 7c3b 6e8e 2cbd b812 3fbd
000001e0: 5c87 d13c c80b 7abc 715f 53bd 7c93 143c
000001f0: edae 6d3c 1f84 1ebd c21e 51bd 5c0d bfbc
00000200: 2078 5e3d 2c7b 943c 5734 34bc 9360 7d3d
00000210: a041 2bbd 32c0 a5bc 009a 2e3c 1503 2bbd
00000220: 95b3 e53b 0c2c 013a 1820 b1bc 9e71 1fbd
00000230: c800 343d f7a5 403d 3649 003d 6885 60bd
00000240: 207e 293d de6b 39bd 90d2 4e3c 00c4 c33c
00000250: c448 b73c 8628 10bd 1ec6 43bd 2d3a 1f3d
00000260: 64f3 123d f361 b13c 3a12 493d c896 363c
00000270: 6dad 66bd 6bd7 913c 0865 773d f587 36bd
00000280: 68ca 443d 5ab5 783d 7497 38bd 0151 babc
00000290: b749 ca3c 4d56 083d 1c5a 8ebb d339 09bd
000002a0: c09a 743b e685 19bd f8ee 583d c2db 723d
000002b0: a0ef 4c3d 94a3 533d 1f22 0abd eef4 6ebd
000002c0: cea3 ccbc f4c5 e33c 5bac cc3a ce7a d1bc
000002d0: 305d 42bc c529 1c3d 46be f93c 9683 3abd
000002e0: 828c 653d 6aca a43c 65ff ccbc ee4d 763d
000002f0: c0fd dd3c 85ef 34bc a242 acbc b918 3a3d
00000300: f0f6 c5bb e8b1 353c f3d6 40bd 6a08 61bd
00000310: e06b 6f3b fa9f 83bc f8f3 54bd 308f 5abd
00000320: a4ac 60bc c8f3 61bb 1aa7 56bc 2be0 e03c
00000330: d146 30bd 7b08 143d 8098 bf3a c6b3 3bbd
00000340: 2f1e 183c 8e27 50bd 42ba 86bd a477 633d
00000350: 883e e13c e390 093d d686 81bc 981b 313d
00000360: 54d9 493d 048f 58bc 6b4d 8d3d 9c6d f53c
00000370: ce6d d73c 0476 a7bc 3945 473d b765 013d
00000380: c0f5 22bc 29d5 c5bc 0ad2 c3bc af30 28bd
00000390: 0824 ef3c 68bd 1bbb f8bb 553c b696 84bd
000003a0: edba babc 2174 60bc e7c1 da3c bb53 8eba
000003b0: 512e 453d 0971 503c 37a5 6bbd 2387 383d
000003c0: c34f fa3b 80f5 b93c cb5e 5e3d a0e1 7b3b
000003d0: 167a d6bc ef47 e1bb 6374 e43c ae58 4dbc
000003e0: 1cde 3e3d e70c 5d3d 8995 e23c e8b7 28bd
000003f0: b9b8 f03c f316 8a39 af07 06bd 9ce5 a13c
0.013011772 0.05204923 -0.041245773 -0.04623495 0.004408189 0.057753228 0.00035662708 -0.008470474
-0.034477346 0.04404249 0.024876595 0.01170484 -0.027900621 -0.04971474 -0.056459 0.048552554
0.043142788 -0.0369903 0.041604754 0.05506408 0.019688344 -0.026092786 0.02821961 0.06858915
0.017131828 0.034952927 0.018172288 0.023734342 0.012152639 0.033745136 -0.046551377 0.04505332
0.012675808 0.003794085 0.023156175 -0.062257677 0.01999829 -0.020172501 -0.036177903 0.054422867
0.03843336 -0.040188584 0.049039066 -0.017515263 -0.038919467 0.03926687 -0.02281649 0.0013111979
-0.008915418 0.021895295 -0.039910775 -0.05064731 0.013855015 -0.019076081 -0.01464287 0.024383582
0.017824221 0.055231534 -0.010730325 -0.05871259 -0.013428915 -0.014738608 -0.007725618 -0.041245125
-0.015860366 -0.05498031 -0.0127731105 0.06398367 -0.0021389665 -0.0011749056 -0.049330305 -0.05700177
-0.005516575 0.050496828 -0.041579485 0.039499592 -0.04730455 -0.04096774 0.059696272 -4.5245843e-06
-0.039447606 -0.01727875 0.02013049 0.038453765 -0.013203252 -0.015404549 0.017394694 -0.020223536
-0.044644043 0.042605966 0.037634622 7.5085096e-05 0.03481096 -0.045920387 -0.02958094 0.061592266
-0.047389675 -0.049376335 -0.034515932 -0.05216846 -0.048000563 -0.04627361 0.023633791 0.025210574
-0.022255322 0.06844426 -0.057932958 -0.042249463 -0.004939448 0.03560633 -0.03557928 -0.025942095
0.05611429 -0.049813062 -0.023164453 0.052412212 0.018459555 0.0038466007 -0.04212802 -0.04664871
0.02557724 -0.015261598 -0.051604692 0.009068366 0.014507038 -0.03870022 -0.051054724 -0.0233218
0.05431378 0.01812514 -0.010998807 0.06185968 -0.04181063 -0.020233247 0.010656834 -0.041750986
0.0070099332 0.0004927523 -0.021621749 -0.038926713 0.043946058 0.047033276 0.03131982 -0.054814726
0.041380048 -0.045268886 0.012623444 0.023897171 0.022373565 -0.035194896 -0.04779636 0.03887384
0.035876647 0.021653151 0.049089648 0.0111443475 -0.056317735 0.017802915 0.060399085 -0.044563252
0.048044592 0.060719825 -0.045066312 -0.022743704 0.024693353 0.033285428 -0.004344238 -0.03350241
0.0037323684 -0.03748121 0.052962273 0.05929161 0.05003321 0.051669672 -0.033723947 -0.058339052
-0.024980452 0.027804352 0.0015615331 -0.025571253 -0.011863038 0.038125772 0.030486237 -0.045535646
0.0560422 0.02011605 -0.025024125 0.060132913 0.027098536 -0.011043434 -0.021027867 0.045433734
-0.0060414 0.011089779 -0.04707999 -0.054939665 0.0036532804 -0.016067494 -0.05199048 -0.05335921
-0.013713036 -0.003447758 -0.013101364 0.027450642 -0.043036286 0.0361409 0.0014617592 -0.045825742
0.00928454 -0.050818972 -0.065784946 0.05553402 0.027495638 0.03358544 -0.015811365 0.043239206
0.049279526 -0.013217691 0.06899532 0.029959492 0.026297476 -0.020442016 0.04865 0.031591143
-0.009946287 -0.024149494 -0.023903865 -0.041062053 0.029191986 -0.0023764018 0.0130453035 -0.06474058
-0.022794211 -0.013699562 0.026703788 -0.0010858694 0.048139874 0.012722262 -0.057530608 0.04505075
0.007638903 0.022700071 0.05428962 0.0038434044 -0.026181262 -0.00687503 0.027887529 -0.01253335
0.04659854 0.053967383 0.027659195 -0.04119101 0.029384958 0.0002633851 -0.03272217 0.019762807

weight f4 [3, 256]
00000000: fe2f 3abd 5df5 513d 5716 2c3d 1289 153d
00000010: 7620 cebc 6216 363d 5c63 b2bc f324 edba
00000020: a188 803d e08b 5a3c ce6b 8a3c 309c 3bbb
00000030: 307b fe3c 5e3a 6e3d b05d 4f3c 37ed 6b3d
00000040: 3a33 603d c02a 77ba 7d56 133a 666b 24bd
00000050: ff8b 5ebd a30f 6bbd 6c29 5cbd e2c9 5c3d
00000060: 0d67 733d e4df 323d 1801 0d3d 23ff 64bd
00000070: f857 483d 9042 863b d258 76bd 483b 91bc
00000080: 45a1 ab3c dc86 693d d401 823d 726b 4dbd
00000090: 74da e4bc 1657 273d aa89 5ebd e896 763d
000000a0: bc6b bdbb 74fb 3c3d a7b8 34bc 16a7 493d
000000b0: 45d8 10bb 20ad 703d 3b6c 40bd 40c7 febc
000000c0: 799b 303b b854 4d3c 3d39 38bd 98f0 72bd
000000d0: add0 a93c 2d64 a4bc 1dad aebc 3861 273d
000000e0: f980 16bc 162e 383d d99f 12bd 8b67 bebc
000000f0: d6f9 5e3d 8380 823d 7660 503d d934 4dbd
00000100: 42c9 723d 4c08 05bd 99d8 6ebd 9625 873c
00000110: f8fa 5a3d 8537 ac3c f6dd 0bbd a257 053d
00000120: 0bac a0bc 8240 fa3c e461 9c3c ca0d 703c
00000130: d80f ccbc fc18 403c 40e4 9f3b a151 71bc
00000140: 1333 1abd 28a9 4b3c 7ffb 98bc 699f 76bd
00000150: 9ebb 1e3d bcd4 87bc 8e8f 5c3d e03d af3b
00000160: 00a8 83bb 949b 313d 1fed dbbc 7caf 623d
00000170: fc87 853c ec86 0fbd 4662 033d 311a 7d3d
00000180: 4978 d83c b410 33bd 367c 7a3d 2d05 f4bc
00000190: f4a8 3fbd 6008 a73b a9a7 9a3c 6ff7 a03c
000001a0: f882 9abc 2fa7 a2bc 7ead 55bd a017 5e3d
000001b0: d0c8 5c3c 02a6 6abc c65b 7c3d a811 f43c
000001c0: 84b4 07bd 90f7 4fbc 7ec2 98bc a0db 70bd
000001d0: c201 88ba c012 feba 93ab 04bd 98cc 7b3d
000001e0: 589e 613c e453 193d e2b0 853d 1308 aa3c
000001f0: 2a28 bdbc 87ce 923c 1440 1a3c d2e1 8ebc
00000200: 0088 17bd 5445 bdbc ef90 603c 8e27 163d
00000210: c530 babc a611 03bd 58e8 423d 3c14 70bd
00000220: 97c4 a0bc 26e9 0c3d 2386 db3b a568 703c
00000230: 3a92 4e3d 8caf 06bd 8c09 52bc a376 14bd
00000240: 984c b1bb 649c 363d be27 423d 088b 503d
00000250: da03 1dbd 5643 1a3a 901b 573c 26d0 63bd
00000260: 640b 00bd 1749 b8bc ecf9 4b3d d968 24bd
00000270: 4c9f 7ebd 06b9 263b d966 60bd dd26 8f3d
00000280: 0060 343d 9011 28bb 489e 1b3d 1457 29bd
00000290: 7e54 74bc 0e9a 4ebd 89a9 69bd ae2c 1e3d
000002a0: 80ce 22bb da32 5ebc 4031 933a 3e5c 73bd
000002b0: 8093 f23b ceb3 173d 8b8a 5abc a062 8dbc
000002c0: da48 b1bc 8289 7e3d afe7 883c d5a7 e73c
000002d0: ac1c 19bd 15b6 ffbc 047c ce3c 7a24 d33c
000002e0: e12a 3f3d a4b7 1bbd 8bfc c43c d121 423d
000002f0: a013 51bc 9325 bd3b 4be5 413d b643 a73c
00000300: e6f0 5ebd 853d 5e3d 1c1f b23c 7080 d43b
00000310: a017 443d ca2d cebc 7eb5 05bd 2a80 813b
00000320: 84ab 253d 14d3 463d e1d6 b7bc c0b6 ad3c
00000330: 706b 373d 5727 8e3c 1da9 323d 9a58 4dbd
00000340: 7ef2 9ebc d006 86bc 57e6 40bd 39e1 60bd
00000350: 9958 debc ad56 0e3b d17f 2a3d ca47 6ebd
00000360: 82c4 aebc d67b 98bc 7797 ef3c 31cd d5bc
00000370: 18a2 403d 48f3 5e3d a748 023d 7cad 4ebd
00000380: 7bdc 4ebd 8af6 733c 6842 22bd 99ac 63bd
00000390: cefb 13bd a69a 313d d810 483d afba 14bd
000003a0: 5349 c3bc 6859 05bb bb33 8c3c ea4a cc3c
000003b0: 048b 383d 950c 613b 9055 a0bc 7068 3bbd
000003c0: d3db 463d 3c76 46bd f887 b53c f0cc 853b
000003d0: 083a f43c 27f6 9a3c 0e1c 293d 3ec9 583d
000003e0: fa7e 8ebc d16b 883b 9233 f0bc c7f6 143d
000003f0: ef76 24bd 8d91 293c ef1d 95bb 6ac2 52bd
-0.045455925 0.051259387 0.042013492 0.036507674 -0.025161963 0.04445494 -0.021775894 -0.0018092677
0.0627606 0.013339013 0.016897108 -0.002862703 0.0310646 0.058161132 0.012656614 0.057599273
0.054736353 -0.00094286725 0.0005620493 -0.040141486 -0.05433273 -0.05738796 -0.05375044 0.053903468
0.05942445 0.04367055 0.03442487 -0.05590738 0.04891202 0.0040972903 -0.0601433 -0.017728463
0.020950923 0.057013378 0.06348005 -0.050151296 -0.027936198 0.040854536 -0.054330505 0.06020251
-0.005780665 0.046138242 -0.011030353 0.04923161 -0.0022101563 0.058758855 -0.046978217 -0.03110087
0.0026948138 0.012532406 -0.04497646 -0.05931148 0.020729387 -0.020067299 -0.021322781 0.0408642
-0.009186023 0.044965826 -0.035796974 -0.023242733 0.05443748 0.06372168 0.050873242 -0.050099228
0.059273966 -0.032478616 -0.058312032 0.016497415 0.053462 0.021022568 -0.034147225 0.032554276
-0.019613286 0.030548338 0.019089647 0.014651725 -0.024909899 0.011724707 0.0048795044 -0.0147289345
-0.037646364 0.012430467 -0.01867461 -0.06021062 0.038753144 -0.016580932 0.053847842 0.0053479522
-0.00401783 0.04336126 -0.026846467 0.055343136 0.016300194 -0.03504078 0.032076143 0.061792556
0.026424544 -0.0437171 0.061153613 -0.029787624 -0.046791986 0.005097434 0.018878775 0.019649236
-0.018861279 -0.01985511 -0.05216741 0.05422175 0.013475612 -0.014321806 0.06161096 0.029793575
-0.033131137 -0.012693301 -0.018647429 -0.0588032 -0.00103765 -0.001938425 -0.03239019 0.061474413
0.013770662 0.03743352 0.06527878 0.020755803 -0.02309044 0.017920746 0.0094146915 -0.017441664
-0.036994934 -0.023104347 0.01370643 0.036658816 -0.022728333 -0.031999253 0.04758486 -0.058613047
-0.019624991 0.034402035 0.00669934 0.014673387 0.05043242 -0.03288226 -0.012819659 -0.036245953
-0.005410742 0.04458274 0.047401182 0.05091384 -0.03833375 0.00058846676 0.01312913 -0.055618428
-0.031260863 -0.02249579 0.04979889 -0.040139053 -0.062163636 0.0025439872 -0.054785583 0.069898345
0.044036865 -0.0025645234 0.037992746 -0.04134281 -0.014912723 -0.050439887 -0.057046447 0.03861683
-0.0024842322 -0.013561929 0.0011229888 -0.05941414 0.0074028373 0.03703671 -0.013338695 -0.017258942
-0.021641184 0.062142856 0.016712038 0.02827827 -0.03738086 -0.031214753 0.02520562 0.02577423
0.046671752 -0.03801693 0.024046203 0.04739553 -0.012761027 0.0057723015 0.04733781 0.02041803
-0.054428957 0.05425789 0.02174335 0.0064850375 0.047874093 -0.025168318 -0.032643788 0.003952046
0.040446773 0.048541144 -0.02244133 0.021205306 0.044780195 0.017352743 0.04361831 -0.050133325
-0.019402739 -0.01636067 -0.04709467 -0.05490229 -0.027141856 0.0021719143 0.0416258 -0.058173932
-0.021333937 -0.018613737 0.029247029 -0.02609882 0.047029585 0.05443123 0.031807568 -0.050458416
-0.050503235 0.014890322 -0.03961411 -0.055584524 -0.03612881 0.043360375 0.04884419 -0.036310848
-0.023838675 -0.002034748 0.01711451 0.024938066 0.04505445 0.0034339775 -0.01957205 -0.045753896
0.048549484 -0.0484526 0.022159562 0.0040832683 0.029812828 0.018916203 0.04128652 0.052926295
-0.017394532 0.0041632433 -0.029321466 0.036368158 -0.040152486 0.010349643 -0.0045506875 -0.05145494

bias f4 [3]
00000000: e0cd 493d be2e 253d 9331 8bbc
0.049268603 0.04032778 -0.016991412
