TargetApproach/Checkpoints/1/model.pth (torch, 274292 bytes, 6 tensors)

weight f4 [256, 3]
00000000: aeb7 e33d 5b91 913c d9e4 56be 68a2 ea3e
00000010: a787 72be ec90 233e ee0c f3be 4560 483d
00000020: 9227 0ebf 6b16 903e 43df d6be 400b 4c3d
00000030: 6f06 9c3c 6837 b03e b8b5 e63e 1c7f 663e
00000040: 710f f73e 513c fe3e 52ff 0fbf b1ba d63d
00000050: 2850 5d3e cbe5 debe c01d ae3b d896 f3bd
00000060: 24df a13e de19 6f3d f981 0d3f 8c6d f3be
00000070: fe92 e4be d530 d83e 9d42 11bf cce0 b6be
00000080: 8627 283e c0bc 4e3e fc30 c0be 77d7 073f
00000090: e62b 5abe 77ae 003f bd17 2f3e 75ec f83b
000000a0: 7b05 52be e740 383e 6d2d 90be 011e fabe
000000b0: 40f5 cf3e 6212 f63e df5a 66be 9d44 cc3e
000000c0: 2523 94bd 4fc3 a8be aedd a83c 38fd 193f
000000d0: 4812 d7be 1752 fb3e a663 dd3e 6792 edbe
000000e0: 538e 563d 2745 6d3e d1ad fdbd 708d c03d
000000f0: 42f3 b1be 93a7 6c3e 6cc4 553e b8f2 21be
00000100: e159 5cbe ffea 0abf 5b2e 6c3d be97 55be
00000110: b683 f23e 4445 5cbe 798f fdbd 7e4f 63be
00000120: 2ec6 9bbd 48a5 0fbf 67f8 8ebe 3911 cb3e
00000130: 1ec4 c1be c72d a3bd 3d5c 8fbe 8321 f03c
00000140: 1243 9bbe 989d 363e c133 313e 0ffc f2be
00000150: 5c5b d5be 114b a6bc f753 78be f155 8abd
00000160: b1c8 e2be 0e32 0e3f 0303 583e 17a2 58bc
00000170: 6e3a 5c3d 9481 193e d906 4e3e 11e7 c5be
00000180: d59c 9b3e 3645 03bf 5e4e 1ebc fdc2 6e3d
00000190: ab4a fdbe db03 debe 2f5b 8e3e dfb6 ea3d
000001a0: 9205 0c3f 9a32 1b3f 89a3 65be c49f e23e
000001b0: 912d 89be af06 5b3e 5002 d93c 6f74 093f
000001c0: b679 fbbe a85a 8d3e c491 443e 0795 9ebe
000001d0: 8db2 c4be ed69 a33e 9b06 d33e b3bb ca3e
000001e0: 8b44 653c 472c 84be 3789 0f3f 62d1 0fbf
000001f0: 3f16 e13e 60bb e1be d7ca c1be 8f41 bcbe
00000200: ef92 963d 3941 c0be 4d8a edbd 3ba2 39be
00000210: 50a2 a83e 10f2 543e 3903 debe b171 0a3f
00000220: edcc df3e 16f4 553e 9b59 fa3e 3acd 2f3e
00000230: 9cca 89bd 96c0 fd3c 4578 303e 61c9 debd
00000240: fb37 143f 5af5 59bd a370 833d c9db 583d
00000250: 097f c83e f0e7 02bf c088 21be cbc7 dd3e
00000260: ebcc 713d e79f 6e3c ba9e 07be 9c4a c93e
00000270: 9087 e3be 04c0 9cbe cb54 04be a6be d53e
00000280: 8340 f73d 3649 f73d 4fe1 993e 7ef4 8abb
00000290: a9b5 623b 68b2 d23e 28bc 76bd bcac dcbe
000002a0: c9d8 71be 7cd5 033f 919f fc3e 9a34 a23e
000002b0: 6e04 3cbe 0a36 06bf 97c0 b8be d01d 453e
000002c0: 5d91 9c3e 309a f43e 97f2 063f f732 71be
000002d0: 5a66 e83e 0d0c 2cbe d27e eabe b1aa 0bbf
000002e0: 1216 113f ba38 333e 2fbf f7be 0aec 10bf
000002f0: bd7e 27be 3d3c 973e dfe6 f83d f81b 38bd
00000300: a232 0f3e b58b d63e 6364 fd3e 4f9f e1bc
00000310: 42a8 b63e 21f6 883e 8668 cfbe fa76 1e3e
00000320: dd81 b83d 284f 1cbe 155c 873d 9dff cc3e
00000330: 780e 4b3e 2ce1 a5be 3bcc 25be b5ec 3fbe
00000340: c01e d13e ac4b d8be 3f3f afbe 8b86 183f
00000350: 599f 2a3d 4fdc ca3e 6172 72bc 061a 173f
00000360: 7989 733e 427b cdbe 8615 40be ea5a 1a3f
00000370: 02ae 5abe d0d9 d13e 3eff 5a3e d3e1 9dbe
00000380: e8b2 2abe f4a1 e9be fb9c 2bbe 6596 083f
00000390: 4199 f43e e8c7 b23d 4316 333e 60c1 7dbe
000003a0: c8f4 40be 0cb9 1e3e 5cb2 503c 8f8a 563e
000003b0: 077f dd3a d7c7 d83e 3648 acbe 19e5 91bd
000003c0: 3ecb 83be 3687 fc3d e97b e6be 145e 813e
000003d0: b32e 013f 83da 633e edcd b23e 1ad1 a2bc
000003e0: b9da c7be c3a1 00bf 88c7 8fbe 29c9 6c3b
000003f0: ed1d f33d d308 4fbd 3ea4 e4bd 30ac bbbe
0.111190185 0.017769506 -0.20985736 0.4582703 -0.2368456 0.15973252 -0.47470802 0.048919935
-0.5552913 0.28142104 -0.4196721 0.049815416 0.019046037 0.34417272 0.45060515 0.22509426
0.48253968 0.49655393 -0.5624896 0.10484827 0.21612608 -0.43534693 0.005313605 -0.118940055
0.31615555 0.05837428 0.5527645 -0.47544515 -0.44643396 0.42224756 -0.5674227 -0.3571838
0.16421327 0.2018919 -0.37537372 0.5306315 -0.21305808 0.5026621 0.17098899 0.0075965472
-0.20509903 0.17993508 -0.28159657 -0.48851016 0.40616798 0.480609 -0.22495602 0.39896098
-0.07233266 -0.3296151 0.020613518 0.60152006 -0.42006135 0.49086067 0.43240088 -0.4640076
0.052381825 0.23170911 -0.123866685 0.09401977 -0.34755903 0.231108 0.2087571 -0.15815246
-0.21518661 -0.54264826 0.057661396 -0.20858666 0.47366112 -0.21510798 -0.12380881 -0.22198293
-0.07606159 -0.56111574 -0.2792389 0.39661577 -0.37844938 -0.07967716 -0.2800006 0.029312855
-0.30324608 0.17833555 0.17304899 -0.4745793 -0.41671264 -0.020299466 -0.2425078 -0.06754673
-0.4429374 0.5554513 0.21094899 -0.013222239 0.05376666 0.14990836 0.201198 -0.38652852
0.3039309 -0.5127748 -0.009662239 0.058291424 -0.4947103 -0.43362316 0.27803943 0.11460661
0.54696 0.60624087 -0.22425665 0.44262516 -0.26792577 0.21389268 0.02649036 0.5369329
-0.49116296 0.27608228 0.1919623 -0.30973074 -0.38417473 0.31916752 0.41215977 0.39596328
0.013993393 -0.2581503 0.5606875 -0.5617887 0.43962285 -0.44088268 -0.37850067 -0.36768767
0.07352244 -0.3754976 -0.115986444 -0.18128292 0.32936335 0.20795465 -0.43361834 0.5407973
0.43711033 0.20893893 0.4889649 0.17168131 -0.06728098 0.030975621 0.17233379 -0.10878254
0.5789792 -0.0532125 0.06417968 0.05294398 0.3915942 -0.5113516 -0.15774822 0.43316492
0.059033316 0.014564491 -0.13244143 0.39314735 -0.44439363 -0.30615246 -0.12922971 0.41747016
0.120728515 0.12074511 0.3005471 -0.0042405715 0.0034593141 0.41151738 -0.060238034 -0.43100536
-0.23617853 0.51497626 0.4934049 0.31680757 -0.18361065 -0.5242621 -0.36084434 0.19249654
0.30579653 0.47773886 0.5271391 -0.23554598 0.45390588 -0.16801472 -0.4579988 -0.5455733
0.566743 0.17502108 -0.4838805 -0.5661017 -0.1635694 0.29538146 0.1215341 -0.044948548
0.13984159 0.41903463 0.4949065 -0.027541785 0.35675246 0.2675028 -0.40509433 0.15475073
0.090091445 -0.1526457 0.0660936 0.40038767 0.19829738 -0.32398355 -0.16191189 -0.1874264
0.40843773 -0.42245233 -0.3422794 0.59580296 0.041655872 0.39621207 -0.014797778 0.59024084
0.2378291 -0.401331 -0.1875821 0.60294974 -0.21355441 0.4098649 0.2138643 -0.30836353
-0.1666981 -0.45631373 -0.16759102 0.53354484 0.47773173 0.08729535 0.17488961 -0.24780798
-0.18843377 0.15500277 0.012737837 0.20951293 0.0016898819 0.42339966 -0.33648843 -0.07123775
-0.25741 0.12330477 -0.4501641 0.25267088 0.5046188 0.22251324 0.34922734 -0.019875098
-0.3903406 -0.5024683 -0.28081918 0.0036130643 0.11870942 -0.050545525 -0.11164139 -0.36654806

bias f4 [256]
00000000: cbd6 473e 5fbc dabe 2e53 b9bc 6be8 993e
00000010: 2c3a 33be deaa 4cbe b5ed 8dbe 289e abbe
00000020: 7983 b2be 819a 55be 3137 053f 1c49 1cbe
00000030: f502 c5bc c14d 253c 2a55 393e 368e 853e
00000040: b580 4dbe 0cce 123f 4574 133f caa6 c6be
00000050: d0f7 afbe 5023 b53e 401d 11bf 85d9 b33d
00000060: 1716 223d 8dfa ddbd d89c cabe 1bae 29be
00000070: 0fed b9be d093 3fbd 95d4 67bd f883 53be
00000080: a854 2ebe 89af c8be 6b31 09bf 6f98 ee3d
00000090: e716 153f 24a2 a73e c8a1 e33d 545f be3e
000000a0: 2ae8 883e 5aad 28be a33f 95be c2b5 fabe
000000b0: dc62 0fbf d06e d53e 6656 cf3d f25a 013f
000000c0: b2d9 23be 7f27 883b 42a1 013e 6df7 8b3e
000000d0: 65a3 0a3f b0d1 1fbe 0dc9 23b9 2a19 d23e
000000e0: d0e4 5bbe d1d1 eb3e 6cc7 0b3f cb56 7abe
000000f0: 5ef5 ce3e 85b4 043f 34b7 e9bd 28fd e23e
00000100: 5bb6 08bf a6fa 0a3f 1407 83be 2948 ad3e
00000110: d84e fcbe c741 b43e 13b5 e03e 8104 b63e
00000120: 2fc5 263c 3bd2 183d 2395 843e d7e1 a23e
00000130: 41bc 6cbd 29f5 033e aed0 cd3e 84fd aebe
00000140: 551a d4bc b0e9 873e 7aab 27be e845 13bf
00000150: e4e9 2b3e 0944 70be d2b8 0dbe a17e 063d
00000160: 66b0 8c3e 37a2 133f e082 013f 9a6f e0be
00000170: a7ef 24be 4e4c 183f 3ac8 92bd 31e9 60bd
00000180: 0cd7 36be 3041 99be 6baa 0dbf b7f3 01bf
00000190: 5eac 4bbe f49f c13e 8fc3 cfbe 5e78 8d3d
000001a0: f411 05be a9f7 0ebf e9c3 163e 23d7 663e
000001b0: 31af d73e 2e13 cc3e eb4d 10bc da86 dcbe
000001c0: a51c ac3c bd4b e5be dbcc a1bd 1909 d03e
000001d0: 8819 f43e bf38 84bc b26c e8be 3a2a 0ebe
000001e0: fbb3 01bf aa07 c43e a27a ccbd bd18 a6be
000001f0: 7f45 31be fed3 f5bc 54ae 113f ed0e 17bc
00000200: f68f e9be 85e0 46be 4a89 b2be d866 0fbf
00000210: 2697 5fbe 0ac4 9c3e 557e 13bf ba1d c23d
00000220: 6941 8f3c aa5e 8fbe 0487 0ebf 774e f6be
00000230: ede4 233e dfc9 d5be 334b 503d 4a20 4dbe
00000240: 743d d9be 98e1 843e 14d3 61bd b63d 893e
00000250: 9d65 653e e61e 66be a671 e43d b660 cabe
00000260: 1ff5 0cbf f36d 033f 9cc1 6a3e be9d fd3d
00000270: ae7d f0be c358 c53b 94a2 96be c761 063f
00000280: 9cd6 c53e 4dbc 56be a599 913e 24be 263e
00000290: 3298 6f3e f7a8 953a 0c81 8dbd 7921 ad3e
000002a0: 04ac fa3e 56e0 cb3c 0206 973d 0c87 b4be
000002b0: 96e9 da3e 06a9 ccbe 749f 573e a657 0e3f
000002c0: 7466 593e 6964 c63e 1682 063f d7e3 c33e
000002d0: c06c 92be 0071 ea3e 64af 9d3e 35ad 6f3c
000002e0: edbb 0b3f 2572 9fbd 9942 2ebd 43e4 8f3e
000002f0: e100 5c3c 4e3b 90bd e727 fcbe 0bc2 b0bd
00000300: 7c1a 893e d022 a8be 32c1 773e bc88 0f3e
00000310: 0948 5c3d c30d 923d 55c8 f23b b4d6 11bd
00000320: 239a 003e 9bd9 babe 8955 0d3f bcba 893e
00000330: f771 313e 12b2 79bd a0d8 8bbe 59ba b4be
00000340: ce27 2a3e de16 a43e 40c4 85be c43e 393e
00000350: 17e0 853d b74a 7dbe 640b edbd aa64 b63e
00000360: dcd3 cebe baef f13e 6b3d ee3e 1d85 863e
00000370: a50d c63e 7643 57bd e88b b4be 9342 d4be
00000380: 82cc 8e3e 24ee b3bd d4dd e03d 7ec2 a3bd
00000390: c440 713e 9bdf 193f 6e41 73be 7a9b 1b3f
000003a0: 3a69 c5be ad36 af3e 9923 e4bd 4efc 03bf
000003b0: d480 6b3e cb31 b738 54a3 b5be 5361 b6be
000003c0: b0f3 013f fed9 bb3e aea7 ac3e c6a8 053e
000003d0: dfc9 bc3e cf22 fc3e c8f0 153f 1e3d d93e
000003e0: b7f9 1ebe d8bf 9fbe 2160 b73e 9734 033f
000003f0: df7b 8c3c 86b2 aabe 6a3b 10bf c783 a5bd
0.19515531 -0.4272184 -0.022622671 0.30060133 -0.1750266 -0.19987056 -0.2772042 -0.335191
-0.3486593 -0.2085972 0.5203734 -0.15262264 -0.024049262 0.010089339 0.18098894 0.2608506
-0.20068629 0.5734565 0.5759929 -0.38799125 -0.34368753 0.35378504 -0.56685257 0.08781723
0.039571848 -0.108388044 -0.39572787 -0.16570322 -0.36313674 -0.046771824 -0.05659922 -0.20655811
-0.17024481 -0.39196423 -0.5359103 0.11650168 0.5823807 0.3274089 0.11114842 0.37182105
0.26739627 -0.16472378 -0.29150113 -0.48966795 -0.5601022 0.41686106 0.10123901 0.50529397
-0.16001013 0.004155099 0.12659171 0.27337208 0.5415557 -0.15607333 -0.00015619789 0.41034824
-0.21474004 0.46058515 0.5460117 -0.24447171 0.40421575 0.5183795 -0.11411896 0.44333768
-0.5340325 0.5428871 -0.25591338 0.33844116 -0.49278903 0.35206434 0.4388815 0.3555031
0.010178848 0.037309866 0.25895032 0.31812927 -0.05779672 0.1288649 0.40198272 -0.34177792
-0.025891462 0.26545477 -0.16374007 -0.57528543 0.16788441 -0.23463453 -0.13840035 0.032835606
0.2747833 0.57669395 0.50590324 -0.43835145 -0.16107045 0.5949143 -0.071670964 -0.05490989
-0.17855471 -0.29932547 -0.5533816 -0.50762504 -0.19889972 0.37817347 -0.40578887 0.06907724
-0.1299513 -0.5584665 0.14723171 0.22543006 0.42125848 0.39858383 -0.00880764 -0.43071634
0.021009753 -0.44784346 -0.07900401 0.4063194 0.4767573 -0.01614034 -0.45395428 -0.13883296
-0.50665253 0.38287097 -0.09984328 -0.3244075 -0.17311667 -0.030008312 0.5690663 -0.009219867
-0.45617646 -0.19421585 -0.34870368 -0.560163 -0.21835002 0.30618316 -0.5761464 0.09478326
0.017487245 -0.2800191 -0.5567477 -0.4810674 0.16005297 -0.41755578 0.050852966 -0.20031849
-0.42429698 0.25953364 -0.05513294 0.26804894 0.22402044 -0.22472724 0.11154489 -0.3952691
-0.55061525 0.51339644 0.22925419 0.123836026 -0.46970886 0.006022544 -0.29420912 0.52492946
0.38640296 -0.20970269 0.28437534 0.1628347 0.23397902 0.0011418153 -0.06909379 0.338146
0.48959363 0.024887245 0.07374193 -0.35259283 0.42756337 -0.39972705 0.2105692 0.5560249
0.21230489 0.38748482 0.52542245 0.38259766 -0.28598595 0.45789337 0.30797875 0.014628698
0.54583627 -0.07785443 -0.04254398 0.28103837 0.013427944 -0.070425615 -0.49249193 -0.08630761
0.26778018 -0.3283906 0.24194792 0.14017004 0.053779636 0.07131531 0.0074091353 -0.035605147
0.12558798 -0.36494145 0.5520864 0.2690028 0.1732863 -0.060960837 -0.2731371 -0.35298422
0.16616747 0.32048696 -0.2612629 0.1809035 0.06536882 -0.24735533 -0.11574438 0.35623676
-0.4039601 0.4725321 0.46531233 0.26273432 0.38682285 -0.05255457 -0.3526299 -0.41457042
0.27890402 -0.08785656 0.1097981 -0.07996081 0.23559862 0.6010682 -0.23755428 0.60784113
-0.38556844 0.34221402 -0.11139602 -0.5155686 0.22998363 8.735395e-05 -0.35476172 -0.35621127
0.5076246 0.36689752 0.3372168 0.13052663 0.36872765 0.49245307 0.5857053 0.4242944
-0.15524946 -0.31201053 0.35815528 0.5125212 0.01714891 -0.33339328 -0.5634066 -0.08081775

weight f4 [256, 256]
00000000: 6d8e 743c 0a79 923d 16ff 45bd af69 373d
00000010: 4ac0 4f3c 097b 2fbd c469 62bc 0009 1f3d
00000020: c1c8 1fbc a283 d4bc 7022 17bd 0073 dabd
00000030: dd97 2fbd f440 6fbd eaac 98bc 7552 e93d
00000040: ccf6 c93c bfa2 083e e870 d53d f8d5 02bd
00000050: cdc0 4bbd 2882 82bc 0c4e 0ebd cc00 013d
00000060: 003a bdbc 553f 9a3d 0677 33bd 6f1f 0dbb
00000070: 0c02 84bc 9568 45bd 2fab 3f3d d0de 1dbd
00000080: 69b8 92bd a684 eabc c07e cb3c e1fd 5e3d
00000090: d526 063b e8e0 bc3d 5a40 c53d 59d4 fb3c
000000a0: 751f 523d f8f0 04bd 04c2 9dbc c066 f9bb
000000b0: b1a9 4b39 9d4b b1bc 2016 653d 97c6 08b8
000000c0: c3a6 d03d 01f9 b33c 7c4b 9f3c a6d4 3b3d
000000d0: b667 30bd 261c 9e3d d4d8 a73c 2bc5 0bbc
000000e0: 225f 1f3d c3e1 ab3d 069e 29bd 26c8 943d
000000f0: fe87 143d c312 b7bc b5bf 03bd 51d6 913d
00000100: 7fc5 163d 8d1d e2bc a3df 2cbd 9590 d13c
00000110: cda4 1fbd 348b 363d 8ba2 9e3d 4789 7f3c
00000120: 3f5e b33d 7377 d83d 044a f93d 0c4c 0d3d
00000130: 81ff 3b3d 6043 60bc 744e a13c 6d72 063e
00000140: 4e06 743c 08d9 8b3c a56e 7e3d 38f9 2dbc
00000150: 78cf 503d febb 1dbd ca0d 9c3d 3b4c b73d
00000160: 78cc e8bb a137 113d 7c97 0b3d 5d57 af3d
00000170: b3c1 f73c e691 42bd 18fa 843d 8808 3dbd
00000180: 5871 2b3c 812a 393d f89f 8dbc 202a 093b
00000190: 00be e5b9 c302 1c3e 9438 1b3c 7e51 27bd
000001a0: df28 5c3d ec91 5cbd 7776 873d 8acf b23b
000001b0: c6e6 b13d 8a45 72bc 3740 c2bc 607e 84ba
000001c0: 07c1 ae3c 0e7b 053d 2802 85bd 32ab 123d
000001d0: 0613 ea3b fd6e 3f3d 58cb 40bc a4d8 483d
000001e0: 5cd5 8dbd 4694 063d 6814 d0bb ec80 44bd
000001f0: 5b5a bebc acdb 09bd 945a aa3d 2eb7 8d3c
00000200: e486 cfbc 2754 93bc f6bb 143d b878 693d
00000210: 5348 083e 82fb 483d 7cd6 27bc c444 703d
00000220: dbf4 1e3d d4a8 9f3d b01f a1bb 083d 873c
00000230: de01 95bc 1f76 0a3e 1722 9dbd a6b7 773d
00000240: 2b8a b2bd 1b00 cc3d 43c0 4abc 9f3b 543d
00000250: 7bd8 6d3d 50b0 87bb 0ea8 6cbd 771b 913d
00000260: d17b 42bd fda2 433d 4653 423d 5830 143c
00000270: 82c1 e93c c935 ca3d 5f8b a5bc 8c7a 953d
00000280: 3487 ffbc d6ae 18bd a218 0fbd e6c7 13bd
00000290: 6833 263d b475 5fbd 5e2c c53c 37f5 023c
000002a0: 1021 c03d 5159 223d cbee 193d de75 6a3d
000002b0: 3997 983d 185f 6a3d 4b7a f53d 0d55 273e
000002c0: 77e1 a33d 11e4 693d c450 86bc 3b47 53bd
000002d0: 8628 2a3d 90de 41bd 8f17 5bbd ceb8 623c
000002e0: f29c 563d 321a 533c b384 d33d f320 f73a
000002f0: 79c2 34bc 556a ac3c fc58 6dbd 20f8 943b
00000300: 1c33 023e 06e9 563d 4510 a83d 8085 213d
00000310: f6aa 0bbd 6527 903d 3650 1b3d 249a 683b
00000320: 4755 43bd c64c babc 245f 993d 8d05 373d
00000330: e951 803d 6253 ddbc 7aef 96bc 839b fabc
00000340: 8e6a 943c 8e1a 663d aeb1 68ba fb12 d4bc
00000350: 7e0b 603d c427 823d 3f91 1fbd 7a9c d9bb
00000360: 44cc 043d 71d9 67bd 537a 1e3d 444e b83d
00000370: a3d2 443d 7bbd 0dbd 5bee 7bbd 72d9 5cbc
00000380: c6b7 063b 8227 543d f0ee c43c d9b3 82bd
00000390: 60d4 6e3d 58ed 223d 44be 04bd c62f 333d
000003a0: 707b 933b 1c69 3dbd 6a82 4a3d f654 733d
000003b0: f8ba b2bc 800d 8e3d 3c73 e5b9 3f97 3e3c
000003c0: 1a11 853d 8950 a53d b94f 8e3d 3538 29bd
000003d0: d78f 9d3c 2852 093d 7363 ce3c 5ce0 383d
000003e0: dc62 c9bc 8aea f33c 67c7 8ebc 5039 8c3b
000003f0: 08b6 b53c 806d a6bb f2a7 3b3d b22a eabb
0.014926535 0.071519926 -0.048338972 0.044778522 0.012680123 -0.042841945 -0.013819162 0.038826942
-0.009752453 -0.025941674 -0.036898077 -0.10666466 -0.042869437 -0.058411554 -0.01863714 0.113926806
0.024653815 0.13343333 0.10421926 -0.031942338 -0.049744416 -0.015931204 -0.0347424 0.0314949
-0.023098946 0.07531611 -0.04381468 -0.0021533628 -0.016114257 -0.04819544 0.046794113 -0.03854257
-0.0716408 -0.028627705 0.024840713 0.054441337 0.0020469923 0.09222585 0.09631415 0.030740904
0.05129953 -0.03245637 -0.019257553 -0.0076111257 0.00019422804 -0.0216425 0.055929303 -3.2609878e-05
0.10188057 0.02196932 0.019445173 0.045857094 -0.043067656 0.07720213 0.020489134 -0.008530895
0.038909085 0.0839267 -0.04141047 0.07264738 0.036262505 -0.022347813 -0.032165248 0.07120956
0.03680944 -0.027601982 -0.042205464 0.025581637 -0.038975526 0.04456635 0.07745846 0.015596694
0.087582104 0.10569658 0.121723205 0.034496352 0.045897964 -0.013687938 0.01969073 0.13129587
0.014894081 0.017071262 0.062117238 -0.0106185 0.050979108 -0.03850936 0.076198176 0.08950087
-0.0071044527 0.035453442 0.034080014 0.08561585 0.03024373 -0.04750242 0.06493014 -0.046150714
0.010464035 0.04520655 -0.017288193 0.002092965 -0.00043819845 0.15235429 0.0094739385 -0.0408492
0.053749915 -0.0538501 0.06614392 0.0054568695 0.08686595 -0.014787087 -0.02371226 -0.0010108463
0.021332277 0.032588057 -0.06494552 0.035807796 0.007143381 0.046736706 -0.011767231 0.04903473
-0.06925461 0.03285625 -0.006350089 -0.047974512 -0.023236444 -0.03365676 0.08318058 0.017299261
-0.025332876 -0.017984463 0.036312066 0.056999892 0.1330884 0.04906798 -0.010244008 0.05865933
0.03880773 0.07795873 -0.0049171075 0.016508594 -0.018189367 0.13521622 -0.07672518 0.060477875
-0.0871776 0.099609576 -0.01237494 0.05181467 0.05806778 -0.004140891 -0.057777457 0.07085317
-0.04748136 0.04776286 0.047442697 0.009044729 0.028534655 0.0987354 -0.020208059 0.072987646
-0.0311924 -0.03727611 -0.0349356 -0.03607931 0.04057637 -0.05455561 0.024069007 0.007993034
0.09381306 0.03963596 0.037581246 0.057241313 0.074507184 0.057219595 0.11986216 0.16341038
0.080019884 0.057102267 -0.016395934 -0.051581603 0.041542552 -0.047331393 -0.053489264 0.013838006
0.05239577 0.012884663 0.10328045 0.0018854424 -0.011032694 0.021046797 -0.05794619 0.0045461804
0.12714809 0.052468322 0.08206228 0.039433956 -0.034098588 0.07038764 0.037918292 0.0035492266
-0.04768875 -0.022741687 0.0748885 0.044683028 0.06265623 -0.0270173 -0.018424738 -0.030591732
0.018117215 0.05617767 -0.0008876574 -0.025887957 0.05469846 0.06355241 -0.038956877 -0.006640968
0.032421365 -0.056603853 0.038690876 0.08999303 0.04805244 -0.03460453 -0.06150661 -0.013479577
0.0020556315 0.05179549 0.024039716 -0.063819595 0.058308005 0.03977713 -0.032408014 0.043746732
0.004500799 -0.04624282 0.04944078 0.059407197 -0.02181767 0.06936169 -0.0004376414 0.01163274
0.064974025 0.080720015 0.069488 -0.04131337 0.019233627 0.033525616 0.025193905 0.04513584
-0.024583273 0.029774923 -0.017429067 0.004279293 0.022181526 -0.0050789714 0.045814462 -0.007146203

bias f4 [256]
00000000: 493f 993c c8fa cabc 3a69 443d 2b3d 06bd
00000010: dd6a f0bc 3132 943c 6856 793d ec71 09bd
00000020: a025 c0bc 726d 483d 0f47 8d3c e046 b5bc
00000030: 749d b83b 6cd0 0ebd 7c26 433d 1665 15bd
00000040: 9055 19bd 8548 873d 97db acbb 6258 66bd
00000050: d2c8 febc fcc5 6abd bab1 26bc e9db d1bc
00000060: 8612 24bc 461c 693d df0a 823c 3c3f ef3c
00000070: dca7 03bd 3041 3c3b f6ad 063c a0b6 163c
00000080: fb97 7dbd d451 763d 50a0 a6bb 501b 5b3d
00000090: 411f 063d 1c2f c2bb 906d c63c 1495 003d
000000a0: bc21 bbbc 5880 bd3c 27ba b23c 7130 1abd
000000b0: 77ee 973d a2e8 6c3b 44ce 1abc 97a6 a9bc
000000c0: d8b3 223d bd49 12bd f30c 37bc 7049 c6bc
000000d0: 6b8e 223d 43b5 093c d3d3 ee3c 2ec2 d4bc
000000e0: 3c12 b73c a64f b8bc 4448 873c a0fa 8abb
000000f0: 31d5 c93b f8da 3abb 5c27 adba ed39 edbc
00000100: a89d 9f3c 13cc 933c a159 a23c fbf3 8c3d
00000110: efe6 3bbd 3cc8 d03c 358c 99bc a949 3f3d
00000120: 5c4c c0bc 4ad2 09bd 345b 233d 3336 463d
00000130: 11b4 783a f413 21bd ac9b 7bbd e22c 7f3d
00000140: e06d d7bc a83c 08bd 7419 073d 7b68 23bd
00000150: 3d12 5b3d 14ec 7cbc d432 983c d6f6 1e3d
00000160: c73d 3bbd 012b 2cbd 7a73 5a3c 7949 403d
00000170: e77d 04bb f481 cebb a88b b33c 3d5a 313d
00000180: 74b7 7d3d 6c48 6b3c f56d 63bd fcb8 283d
00000190: 2aa7 7e3d 5a31 9fbc 5455 173d cecc e83c
000001a0: 1402 31bd d081 8fbc fc37 26bd 18b4 873d
000001b0: 2308 293d d06e 913b f9c6 adbc 0181 853d
000001c0: b574 babc ddbb 8bbb 9fd2 01bd 9587 7dbb
000001d0: 5463 2ebd d360 603d e8a1 15bc c9e2 4c3c
000001e0: cd76 37bd 0dac f5bc 366f 823d 888c e4bb
000001f0: 600a 453c efe2 673d 7a7d 32bd 18f2 c23c
00000200: 2ef7 273d dae8 463c cc99 1dbc 5ea0 d6bc
00000210: f63c 493c e61e b03b b2b2 44bd adde 31bd
00000220: b95b 553d 0b50 c9bc 3c6e b13c 56f9 9ebb
00000230: 20cd 58ba 90ba 68bd a431 263d bcd2 0bbd
00000240: f824 bf3c 3e01 f8bc 949a 45bd 8ab5 76bd
00000250: 5c4b 41bd 7232 9f3d d390 37bc 806a 9ebc
00000260: 5b37 1237 bc95 d7bc a258 543d b393 9a3a
00000270: deae 56bd bd85 623d 38a1 9dbc b79c 63bb
00000280: cc0a 033d 2080 59bd 7f86 443d 7641 5a3d
00000290: 2866 3fbb 3619 3ebd 8d10 473d d924 743c
000002a0: 143b 1c3d 8a3e 04bc b647 aebc ac5a 783d
000002b0: 7cc0 22bc d8df 863c cebb 0ebd 6488 0e3d
000002c0: a821 9d3c e70e 70bc 74a4 e13c 507f 35bb
000002d0: 7fbb 053d 4094 fd3b 7dfe 603c 4b61 423d
000002e0: b65a 373d bea7 05bd 58cc e43c 6820 43bc
000002f0: f089 ddbc 62c5 7c3c dd16 febc 30b6 443d
00000300: c9cd 993b 7ce0 a13c 0afa 533d 5602 993c
00000310: 919e a9bc 7fd3 473d a448 58bc e8df 8d3c
00000320: 0ac8 e0bc 88b4 053d f7a3 1f3d 3b9f aabc
00000330: 2a3c 81ba a9ba debc 4473 a93c 1eb3 3a3d
00000340: 8cec 62bd cb20 b8ba a412 b6bc ce3b 743d
00000350: 11cf 7c3d 4e56 553d 92eb 5a3d 5d96 263c
00000360: b582 763c 93c8 3ebc 858b 00bd b68c 653d
00000370: 33c1 813d 0f00 75bd c3b0 0fbd 79c8 21bd
00000380: bd0d e63c 6e11 f3bc bb0e 0fbd 5b5f 42bb
00000390: d7eb 47bd 72dd 5d3d 30e8 24bc fada 87bb
000003a0: 2210 54bd ff43 83bb 60a8 afbc e98b 14bd
000003b0: 74e7 cc3c c29b 0dbd 22dc 66bb d5d0 3dbc
000003c0: c823 193d 528b 563d 25f7 ea3c 5c78 07bd
000003d0: 6322 c8bc 7545 793d 8a2e 70bd 230b 3abd
000003e0: 3418 323d c7a1 48bd 26cc 113d 3df5 2fbd
000003f0: 3ce7 d2bc 35e5 26bc bd77 78bd 7a2f d2bc
0.018706935 -0.024777785 0.047951914 -0.032773178 -0.029347831 0.01809034 0.06087342 -0.03355591
-0.023455441 0.0489325 0.017245797 -0.022128522 0.0056340043 -0.034866735 0.047644123 -0.036473356
-0.037435114 0.06605629 -0.0052752006 -0.056236632 -0.031101618 -0.05731772 -0.010174209 -0.025617557
-0.010014182 0.05691173 0.015874324 0.029204957 -0.032142505 0.0028725378 0.008220186 0.009198815
-0.061912518 0.06013663 -0.0050850287 0.053492844 0.03274465 -0.005926026 0.024222165 0.031392172
-0.022843234 0.023132488 0.02181728 -0.037643854 0.074185304 0.0036149402 -0.009448592 -0.020709319
0.039722294 -0.035714854 -0.011172521 -0.02420494 0.0396866 0.008405033 0.02915374 -0.025971498
0.022347562 -0.022498917 0.016513951 -0.0042413026 0.0061594476 -0.0028511863 -0.0013210583 -0.028958285
0.019484356 0.018041646 0.019818129 0.06882473 -0.045874532 0.025486104 -0.018743614 0.046701107
-0.023473911 -0.033647813 0.0398819 0.048391532 0.0009487281 -0.03932567 -0.061427757 0.062298663
-0.02629751 -0.03326097 0.03298326 -0.039894562 0.05348419 -0.015437145 0.018578924 0.03880962
-0.045713212 -0.0420332 0.013333196 0.04694507 -0.0020216645 -0.0063021127 0.02191718 0.04329895
0.061942533 0.014360528 -0.055524785 0.04119204 0.06217114 -0.019432712 0.03694661 0.028417971
-0.043214872 -0.017517954 -0.040580735 0.06626147 0.041267525 0.0044382587 -0.021213042 0.06518746
-0.022760728 -0.0042643384 -0.031695005 -0.003868555 -0.042575195 0.05477984 -0.00913284 0.012505242
-0.04479103 -0.029989267 0.06368868 -0.0069747604 0.012026399 0.056612905 -0.043576695 0.02379708
0.041007213 0.012140477 -0.009619188 -0.026199516 0.012282601 0.005374777 -0.04802198 -0.04342525
0.052089427 -0.0245743 0.02165901 -0.0048515005 -0.0008270312 -0.056818545 0.040574685 -0.03413652
0.023333058 -0.03027403 -0.04824312 -0.060231723 -0.04719101 0.077732936 -0.011203962 -0.019337893
8.715167e-06 -0.026316516 0.05184234 0.0011793285 -0.05241286 0.055303324 -0.019241914 -0.003473086
0.03199272 -0.053100705 0.047979828 0.053285085 -0.0029205177 -0.04641076 0.04859977 0.014901363
0.03814228 -0.008071551 -0.021274429 0.060633346 -0.009933587 0.016464159 -0.034847073 0.03479804
0.019181088 -0.0146519905 0.027544238 -0.0027694292 0.032649513 0.00773862 0.01373255 0.047456067
0.044764243 -0.032630675 0.02792947 -0.011909582 -0.027043313 0.015427919 -0.031016761 0.04802531
0.004693721 0.019760363 0.051752128 0.018677872 -0.020705493 0.048785683 -0.013200913 0.01731868
-0.027439136 0.03264287 0.03897473 -0.02082788 -0.0009859849 -0.027188616 0.020684846 0.045580976
-0.05540137 -0.0014047859 -0.022225685 0.059627347 0.06172091 0.05208426 0.053447314 0.010167685
0.015045811 -0.0116445 -0.031383056 0.056042396 0.06335678 -0.05981451 -0.035080682 -0.039497826
0.028082723 -0.029671397 -0.034926157 -0.0029658887 -0.0488089 0.054166265 -0.010065123 -0.004145977
-0.051773198 -0.0040059085 -0.021442592 -0.03626624 0.02501271 -0.03457237 -0.0035226424 -0.011585434
0.03738764 0.05237896 0.0286823 -0.033073768 -0.02443046 0.060857255 -0.058638133 -0.045420777
0.043480113 -0.048982408 0.03559508 -0.042958487 -0.025745027 -0.010186483 -0.060661066 -0.025657404

weight f4 [3, 256]
00000000: 7d61 613d f61b 96bc 2051 483b e3fa 393d
00000010: be5e e4bc 858d 80bd 88b6 d73c 3079 803d
00000020: 7442 02bd aaed f4bc ec82 273d 8027 a2bb
00000030: 4234 083d 7386 3cbd 8f1c 223d a465 7d3c
00000040: cc5d 59bd f502 183d 8401 6a3d 92f8 0c3d
00000050: 28b3 21bd adce abbc 6a5e 823d 1ac4 af3c
00000060: 0965 25be d23f 4c3d 70ba 783b 37f1 7cbd
00000070: 7040 cc3b 1a8f a73c 6c97 193d 8cee c93c
00000080: 98d8 72bc 44a5 6e3d 16f4 57bd fe5b e3bc
00000090: 8672 8e3d 78e6 5c3d f8e9 e6bc fa4b 85bd
000000a0: 3242 febc 975e b6bb 2d0e 69bd eb21 8fbd
000000b0: 121f 3f3d 7692 a9bd f73e 2dbd a104 e33c
000000c0: 022c 113d c1b2 8b3d bbb1 f33c a878 493c
000000d0: 8c6b 243a ccfb aabc c551 89bd cea4 1cbd
000000e0: 18e9 373c 10b5 f53c b58b 8a3d 588c 02bd
000000f0: e255 233a 07a7 4d3b c5d4 443c 2687 c13b
00000100: 9ccd a23c 2919 463d 7900 6bbd 7a58 f53c
00000110: c677 223c 5739 31bd 046a 13bd 0509 2d3d
00000120: 40c8 0b3b 9839 ad3c 6645 00bc adeb f33b
00000130: 6f9a 063d dc21 883c dc84 213d 8be7 dc3c
00000140: c3f1 8d3d 5ed8 5bbd 089e da3c 40a8 97bb
00000150: 21e2 23bd 46be 113d ccb7 113d 6672 80bc
00000160: 09c9 3bbd 781d 63bc 866e 8e3d d095 1fbd
00000170: ec23 e9bd c56f 15bd 0baf 6d3c dfef e23c
00000180: e0c1 a43b 964a 4c3d 6cbc bb3c 3877 a93c
00000190: 8967 e73c ac8c 973c 7be5 e2bb 8f3c 603d
000001a0: 5e85 b4bd be25 cabd 6ebb 26bd 557b db3c
000001b0: f179 753d 380c d13c f30b 993d fdc3 90bc
000001c0: 72ce 9cbd ed8a 98bd 4f6a 473b 9826 833b
000001d0: 653d aebc 6f6a 083d 34f7 26bc 4071 39bd
000001e0: 33d3 293b 2063 343c 9f6f 4b3d 10a8 893b
000001f0: 1161 32bd bdf4 b9bd 26ec 313d 0cfc b13c
00000200: b357 7e3c a783 863d f0e1 a3bb cbfe 713d
00000210: 15dd 3bbd 0ae1 95bc b4a1 9dbc 4dec 603d
00000220: a0e8 b1bc e41d f7bd f9ad 34bd 9500 6ebd
00000230: f92b f5bd c010 edba f534 113d a794 f0bc
00000240: 4124 24bd fc34 033d d2dc dabc 18f0 f23c
00000250: 6adb afbc 11d9 ee3c 311a b1bd 1e8d 733d
00000260: 27a8 f1bc 9b07 08bd 3a43 213d 49d5 2fbd
00000270: a4d9 21bd 10d8 473d d416 833d 9d3a 07bd
00000280: 7224 3cbd 3c7c cdbc 7a26 293d 399e 0abd
00000290: 2f2a e6bd 5628 a43b c7c2 c9bb 328f 183c
000002a0: f009 a0bc 2f42 b3bc e03d 74bc 75df c438
000002b0: fc66 1f3d eb0c 61bd 5413 9cbc 8562 79bd
000002c0: 577c 6abd 6b7e 903d 14a5 12bd 5445 653d
000002d0: f0fe a1bd 38a6 bc3c de5e 7a3d b537 573c
000002e0: cc59 4cbd a821 593c 945d 92bc dc1e 6dbd
000002f0: 60b4 173b 8545 c2bc 484a 8a3c a612 a4bc
00000300: 7958 7bbd dabc b2bc 1ded 0f3d 1c38 063d
00000310: bdde acbc ac6c 4a3d ecb2 593d 789a 913c
00000320: ff46 2cbd f9fa 01bd d986 473d f348 573c
00000330: 7820 3abe c799 3cbc 00e6 4039 ce14 f33b
00000340: e430 8e3c 3813 123d c81d 583d 8cfe 26bd
00000350: 4a18 3ebd c9a5 06bd 4268 6bbd 2d99 513c
00000360: d337 9d3c 044c 50bb 7bb6 71bd d66c 78bd
00000370: b722 fc3c ecbc f93c 4d5f e13c 03e5 a03c
00000380: 271d 87bd ecfc a93c 32eb 733d 45bd 3b3b
00000390: 1bd7 80bc 878b 013d b41c edbd 6b62 053d
000003a0: d040 4e3c 68ca 9f3d 84a1 c93c 2b73 ca3a
000003b0: bd99 6fbd c8d7 0fbe ca44 b03c fc7e 9eb9
000003c0: 67c1 3cbd 6261 033d 3f20 6bbd c11e 60bd
000003d0: 55a1 d23c 03d4 85bd b374 68bc 02b1 97bd
000003e0: 7228 6c3d e6b9 62bd 5c0f 3fbd 8ab8 c6bc
000003f0: 1829 593d 87df efbc caee cabd 8947 253d
0.055024613 -0.01832388 0.0030565932 0.04540528 -0.027877208 -0.06276993 0.026332155 0.06273115
-0.031801656 -0.029898483 0.04089634 -0.0049485564 0.033252962 -0.04602666 0.039578017 0.015466128
-0.053067967 0.037112195 0.05713035 0.034416743 -0.039477497 -0.020972574 0.06365664 0.021455813
-0.16151823 0.04986555 0.0037952922 -0.061753478 0.0062332675 0.020453978 0.037497923 0.02464988
-0.014822148 0.05826308 -0.052723013 -0.027753826 0.06955437 0.05393073 -0.028187737 -0.06508632
-0.031037424 -0.005565475 -0.056898285 -0.06988891 0.04666049 -0.08279888 -0.042296376 0.027712168
0.03544236 0.06821204 0.029747834 0.012296833 0.0006272129 -0.02087202 -0.067050494 -0.038243107
0.0112250075 0.029993564 0.06764928 -0.031872123 0.0006230754 0.0031380074 0.012013619 0.0059060035
0.019873433 0.04836384 -0.057373498 0.029949415 0.0099162515 -0.043267574 -0.035989776 0.04224493
0.0021329075 0.021145627 -0.007829046 0.007443866 0.032862123 0.016617708 0.039433345 0.026965877
0.06930878 -0.05367314 0.026686683 -0.0046282113 -0.040010575 0.03558185 0.035575673 -0.01567955
-0.04584602 -0.013862006 0.069546744 -0.03896123 -0.11383805 -0.036483545 0.0145070655 0.02770227
0.0050279945 0.04987582 0.022916995 0.02068673 0.028247612 0.018499695 -0.006924329 0.054745253
-0.088145 -0.0987048 -0.04070609 0.026792208 0.059930746 0.025518522 0.07472982 -0.01767158
-0.07656564 -0.07448373 0.0030428355 0.0040024035 -0.02126951 0.033304628 -0.010190774 -0.04527402
0.0025913238 0.011009961 0.049666997 0.004200943 -0.0435496 -0.09079883 0.0434381 0.02172663
0.015523839 0.065680794 -0.005001299 0.05908088 -0.045865137 -0.018295784 -0.019242145 0.054912854
-0.02171737 -0.12066248 -0.044111226 -0.058106024 -0.11971278 -0.0018086657 0.035450894 -0.029367758
-0.040073637 0.03203295 -0.026716623 0.029655501 -0.02146693 0.02915624 -0.08647574 0.05946075
-0.029499127 -0.03321038 0.039370753 -0.042928014 -0.0395142 0.048790038 0.064008385 -0.033014882
-0.045933194 -0.025083654 0.04129646 -0.0338423 -0.11238515 0.005009691 -0.0061572525 0.009311484
-0.019535989 -0.021882145 -0.01490733 9.3876304e-05 0.038916573 -0.05494396 -0.019052185 -0.06088497
-0.057247486 0.07055362 -0.035801962 0.05597432 -0.079099536 0.023028478 0.06112563 0.01313584
-0.049890324 0.013252653 -0.017866887 -0.057890758 0.0023148283 -0.02371479 0.016881123 -0.020028424
-0.06136367 -0.021818567 0.03513824 0.032768354 -0.021102304 0.049420044 0.05314915 0.017773852
-0.042059895 -0.031733487 0.048712585 0.013139951 -0.18176448 -0.011511273 0.00018396229 0.0074182516
0.017357297 0.03566286 0.052762777 -0.0407701 -0.046409883 -0.03287295 -0.057472475 0.012792868
0.019191658 -0.003178359 -0.059011918 -0.06065067 0.030778272 0.030485593 0.027511263 0.019640451
-0.06597357 0.020750485 0.05955047 0.002864675 -0.01572757 0.031627204 -0.1157774 0.03256456
0.012588695 0.07802278 0.02461315 0.00154457 -0.058496226 -0.14047158 0.021517176 -0.0003023072
-0.04608288 0.032075293 -0.0574038 -0.05471683 0.025711695 -0.06534579 -0.0141879795 -0.074068084
0.05765576 -0.055353068 -0.046645507 -0.024257917 0.053017706 -0.02928139 -0.09908827 0.040351424

bias f4 [3]
00000000: 4261 6f3d b28f 1abd 4573 643d
0.05844236 -0.037734695 0.055773992
