TargetApproach/2mil.pth (torch, 274292 bytes, 6 tensors)

weight f4 [256, 3]
0	0x3ed9184e	0.42401356
1	0xbe19df66	-0.15026626
2	0xbe0db410	-0.1383822
3	0xc2eb26e8	-117.57599
4	0x3e98e8da	0.29865152
5	0xc2baf4bc	-93.478
6	0x3e1edae4	0.15513188
7	0xbda8ceb9	-0.08242554
8	0xbbfeda50	-0.0077774897
9	0xbf110eed	-0.566634
10	0xbe74427f	-0.23853491
11	0xbe2d19ae	-0.16904327
12	0xbf02f3c0	-0.51153183
13	0xbedb9854	-0.42889655
14	0x3f001b00	0.500412
15	0x4178bdf7	15.546378
16	0x3cf49962	0.029858295
17	0x4143b746	12.2322445
18	0xc2f9f05b	-124.969444
19	0x3e5fb05e	0.21844622
20	0xc2c6d7f8	-99.421814
21	0xbc5a02b8	-0.013306312
22	0xbe879723	-0.26482496
23	0x3e2d17be	0.16903588
24	0xc0358bbc	-2.8366537
25	0xbe1ad090	-0.15118623
26	0xc01bde0e	-2.4354281
27	0xbec5ba4f	-0.38618705
28	0xbe29b1fd	-0.16571803
29	0xbf0376be	-0.5135306
30	0xc2e78df7	-115.777275
31	0x3e8dd116	0.27698582
32	0xc2b8aa0c	-92.33212
33	0xc0369594	-2.8528795
34	0xbe2764ab	-0.16346996
35	0xbffa8350	-1.9571323
36	0xc0047225	-2.0694668
37	0xbd730a67	-0.059336092
38	0xbfbf857a	-1.4962609
39	0xc2f9609b	-124.68868
40	0x3e6042a7	0.21900426
41	0xc2c68050	-99.25061
42	0xc2e828d7	-116.079765
43	0x3e88e571	0.2673755
44	0xc2b8b8b6	-92.36076
45	0xc2e4353c	-114.10397
46	0x3e68b838	0.22726524
47	0xc2b6cc6e	-91.39928
48	0x3ead96d9	0.3390415
49	0xbd85136b	-0.06497844
50	0xbf0e2fce	-0.55541694
51	0xc2e1d120	-112.90845
52	0x3e704735	0.23464663
53	0xc2b61c39	-91.05512
54	0xc05d3036	-3.4560676
55	0xbe832c2d	-0.2561964
56	0xc01deba0	-2.4675064
57	0x420b4d26	34.82534
58	0xbe35fec7	-0.17772971
59	0x41ea7abf	29.309935
60	0xc016f450	-2.3586617
61	0xbd3b2bd3	-0.04569609
62	0xc00a2716	-2.1586356
63	0x3eef8e15	0.46788087
64	0xbdc671b8	-0.09689659
65	0xbe74b1c8	-0.23895943
66	0xc2e7af31	-115.84217
67	0x3e996eac	0.29967248
68	0xc2b873b4	-92.22598
69	0x3e7b9da2	0.24571851
70	0xbf0b5bc6	-0.5443691
71	0xbe03d3ad	-0.12873717
72	0x41a3c0e8	20.469193
73	0x3b9a05e4	0.0047004092
74	0x4184c5e6	16.59663
75	0xbef6b0cb	-0.48181757
76	0xbdf3b48b	-0.1189967
77	0x3f1097db	0.56481713
78	0x4181b4ca	16.213276
79	0x3be0a1bf	0.006855219
80	0x4145c4e3	12.360568
81	0xc00e24c3	-2.2209938
82	0xbe31cfea	-0.17364469
83	0xc01d869e	-2.4613414
84	0x3e219d02	0.1578255
85	0xbdf5c372	-0.12000169
86	0x3ee32bdc	0.443694
87	0xc2e3470b	-113.638756
88	0x3e61f169	0.22064747
89	0xc2b71bb7	-91.55413
90	0x3db42b5c	0.08797333
91	0xbdf03d1a	-0.11730404
92	0x3ec9c945	0.3941137
93	0x3e3919eb	0.18076293
94	0xbe1a5570	-0.15071654
95	0x3e87348c	0.26407278
96	0x3d4d35f7	0.050100293
97	0xbecd518b	-0.40101275
98	0xbeb52d2a	-0.3538602
99	0xc040b770	-3.0111961
100	0xbe2e21d7	-0.17005096
101	0xc0067c07	-2.10132
102	0x3ec0adb4	0.37632525
103	0xbe885ed5	-0.2663485
104	0xbf04a85c	-0.51819396
105	0xbf09e240	-0.53860855
106	0xbe3241d6	-0.17407927
107	0xbee49f3b	-0.44652733
108	0xc2f9380c	-124.60947
109	0x3e54e944	0.20792109
110	0xc2c60ea8	-99.028625
111	0x3ecb72ce	0.39736027
112	0xbef2cc70	-0.47421598
113	0x3e5fc6dc	0.21853203
114	0x3eae5e1b	0.34056172
115	0xbe63977e	-0.22225758
116	0xbefd7e6b	-0.49510512
117	0xc004b441	-2.0735018
118	0xbe815506	-0.2526018
119	0xc02e0b5b	-2.719443
120	0xbe50db48	-0.20396149
121	0xbdf24276	-0.11829083
122	0x3d7d4fb1	0.061843578
123	0x417cd9af	15.803145
124	0x3d0a4c9c	0.033764467
125	0x413fd46d	11.989362
126	0xbe62b455	-0.22139104
127	0xbf108049	-0.5644575
128	0x3f0a2627	0.53964466
129	0xbe694076	-0.22778496
130	0xbe919a2c	-0.28437936
131	0x3f052ce2	0.5202161
132	0x3eebc525	0.46048847
133	0xbe998dd1	-0.2999101
134	0xbedee1e6	-0.43531722
135	0x3ef9cc25	0.48788562
136	0xbca43078	-0.020042643
137	0xbedcdd46	-0.43137568
138	0xbe9c8b14	-0.30574858
139	0xbe6bdd49	-0.23033632
140	0xbea85def	-0.32884166
141	0xc2e8ddc6	-116.43315
142	0x3e73ca11	0.23807551
143	0xc2ba542d	-93.164406
144	0xc2ddb5cf	-110.855095
145	0x3e6b72fc	0.22993082
146	0xc2b091c7	-88.28472
147	0xc2f81b77	-124.05364
148	0x3e4dbb6e	0.2009103
149	0xc2c3cd3f	-97.90087
150	0xc2ef741e	-119.72679
151	0x3e3ae367	0.1825081
152	0xc2bfffba	-95.999466
153	0xbe0e0082	-0.13867381
154	0xbef7b4a1	-0.48379996
155	0x3f10e108	0.5659337
156	0xbdb31c34	-0.08745614
157	0xbf09deb7	-0.5385546
158	0x3c9648bf	0.018345235
159	0xc2f9a7b1	-124.82752
160	0x3e51c891	0.20486666
161	0xc2c5a68b	-98.82528
162	0x3e04a3c6	0.129531
163	0xbf00e429	-0.50348145
164	0x3e376cba	0.1791257
165	0x3eb8d2d9	0.36098364
166	0xbec79633	-0.3898178
167	0x3e530a7d	0.2060947
168	0x3e849cdf	0.25900933
169	0xbeda1db3	-0.42600784
170	0x3e912e4b	0.2835563
171	0xbe4e2c65	-0.20134123
172	0xbe02b0ed	-0.12762804
173	0xbed7b61e	-0.42131132
174	0x4107d4e4	8.489475
175	0x3cfb67d7	0.030689163
176	0x40d922f6	6.7855177
177	0x3f0d6255	0.5522817
178	0xbe8fd73c	-0.28093898
179	0xbf1361e6	-0.57571256
180	0x3f08fc6d	0.5351017
181	0xbf0d02f3	-0.55082625
182	0xbeda4bb6	-0.42635888
183	0xc0401ce2	-3.0017629
184	0xbe5a744c	-0.21333426
185	0xc008f86e	-2.140163
186	0xbecdb263	-0.4017516
187	0xbec76cf3	-0.3895031
188	0xbee01be9	-0.43771294
189	0xbeb302e4	-0.34963143
190	0xbe1c32dd	-0.15253778
191	0x3d8a99b6	0.06767599
192	0xc1674209	-14.453622
193	0xbe342515	-0.1759227
194	0xc15ba0a2	-13.726717
195	0xbd1526f3	-0.036414098
196	0xbe5f195d	-0.21787019
197	0x3e857d0c	0.26071966
198	0xbff0e6f2	-1.8820479
199	0xbccf6524	-0.025316782
200	0xbfb0b2b9	-1.3804542
201	0xc2e6156e	-115.041855
202	0x3ea61ddb	0.32444653
203	0xc2b66758	-91.20184
204	0xbe87b9eb	-0.26509032
205	0xbd39e85a	-0.045387603
206	0xbf0f9caf	-0.56098455
207	0x3eee2ed8	0.46520114
208	0xbe4f1e19	-0.20226325
209	0xbe94e9df	-0.2908468
210	0xc10e6313	-8.899188
211	0x3d24760c	0.04015164
212	0xc0bde8a1	-5.934647
213	0xbf04609d	-0.5170992
214	0xbe7be0f1	-0.24597527
215	0xbee5c285	-0.4487497
216	0x3bb1727f	0.0054152603
217	0xbd46fd99	-0.048581693
218	0x3e631ec8	0.22179711
219	0x3e44b9e2	0.19211534
220	0xbea06137	-0.3132417
221	0x3c9c8a75	0.01910899
222	0x41a9a92a	21.2076
223	0x3b093928	0.0020938609
224	0x41886fb9	17.054552
225	0xc2ed0da3	-118.526634
226	0x3e6e01b3	0.23242836
227	0xc2bf4fb3	-95.65566
228	0xbff8f21d	-1.9448887
229	0xbe355188	-0.17706883
230	0xbfda7727	-1.7067612
231	0xc0127a1a	-2.2887025
232	0xbe3281f2	-0.17432383
233	0xc01959bd	-2.3961022
234	0xbf10bf66	-0.5654205
235	0xbe34a966	-0.17642745
236	0x3e573b2b	0.21018665
237	0xbe841e81	-0.25804523
238	0xbe991a0f	-0.29902694
239	0xbea974c2	-0.33096892
240	0x4112018a	9.125376
241	0x3a86d733	0.0010287523
242	0x40d394dd	6.611922
243	0xc01d38e0	-2.4565964
244	0xbe224493	-0.15846471
245	0xc0057bb0	-2.0856743
246	0x41a5bf33	20.718359
247	0x3b6b3cfe	0.0035894508
248	0x41879c05	16.951181
249	0x3efa8194	0.48926985
250	0xbe077a7a	-0.13230315
251	0x3e30c082	0.17260936
252	0xc02dcc4b	-2.715594
253	0xbc9bfac2	-0.01904047
254	0xc0082d5c	-2.1277685
255	0xbe80ee48	-0.25181794

bias f4 [256]
0	0xbefdf0a6	-0.49597663
1	0xc2b7654f	-91.69787
2	0x3cd9607b	0.026535263
3	0xbebfe182	-0.37476736
4	0x3e0ac0e1	0.1355014
5	0x413e05d4	11.876423
6	0xc2c33714	-97.607574
7	0xbe80ede8	-0.25181508
8	0xc006a254	-2.1036577
9	0x3d0267c3	0.031837236
10	0xc2b4f116	-90.47087
11	0xbfea3aee	-1.8299234
12	0xbfd6f5f4	-1.6793809
13	0xc2c1da53	-96.926414
14	0xc2b458f0	-90.173706
15	0xc2b2b5e7	-89.35528
16	0xbe6f7160	-0.23383093
17	0xc2b0fbc7	-88.49175
18	0xbff240b9	-1.8926002
19	0x41e8c494	29.095985
20	0xbff02daf	-1.8763942
21	0xbd5bb060	-0.053635
22	0xc2b644f4	-91.134674
23	0xbd7a9fc8	-0.061187536
24	0x41890dfb	17.131826
25	0x3e70e889	0.23526205
26	0x4143cf31	12.238084
27	0xc01ad804	-2.4194345
28	0xbe4d99cb	-0.20078199
29	0xc2b3d10c	-89.908295
30	0x3eaa9526	0.33316916
31	0xbf41256b	-0.7544772
32	0x3e90efb6	0.28307885
33	0xc02f5bc6	-2.7399764
34	0x3ebcdc77	0.3688695
35	0xbebd2897	-0.3694503
36	0xc2c2deec	-97.435394
37	0x3d95288a	0.07283123
38	0x3dfedc96	0.12444417
39	0xc01d7dee	-2.4608111
40	0x3e4bf6f6	0.19918427
41	0x41385846	11.521551
42	0xbdc18d03	-0.09450724
43	0x3f0bc7ed	0.5460194
44	0x3e172d49	0.14763369
45	0xbe64b7dc	-0.22335762
46	0x3e984478	0.29739738
47	0xc2b58963	-90.76833
48	0xc2ae79e9	-87.238106
49	0xc2bf38a4	-95.61063
50	0xc2bc10e4	-94.03299
51	0xbe6eb8a9	-0.2331263
52	0x3e5f6a28	0.21817839
53	0xc2c1b374	-96.850494
54	0xbead8b16	-0.33895177
55	0xbe3835c3	-0.17989258
56	0x3d485e9d	0.048918355
57	0x3e51ed47	0.2050067
58	0x40cab774	6.334894
59	0xbda5ffa2	-0.08105399
60	0x3ccf250b	0.025286218
61	0xc0016e2d	-2.0223496
62	0x3f0cdb83	0.5502245
63	0x3e83528c	0.25648916
64	0xc152ca49	-13.174386
65	0x3e64a802	0.22329715
66	0xc00f98c0	-2.2436981
67	0xc2b3d624	-89.91824
68	0x3eba23fc	0.3635558
69	0x3e51835f	0.2046027
70	0xc0ba6a77	-5.825496
71	0x3e91a32e	0.2844481
72	0xbe0b8d07	-0.13628016
73	0xbe571852	-0.21005371
74	0x4187abe3	16.95893
75	0xc2bb2c47	-93.58648
76	0xbfd5ba53	-1.6697487
77	0xc02ad472	-2.6692166
78	0x3e98d42d	0.29849377
79	0x3efed9a2	0.49775416
80	0x40d51fec	6.6601467
81	0xc045277a	-3.0805345
82	0x4188f2d6	17.118572
83	0xbe31c443	-0.17360024
84	0xbfc914f1	-1.5709516
85	0x3eb7a20d	0.35865822
86	0xbd937c58	-0.07201451
87	0xc2bc6d7a	-94.21382
88	0xbee22169	-0.44166115
89	0xbfe6c3d9	-1.8028518
90	0xbf003283	-0.50077075
91	0x3e54256d	0.20717402
92	0x3ef25723	0.47332105
93	0x4186d7ef	16.855436
94	0x40b2408a	5.5703783
95	0x3e2146c0	0.15749645
96	0xc14e80ea	-12.906473
97	0xc21673aa	-37.612953
98	0x3ecb5f92	0.39721352
99	0x3da16133	0.078798674
100	0xbf126a6d	-0.5719364
101	0xbe857e7d	-0.26073065
102	0xc2b5f974	-90.98721
103	0xc2b11a44	-88.5513
104	0x3e966c02	0.29379278
105	0xc00d5dbe	-2.2088466
106	0xbe67ce8f	-0.2263739
107	0xc2c2c932	-97.39296
108	0x3e3a169d	0.18172689
109	0x3e8c26fd	0.27373496
110	0xbf118a1d	-0.5685137
111	0x3e3337ea	0.17501798
112	0xbe9d98ea	-0.30780727
113	0xbe3e1605	-0.18563087
114	0x415d00f0	13.812729
115	0x3f0bd335	0.5461915
116	0xbee671c3	-0.45008668
117	0xbea3cb1a	-0.31990892
118	0xc2b62fb3	-91.09316
119	0xc0243887	-2.5659502
120	0x3e63e395	0.22254784
121	0x413f60a5	11.961095
122	0xbed83c25	-0.42233387
123	0x3daa3ab0	0.08311975
124	0xc2c160ef	-96.68932
125	0xbfbeddeb	-1.4911474
126	0xc2b57766	-90.7332
127	0xc02fc7f9	-2.7465804
128	0xbcac5a1e	-0.021039065
129	0x3e9ffaa1	0.31245902
130	0xbec366fa	-0.38164502
131	0x3ea8a6f9	0.3293989
132	0xbf06e7e6	-0.526976
133	0xc2b49f61	-90.31129
134	0x3c491365	0.01227269
135	0xc00bbfe7	-2.1835878
136	0xbffd4458	-1.9786482
137	0xbdfc078a	-0.123061255
138	0xbe780fe4	-0.24224812
139	0xbf040ed8	-0.5158515
140	0xbed280dc	-0.41113937
141	0xc2c3ec58	-97.96161
142	0xc20a3b5a	-34.55796
143	0x3cefb792	0.029262338
144	0xc2c0f410	-96.476685
145	0xbe888e1b	-0.26670918
146	0xbea79d71	-0.32737306
147	0x4113a1c6	9.226995
148	0x40cb56ce	6.3543463
149	0xc2b25872	-89.172745
150	0x419069c3	18.051641
151	0xbdf2cfd2	-0.11856045
152	0xbfec5213	-1.8462547
153	0xc00789e5	-2.1177914
154	0x3f0d3347	0.5515637
155	0xc00fda95	-2.2477162
156	0xbefbc4ac	-0.49173486
157	0x3e33a2b5	0.17542537
158	0xc2b57cf1	-90.744026
159	0xbff1faaa	-1.8904622
160	0xbf065731	-0.52476794
161	0xbe3e79c9	-0.18601145
162	0x3c8ad4ac	0.016947113
163	0xbe9d582a	-0.30731326
164	0xbe988db8	-0.29795623
165	0x3d89b49f	0.06723904
166	0xc1dfdc09	-27.982439
167	0x4184fa27	16.622145
168	0x3e8108ca	0.25202018
169	0xc019361c	-2.3939276
170	0xc1e2380e	-28.27737
171	0xc2bbaa7e	-93.83299
172	0xbe956177	-0.29175922
173	0xbfdea5b7	-1.7394322
174	0x3ee5a221	0.44850257
175	0x3ea339c1	0.3188
176	0x4093e1bf	4.621307
177	0xbd1d23ac	-0.038364097
178	0xc01a3716	-2.4096122
179	0x3e589b8d	0.21153088
180	0x3da52e37	0.080654554
181	0xbed4399d	-0.41450205
182	0xc2c31e8e	-97.55968
183	0x3ebe7b23	0.3720332
184	0x3e1963e2	0.14979509
185	0xc2ae6a27	-87.20733
186	0xc07d67a2	-3.9594502
187	0x41886175	17.047586
188	0x3ef296dc	0.47380722
189	0xc01d39be	-2.4566493
190	0x3dcddf87	0.100524
191	0x3e8e7ee0	0.27831173
192	0xc017b7ab	-2.3705852
193	0x3eb9972c	0.36248147
194	0xbe00abe4	-0.12565571
195	0xc2b3bf94	-89.874176
196	0x41509e12	13.038591
197	0xc2b476b6	-90.23186
198	0xbee53691	-0.44768193
199	0x3ea7533e	0.32680696
200	0x3e8a3b0f	0.26998183
201	0x3eca1ac2	0.3947354
202	0x3ef76871	0.4832187
203	0xc0032250	-2.0489693
204	0xc2b63d68	-91.119934
205	0xc2b43f85	-90.12406
206	0x3eee1fdc	0.46508682
207	0xbe11e508	-0.14247525
208	0xbe9aacf5	-0.3021008
209	0xbe895478	-0.26822257
210	0x3f04bca5	0.5185035
211	0xbfbfac36	-1.497443
212	0x3d42f6eb	0.04759876
213	0xc2c19411	-96.78919
214	0xbe38d9e4	-0.18051869
215	0xc2b4663c	-90.19968
216	0xc2b95ebb	-92.68502
217	0xbfef28e8	-1.8684359
218	0x415d81fc	13.844234
219	0xbffc46d5	-1.9709116
220	0xc2b4fca5	-90.49345
221	0xbe801bd7	-0.2502124
222	0xc2b51019	-90.53144
223	0x3ecf1753	0.40447482
224	0x3dcc0218	0.09961337
225	0xc2c4ce78	-98.40326
226	0xbfed6c99	-1.8548766
227	0xc2b4a707	-90.326225
228	0xc00d7198	-2.2100582
229	0x3e9cc0d9	0.3061588
230	0x3e40d758	0.18832147
231	0xbe05d6da	-0.1307024
232	0xbe597b89	-0.21238531
233	0xbe86a28d	-0.2629589
234	0xc2b39409	-89.78913
235	0xbf062144	-0.5239451
236	0xc2af4440	-87.6333
237	0xc2c583ad	-98.75718
238	0xc01e4c4c	-2.4734068
239	0xc01757cb	-2.3647335
240	0xc2406e3a	-48.107643
241	0xbf022620	-0.50839424
242	0xc2c2d78c	-97.42099
243	0xc2b4adf8	-90.33978
244	0x41976dd1	18.928621
245	0x3f0a38e3	0.5399305
246	0x3da6c17f	0.08142375
247	0x3e210f45	0.15728481
248	0x3ce427a4	0.027850933
249	0x3e7036ad	0.23458357
250	0xc0272dfd	-2.612182
251	0xbdd0a5c7	-0.101878695
252	0xc023e3df	-2.5607831
253	0xc00fa53b	-2.2444599
254	0xbecfc8df	-0.4058294
255	0xc2b0917a	-88.284134

weight f4 [256, 256]
0	0xbd6a5d24	-0.057217732
1	0xbbd324e7	-0.006443608
2	0x3d682a1a	0.056680776
3	0xbc187044	-0.00930411
4	0xbd2ca491	-0.04214913
5	0x3a780088	0.00094605284
6	0xbd6acd2e	-0.05732458
7	0x3d4eb74c	0.050467774
8	0x3c36b4a6	0.011151468
9	0x3e0dff44	0.13866907
10	0x3c95d866	0.018291663
11	0x3c6cf130	0.0144618
12	0x3d2f10ea	0.04274074
13	0xbd4bfbb0	-0.049800575
14	0xbc6f6dc2	-0.014613571
15	0x3da6dcb1	0.08147562
16	0xbc026e80	-0.007960916
17	0x3d99e60e	0.075145826
18	0x3d96ca2f	0.07362782
19	0x3d956980	0.07295513
20	0xbcd3f75d	-0.025874788
21	0xbc8085d6	-0.015688818
22	0x3dae7771	0.085188754
23	0x3ba2e340	0.004970938
24	0x3db3907b	0.08767792
25	0x3c795eb8	0.015220337
26	0xbfa63e73	-1.2987808
27	0x3c5a25f0	0.013314709
28	0xbd3dd149	-0.046342168
29	0x3c1a8826	0.009431874
30	0xbd0791d4	-0.033098057
31	0x3e75e165	0.24011762
32	0xbd682554	-0.056676224
33	0xbc825d3f	-0.015913604
34	0x3c989910	0.018627673
35	0x3c9a4f10	0.018836528
36	0xbe861013	-0.2618414
37	0xbd1b0a96	-0.037851892
38	0xbd0bd79c	-0.034141168
39	0x3d15e4a2	0.036594994
40	0x3d2cebcc	0.04221706
41	0x3d522211	0.05130202
42	0x3d646612	0.055761404
43	0x3c838354	0.016053833
44	0x3d164580	0.036687374
45	0x3cdf2b78	0.027242407
46	0xbcfdca92	-0.030980382
47	0x3d2852ee	0.041094713
48	0x3d871497	0.06595724
49	0xbfa03f24	-1.2519269
50	0x3db3d476	0.08780758
51	0x3c951d8c	0.018202566
52	0x3d05ab48	0.03263405
53	0xbfab1027	-1.3364304
54	0x3bcc58a0	0.006236151
55	0x3cfbb504	0.030725963
56	0xbb6b6f30	-0.0035924427
57	0x3cc46414	0.023973502
58	0xbfa58c00	-1.293335
59	0xbd055db6	-0.032560073
60	0x3ccdc6d8	0.02511923
61	0x3c6de62e	0.014520211
62	0x3c80c82c	0.01572045
63	0xbb8cec30	-0.0043006167
64	0xbfaef0f4	-1.3667283
65	0x3cbb3e58	0.022856876
66	0x3d0986e4	0.033575907
67	0x3d8e0519	0.06934566
68	0x3ccee698	0.02525644
69	0x3d389320	0.045062184
70	0xbfafa50b	-1.3722242
71	0xbc98b83c	-0.018642537
72	0x3c576628	0.013146915
73	0xbd26a4ce	-0.040684514
74	0x3d67345a	0.05644641
75	0xbfa76a02	-1.3079226
76	0x3cc7a581	0.02437091
77	0x3d7dfe30	0.06200999
78	0x3d51eec8	0.05125311
79	0xbd3dd904	-0.04634954
80	0xbfac8218	-1.3477201
81	0x3da27967	0.07933312
82	0x3b5aaf48	0.0033368636
83	0x3b95e160	0.004573986
84	0x3cb7b6cb	0.02242603
85	0x3d179900	0.037011147
86	0x3cd8d804	0.026470192
87	0xbccf0974	-0.025273062
88	0x3e69f6f5	0.22848113
89	0x3d9ec206	0.07751851
90	0x3d00a154	0.031403854
91	0xbceb6248	-0.028733388
92	0x3d5df0cc	0.05418472
93	0x3af00f91	0.0018315186
94	0xbfa89bf6	-1.3172596
95	0x3d795db0	0.060880363
96	0xbfa616c3	-1.2975696
97	0xbfa362fc	-1.2764583
98	0xbcb7d4f4	-0.022440411
99	0xbbdb91b0	-0.006700717
100	0xbd421074	-0.047378972
101	0xbcf21898	-0.029552743
102	0x3d36152c	0.044453785
103	0x3d901390	0.07034981
104	0x3c0d9e30	0.008643672
105	0x3d4a7c28	0.04943481
106	0xbcaaa242	-0.020829324
107	0x3cabeebb	0.020987859
108	0xbcfe5362	-0.03104562
109	0xbd58f086	-0.052963756
110	0xbc8c74b0	-0.017145485
111	0x3c1b06b8	0.009462051
112	0x3a419e80	0.0007385984
113	0xbd5f38a2	-0.05449737
114	0x3d84ceb6	0.064847395
115	0xbd536667	-0.05161133
116	0xbd0c6bb9	-0.03428242
117	0x3d70ce4c	0.05879049
118	0x3d935c31	0.071953185
119	0x3cebe47b	0.028795471
120	0x3ac4d5c0	0.0015017316
121	0x3da0eaae	0.078572616
122	0xbbe82ed0	-0.0070856586
123	0x3d3f2002	0.046661384
124	0xbfa915c0	-1.3209763
125	0x3d805476	0.0626611
126	0x3c4d4e54	0.012530882
127	0x3ce9f88a	0.028560895
128	0xbd3e0cfe	-0.04639911
129	0xbc4a4354	-0.012345154
130	0x3d23cd18	0.039990515
131	0x3c5b9280	0.013401628
132	0xbb8d0e50	-0.0043046847
133	0x3d816322	0.06317736
134	0xbcb40e78	-0.021979555
135	0x3ccb57b3	0.024822092
136	0x3bb3d19c	0.005487634
137	0xbcb9f944	-0.022701867
138	0x3d396aec	0.045267984
139	0xbc0e6d3c	-0.008693036
140	0x3cf1311c	0.029442362
141	0x3d916e3d	0.071011044
142	0x3dbd11d4	0.09231916
143	0xbcfb2fa4	-0.030662365
144	0xbfa816b3	-1.3131927
145	0x3d116d8a	0.035504855
146	0x3d145ece	0.036223225
147	0x3d6596ac	0.056051895
148	0xbfa898bb	-1.317161
149	0x3d1aeb2a	0.037821926
150	0xbbbd1214	-0.0057699773
151	0x3d015804	0.03157808
152	0xbca68d48	-0.02033104
153	0xbb812424	-0.003941076
154	0x3d049e16	0.032377325
155	0x3d1a63f8	0.037692994
156	0xbd4776ed	-0.0486974
157	0x3d094786	0.033515476
158	0x3d67ca96	0.056589685
159	0x3d5d93ce	0.054096036
160	0x3d6f0532	0.058354564
161	0x3c4e6ad8	0.012598716
162	0x3c606dc8	0.013698049
163	0x3d1b8bea	0.03797523
164	0x3cfe215c	0.031021766
165	0x3e1efe7d	0.15526767
166	0x3c3e6fa8	0.011623301
167	0x3d9023ee	0.07038103
168	0x3d78b594	0.06072004
169	0x3c39f86c	0.011350732
170	0xbbafc77f	-0.005364358
171	0xbc1606f8	-0.009156935
172	0xbd1d499a	-0.03840027
173	0x3d838aa2	0.064229265
174	0x3c7a14a8	0.015263714
175	0xbd402d2c	-0.04691808
176	0xbfa5e4e9	-1.2960483
177	0xbd7d22b4	-0.061800674
178	0xbcddac85	-0.027059803
179	0xbcd0270c	-0.025409244
180	0xbc4fda04	-0.012686256
181	0x3d499bbe	0.049220793
182	0x3cd0dedc	0.025496893
183	0x3c9144d8	0.017733023
184	0x3b6b9c40	0.0035951287
185	0x3da53c90	0.08068192
186	0x3d6a164e	0.057150178
187	0x3d8d41ec	0.06897339
188	0xbca2ccbc	-0.019873016
189	0xbcae5960	-0.021282852
190	0xbd0cbccd	-0.034359742
191	0xbc9de070	-0.01927206
192	0xbc164196	-0.00917091
193	0x3cdf9f78	0.02729772
194	0x3ce37268	0.027764514
195	0x3daee8fc	0.08540532
196	0xbbbec0d4	-0.0058213267
197	0xbd04d4a4	-0.032429352
198	0x3bd1d0d0	0.006403066
199	0xbfac80ce	-1.3476808
200	0x3d60ab44	0.05485083
201	0x3d0f2470	0.03494686
202	0x3d6ece50	0.058302224
203	0x3dab12b9	0.083531804
204	0xbc8c4cca	-0.01712646
205	0xbcc87216	-0.024468463
206	0x3d7a05ac	0.061040565
207	0x3d01a1fa	0.031648614
208	0x3c327c58	0.010893904
209	0x3d1cca3a	0.038278796
210	0xbd77d7f5	-0.060508687
211	0xbb8bb2a7	-0.0042632404
212	0x3c700750	0.014650181
213	0xbe57d6ea	-0.21078077
214	0xbd3a5ae8	-0.04549685
215	0x3d985aba	0.0743918
216	0xbcbb1367	-0.0228364
217	0x3d79368a	0.060843028
218	0x3d292cf5	0.04130264
219	0xbcddb0a0	-0.02706176
220	0x3cd5a99e	0.026081856
221	0xbd500739	-0.050788138
222	0xbc9019a2	-0.017590348
223	0x3d6609ca	0.05616168
224	0xbca89b54	-0.020581879
225	0x3c4c9552	0.012486773
226	0xbb99c544	-0.0046927053
227	0x3cbb0af7	0.022832377
228	0xbbdb539c	-0.0066933166
229	0xbbfa6888	-0.0076418556
230	0x3ba1eb30	0.0049413666
231	0x3b813c50	0.0039439574
232	0xbb07e5e0	-0.0020736381
233	0x3c895724	0.016765185
234	0xb9c86971	-0.00038225533
235	0x3c85a3c8	0.016313449
236	0x3d993603	0.07481005
237	0x3ba75dd4	0.0051076207
238	0x3d9bf9a9	0.07615978
239	0x3c9c8372	0.019105647
240	0x3d9906ab	0.07471975
241	0x3c2964c0	0.010338962
242	0xbe98437f	-0.29738995
243	0xbcdcc1be	-0.026947852
244	0xbbc9a58c	-0.006153768
245	0xbd222004	-0.039581314
246	0x3d3b026c	0.045656607
247	0x3d0dc70e	0.03461366
248	0xbd35bc61	-0.044369105
249	0xbceaeae8	-0.028676465
250	0x3d36509d	0.044510473
251	0xbbc6f8c0	-0.006072134
252	0x3d74edc1	0.059797052
253	0xbc9787ef	-0.018497435
254	0x3c14fe30	0.009093806
255	0x3d36d6fa	0.04463861

bias f4 [256]
0	0xbfa56cab	-1.2923788
1	0xbe3fa92b	-0.18716876
2	0xbe1ac696	-0.15114817
3	0xbcb70dc8	-0.022345439
4	0xbe2a53fa	-0.16633597
5	0xbd22eafc	-0.03977488
6	0xbe689d92	-0.22716358
7	0xbe880c68	-0.26571965
8	0xbe355614	-0.17708617
9	0xbe35252c	-0.17689961
10	0xbe387424	-0.18013054
11	0xbe459059	-0.19293346
12	0xc00cedb1	-2.2020075
13	0x37e00000	2.670288e-05
14	0xbe622534	-0.22084504
15	0xbe77783d	-0.24166961
16	0xbdf45b42	-0.119314685
17	0xbdf4d71e	-0.11955093
18	0x3f0e8748	0.5567517
19	0xbdf6177a	-0.120161965
20	0xbfa1e46a	-1.2647831
21	0xbe0287fe	-0.1274719
22	0xbe50d042	-0.20391944
23	0xbe7fd3ae	-0.24983093
24	0xbe0e29e4	-0.13883168
25	0xbf358bed	-0.70916635
26	0xbe391ddb	-0.18077795
27	0xc21a1d05	-38.52834
28	0xbfaffde4	-1.3749356
29	0xbf820bfe	-1.015991
30	0xbe04c7fa	-0.1296691
31	0xc00a03f9	-2.1564925
32	0x3be9fa80	0.0071404576
33	0xbe1821df	-0.14856671
34	0xbd027bec	-0.031856462
35	0xbd060797	-0.032722082
36	0xc0002871	-2.0024683
37	0xbe278ade	-0.16361567
38	0xbe1c1467	-0.15242158
39	0xbd025798	-0.031821817
40	0xbed253a8	-0.4107945
41	0x3d54adb4	0.05192347
42	0xbfbd2965	-1.4778258
43	0xbe31f03b	-0.17376797
44	0x41fd5584	31.666756
45	0xbf03611c	-0.5132005
46	0xbafbeb00	-0.0019219816
47	0xbe114979	-0.14188184
48	0x3d746e1e	0.05967533
49	0xbe2acbcb	-0.16679303
50	0xbe95f01b	-0.29284748
51	0xbd7f8c8b	-0.06238989
52	0xbe633f4e	-0.22192118
53	0xbe372ed9	-0.17888965
54	0xbc232e24	-0.009959731
55	0xbf8437a8	-1.0329485
56	0x3d1418c8	0.036156446
57	0xbe492ee7	-0.19646798
58	0xbc667848	-0.014066763
59	0xbe3bb18d	-0.18329449
60	0xbe16605c	-0.14685196
61	0x3dba3d42	0.09093715
62	0xbc7c6fb5	-0.015407492
63	0xbe40884a	-0.1880199
64	0xbe39a0e8	-0.18127787
65	0xbf6498c9	-0.8929563
66	0xbe148c06	-0.1450654
67	0xbd7dc28a	-0.061953105
68	0xbfb91686	-1.4459999
69	0x3cfd6694	0.030932702
70	0xbe127cf7	-0.14305483
71	0xbe1a901e	-0.15094039
72	0xbe96b93f	-0.29438207
73	0xbf6a3e28	-0.9150109
74	0xbe781ac2	-0.24228957
75	0x3d0627b0	0.032752693
76	0xbe2602df	-0.16212033
77	0xbf4edd96	-0.80806863
78	0xbe316588	-0.17323887
79	0xbe35bbe7	-0.1774746
80	0xc024903b	-2.5713031
81	0xbe39ccb3	-0.18144493
82	0xbe6f8666	-0.23391113
83	0xbd7315e3	-0.059347045
84	0xbf8e8ef5	-1.1137377
85	0x3d395fb4	0.045257285
86	0xbe1aa6e9	-0.15102734
87	0xbe326290	-0.17420411
88	0x3d612010	0.054962218
89	0xbdf1e08b	-0.11810406
90	0xbfcae683	-1.5851597
91	0xc21fb96e	-39.931084
92	0xbe8948b4	-0.2681328
93	0xbf89acc1	-1.0755845
94	0xc024d776	-2.5756507
95	0xbe52c418	-0.20582616
96	0xbf4ac147	-0.7920117
97	0xbe6cde95	-0.23131783
98	0xbe412ba8	-0.1886431
99	0x3bdab890	0.0066748336
100	0xbe51ea70	-0.20499587
101	0xbe3f9d78	-0.18712413
102	0x3d3f994e	0.046777062
103	0x3c4436b0	0.011975929
104	0xbff90e18	-1.9457426
105	0xbe2a5522	-0.16634038
106	0xbe1165ff	-0.14199065
107	0xc00087a2	-2.0082784
108	0xbe31c0eb	-0.17358749
109	0xbf014ab9	-0.5050464
110	0xbe25e11f	-0.16199158
111	0xbd735cc6	-0.059414648
112	0xbd6b6bc6	-0.057475828
113	0xbf54c99b	-0.83120126
114	0xbe3d0de4	-0.1846233
115	0xbf7ae971	-0.98012453
116	0xbdc81700	-0.09770012
117	0xbf8ae90c	-1.085237
118	0xbe22f7d4	-0.15914851
119	0xbe308c47	-0.17241012
120	0xbe306226	-0.1722494
121	0xbe2cd25c	-0.1687712
122	0xbe1539b3	-0.14572792
123	0xbc9997b2	-0.018749092
124	0xbd9e6e2a	-0.07735856
125	0xbe05f99e	-0.13083503
126	0xbe076017	-0.13220249
127	0xbff1f3a0	-1.8902473
128	0xbe1ea836	-0.15493855
129	0xbe43521a	-0.19074288
130	0xc00387d4	-2.0551653
131	0xc245af6e	-49.421318
132	0x4185053b	16.627554
133	0xc034cf38	-2.8251476
134	0xbe2e0b1c	-0.16996425
135	0x3d6802d2	0.056643315
136	0x40e0c25e	7.0237265
137	0xbe5a2be8	-0.21305811
138	0xbf06e628	-0.5269494
139	0xbe4e3d28	-0.20140517
140	0x3c414730	0.011796758
141	0xc00335b4	-2.0501528
142	0xbe7367fa	-0.23770133
143	0xbc1f0c5c	-0.009707537
144	0xbe5e2d99	-0.21697082
145	0xbe39395e	-0.1808829
146	0xbfdbb174	-1.7163529
147	0xbd325ee8	-0.04354754
148	0xbd30afc8	-0.043136388
149	0x3fefe1aa	1.8740742
150	0x3d0e6226	0.03476157
151	0xc102eaec	-8.182354
152	0xbd70a996	-0.05875548
153	0xbff03545	-1.8766257
154	0xbe5f1181	-0.21784021
155	0xc22180d9	-40.375828
156	0xbe73e45e	-0.23817584
157	0xbe086d6f	-0.13322996
158	0xbe14639b	-0.14491121
159	0xbe25032f	-0.16114496
160	0xbe3a5005	-0.18194588
161	0xbe04c74a	-0.12966648
162	0xbe82b123	-0.2552577
163	0xbe134de2	-0.14385179
164	0xbe5c3645	-0.21505077
165	0xbe2ab419	-0.16670264
166	0xbfdb364d	-1.7125946
167	0xc000238e	-2.00217
168	0xbec6ee39	-0.38853624
169	0xbd31aba2	-0.043376572
170	0xbf5dd354	-0.86650586
171	0xbcea4176	-0.028595667
172	0xbc125ec8	-0.00893373
173	0xbdcfb859	-0.101425834
174	0xbfeed536	-1.8658817
175	0xbe590c29	-0.21196045
176	0x3d7dc11c	0.06195174
177	0xbe0515d3	-0.12996607
178	0xbff57314	-1.9175744
179	0xbe012239	-0.12610711
180	0xbe2ddfa2	-0.1697984
181	0xbece591b	-0.40302357
182	0xbe58c649	-0.2116939
183	0x3c83b7c0	0.01607883
184	0xbb994030	-0.004676841
185	0xbe2055b7	-0.15657698
186	0xbe405822	-0.1878362
187	0xbe779433	-0.24177627
188	0xbfab67b7	-1.3391026
189	0xbf529a61	-0.82266814
190	0xbff86c94	-1.9408135
191	0x3a3de280	0.0007243529
192	0xbdc60f38	-0.096708715
193	0xbc9712a8	-0.018441513
194	0xbe69154f	-0.22762035
195	0xbe0c77f8	-0.1371764
196	0xbfad8d28	-1.3558702
197	0xbe50dcc7	-0.2039672
198	0xbd69d57c	-0.05708836
199	0xc08f3bc5	-4.476046
200	0xc218a5b9	-38.16184
201	0xc05b3c58	-3.425558
202	0xbe196b39	-0.14982308
203	0xbe78668e	-0.24257872
204	0xbf74deaa	-0.9565226
205	0xbe571b71	-0.21006562
206	0xc03664c0	-2.8498993
207	0xbf86a92c	-1.0520377
208	0xbe548917	-0.2075542
209	0xbe1f05b8	-0.15529525
210	0xbf8c923c	-1.0982127
211	0xc016af25	-2.35444
212	0xbe05fd27	-0.13084851
213	0xbf7f0862	-0.99622166
214	0xbf5f31d4	-0.87185407
215	0xbe1a9da3	-0.15099196
216	0xbe0669af	-0.13126253
217	0xbe3ba2b2	-0.18323782
218	0xbfd41ecb	-1.6571897
219	0xbe6fa3d7	-0.23402344
220	0x3cdee684	0.027209528
221	0x3d0c88d2	0.03431017
222	0xbf58f34e	-0.84746253
223	0xbe394699	-0.18093337
224	0x3d122b60	0.035685897
225	0xbd412096	-0.047150217
226	0xbe053e59	-0.13012065
227	0xc005bf1a	-2.089789
228	0xbe53903c	-0.2066049
229	0xbf96202b	-1.1728567
230	0xc2768b50	-61.636047
231	0xc14afefb	-12.687251
232	0xbe2ef4ef	-0.17085622
233	0x3d1b9f84	0.037993923
234	0xbe030222	-0.12793782
235	0xbe74f6c5	-0.2392226
236	0xbdf846e1	-0.12122894
237	0xbe71b618	-0.2360462
238	0xbd23f5c0	-0.040029287
239	0xbe15784a	-0.14596668
240	0xbe410b3a	-0.18851939
241	0xbe02ac01	-0.12760927
242	0xbbd36970	-0.006451778
243	0xbea4d440	-0.32193184
244	0xbe16401f	-0.14672898
245	0xbc9101de	-0.017701086
246	0xbf954849	-1.1662685
247	0xc00af011	-2.1709025
248	0x3c257500	0.010098696
249	0xbe0a1efc	-0.13488382
250	0xbe3baa82	-0.18326762
251	0x3bbefb10	0.005828269
252	0x3ce94430	0.028474897
253	0xbe4e81ea	-0.20166746
254	0xbc13bad4	-0.009016711
255	0xc016dc48	-2.357195

weight f4 [3, 256]
0	0x3d4ad119	0.049515817
1	0x3dd68694	0.104748875
2	0x3e26d834	0.16293412
3	0x3b21ff20	0.0024718717
4	0x3e411b4f	0.18858074
5	0xbd0b944a	-0.034076966
6	0x3e2777e2	0.16354325
7	0x3c55062e	0.013001962
8	0xbe29256e	-0.16518185
9	0x3e29ffdc	0.16601509
10	0x3e497446	0.19673261
11	0x3e305bdd	0.17222543
12	0x3e7bd9be	0.24594781
13	0x3d6e1572	0.05812592
14	0x3e100052	0.14062622
15	0x3dfc4b04	0.123189956
16	0x3e29dad1	0.16587378
17	0x3e2eaa82	0.17057231
18	0xbd76b37a	-0.060229756
19	0x3e26d9ff	0.16294096
20	0x3bd432b4	0.006475771
21	0x3e15baee	0.1462209
22	0x3e119961	0.14218666
23	0xbc81a315	-0.015824834
24	0x3e00dbf7	0.1258391
25	0x3d8e99ca	0.06962927
26	0x3e2534c1	0.16133405
27	0x3d328b99	0.043590162
28	0x3df0fc58	0.11766881
29	0x3d8fa773	0.0701436
30	0x3e05b25d	0.13056321
31	0x3e778729	0.24172653
32	0x3cfa0bb0	0.030523151
33	0xbdb625ed	-0.088939525
34	0xbd514b47	-0.05109718
35	0xbc3fe3c8	-0.011712022
36	0x3e837809	0.25677517
37	0x3e15fe0e	0.14647695
38	0x3e1b924f	0.15192531
39	0x3d69b598	0.057057947
40	0x3c763ce0	0.015029162
41	0x3ce28d60	0.027655303
42	0x3cf5de5b	0.030013254
43	0xbe1e852b	-0.15480487
44	0xbe1e559a	-0.15462342
45	0xbc8ea0ae	-0.017410602
46	0xbb0813b0	-0.0020763688
47	0xbe0dd69f	-0.13851403
48	0x3d40483a	0.04694388
49	0x3e6d9c62	0.23204187
50	0x3cbfb8f1	0.023403617
51	0x3bfec910	0.0077754334
52	0x3e068963	0.13138346
53	0x3e013107	0.12616359
54	0xbbe841b0	-0.0070879087
55	0x3db2a7db	0.08723422
56	0xbce3ec0a	-0.027822513
57	0x3e138478	0.14406002
58	0x3c144058	0.009048544
59	0x3dc3a5df	0.09553122
60	0x3e258c10	0.16166711
61	0xbc8333e7	-0.01601596
62	0xbe202d55	-0.15642293
63	0x3d5d4602	0.054021843
64	0xbbbc4c38	-0.0057463907
65	0x3d507add	0.05089842
66	0x3e10fb84	0.14158446
67	0x3d3496ec	0.044089243
68	0xbd90a5c3	-0.070628665
69	0xbc1b59b4	-0.009481836
70	0x3e22b40a	0.15888992
71	0x3e00e151	0.12585951
72	0x3d015f1f	0.031584855
73	0x3cf549d1	0.029942425
74	0x3e3a5bd8	0.18199098
75	0x3ce71afc	0.02821111
76	0x3e28a120	0.16467714
77	0x3cd66fa1	0.026176276
78	0x3e2b782b	0.16745059
79	0x3e0dcb03	0.13846974
80	0x3e6b75f7	0.22994219
81	0x3e1ddaf4	0.15415555
82	0x3e067d90	0.13133836
83	0x3d44f5e8	0.048086077
84	0x3dacdb94	0.08440319
85	0xbd2f2f92	-0.042769976
86	0x3e21da45	0.1580592
87	0x3e0fd1ef	0.14044927
88	0xbc9376ae	-0.018000927
89	0x3e089d47	0.13341247
90	0x3e8b5900	0.2721634
91	0x3c36ceaa	0.011157671
92	0xbd9819b7	-0.0742678
93	0x3d818ced	0.063257076
94	0x3cb8cd7a	0.022558916
95	0x3e2dfc35	0.1699074
96	0x3d4bfc22	0.049801
97	0x3e296a2e	0.1654441
98	0xbe2ce7cc	-0.16885298
99	0x3d4c3f7c	0.04986523
100	0x3e2f6fe6	0.1713253
101	0x3e11150d	0.14168186
102	0x3d641b12	0.05568988
103	0x3c8c2258	0.01710622
104	0x3e84a635	0.25908056
105	0xbdf07bed	-0.11742387
106	0x3de7ca8a	0.11317928
107	0x3e8aae94	0.27086318
108	0xbe22b0f2	-0.15887812
109	0x3d0e102a	0.034683384
110	0x3e0ff4a7	0.14058171
111	0xbd7fa94c	-0.062417313
112	0xbd6254c5	-0.055256624
113	0x3db07d5e	0.08617662
114	0x3e2e561b	0.17025034
115	0x3d0e4d6a	0.034741797
116	0x3e109909	0.14120878
117	0xbd818b56	-0.06325404
118	0x3daec41d	0.085334994
119	0x3e2598c1	0.16171552
120	0xbe20f335	-0.15717776
121	0x3e102c64	0.14079434
122	0x3e0a68a8	0.13516486
123	0xbc36f148	-0.011165924
124	0xbcf48bf4	-0.029851891
125	0x3e047c0f	0.1293795
126	0x3e0c0447	0.13673507
127	0x3e89c384	0.2690698
128	0x3e099bb5	0.13438304
129	0x3dfae268	0.12250215
130	0x3e7562bc	0.23963445
131	0xbdbbfc51	-0.09178985
132	0xbc804681	-0.015658619
133	0xbe096f1d	-0.13421293
134	0x3e1157d0	0.14193654
135	0xbd7f7a9c	-0.06237279
136	0x3c53dbd9	0.012930834
137	0x3e0332e7	0.12812386
138	0x3e14ba0e	0.14524099
139	0x3e0fec8d	0.1405508
140	0xbceab3ae	-0.028650131
141	0x3e6b7abd	0.2299604
142	0x3e1d218f	0.15344833
143	0x3d25ff42	0.040526636
144	0x3e251137	0.16119848
145	0xbe3fd7e0	-0.18734694
146	0x3d21c24c	0.039491937
147	0xbb40fdf0	-0.0029448234
148	0x3d7daf96	0.06193503
149	0xbce54ead	-0.027991617
150	0x3b204e40	0.0024460703
151	0xbe0852c9	-0.1331283
152	0x3d670188	0.056397945
153	0x3e87fa21	0.2655802
154	0xbe1500f3	-0.14551143
155	0xbdd5be68	-0.10436708
156	0x3e0071d7	0.12543426
157	0xbdedb265	-0.11606292
158	0x3df384e9	0.11890585
159	0x3e16f4f7	0.14741884
160	0x3ded8795	0.11598126
161	0xbe56ff9e	-0.20995948
162	0x3d8b2a27	0.06795149
163	0x3e24577b	0.16048996
164	0x3e1ad2e6	0.15119514
165	0x3e0e4340	0.13892841
166	0x3e81566b	0.25261244
167	0x3e7fcb34	0.2497986
168	0xbd9a23a2	-0.07526328
169	0x3b47a6e0	0.0030464455
170	0x3d8aa75f	0.06770205
171	0x3d3e3d30	0.04644507
172	0xbb09a6f0	-0.0021004044
173	0xbdf9f1d0	-0.12204325
174	0x3dafaf3b	0.085783444
175	0x3e27ab98	0.16374052
176	0xbd3576a2	-0.04430259
177	0x3df7851b	0.12085935
178	0x3e74907c	0.23883241
179	0x3e457f74	0.19286901
180	0x3e09a7f9	0.13442983
181	0xbbbd9aff	-0.0057862992
182	0x3e0916bb	0.13387577
183	0x3cb96ba0	0.022634327
184	0x3c1d43a8	0.00959865
185	0x3e03d7de	0.12875316
186	0x3d722d52	0.059125252
187	0x3e19f3c9	0.15034403
188	0x3d5a0a02	0.0532322
189	0x3d2ac6a0	0.04169333
190	0x3e842e7d	0.25816718
191	0x3c459458	0.012059294
192	0x3e13bdbe	0.1442785
193	0xbc1ca67c	-0.009561177
194	0x3e019636	0.12654957
195	0x3df3c51e	0.119028315
196	0xbdd688da	-0.10475321
197	0x3de43e3f	0.11144685
198	0x3bd16ea0	0.0063913614
199	0x3d4a7c54	0.049434975
200	0x3e6f0f5f	0.23345707
201	0x3d97d72e	0.07414089
202	0x3e0c386c	0.13693398
203	0xbdbd43e8	-0.09241468
204	0x3db4011a	0.087892726
205	0x3e04e70d	0.12978764
206	0x3e58dc0c	0.21177691
207	0x3d215bd4	0.039394215
208	0x3de62772	0.11237992
209	0xbe0ff776	-0.14059243
210	0x3dadad1d	0.08480284
211	0x3e7e2938	0.24820411
212	0xbe411335	-0.18854983
213	0x3d9fa703	0.07795527
214	0x3ddf0c64	0.10891035
215	0x3e0e0ba1	0.13871624
216	0xbe3f8904	-0.18704611
217	0x3e1ae78f	0.15127395
218	0x3d174787	0.03693345
219	0x3dfd7aa2	0.12376906
220	0xbcbb4b76	-0.022863131
221	0x3d727633	0.059194755
222	0x3d1817b6	0.037131988
223	0x3e01ec5f	0.12687825
224	0xbad4f320	-0.0016246773
225	0x3d42b14f	0.047532376
226	0xbe03ce0d	-0.12871571
227	0x3e7f5087	0.24933062
228	0x3e1bb0b3	0.15204124
229	0x3d107c84	0.035274997
230	0x3d17a160	0.037019134
231	0xbe11cc81	-0.14238168
232	0x3e057c7b	0.13035767
233	0xbd45e345	-0.048312444
234	0x3e22b6d4	0.15890056
235	0x3df806f0	0.12110698
236	0x3e332c17	0.17497288
237	0x3e2923a9	0.1651751
238	0xbc41dfe0	-0.011833161
239	0x3e1b0c2f	0.15141366
240	0x3e3458f0	0.17612052
241	0x3e0a26ed	0.13491412
242	0xbcaeddd8	-0.021346018
243	0xbd92811d	-0.07153533
244	0x3e23262d	0.15932532
245	0xbc67353c	-0.014111813
246	0x3d6039e8	0.054742724
247	0x3e6cf1e8	0.23139155
248	0xbcf950fc	-0.030434124
249	0x3e237199	0.15961303
250	0x3df53b91	0.11974252
251	0x3d1ef790	0.038810313
252	0x3cf9de24	0.030501433
253	0x3e134407	0.14381419
254	0xbd1db539	-0.038502906
255	0x3e753627	0.23946439

bias f4 [3]
0	0x365a9733	3.257254e-06
1	0x46363eef	11663.733
2	0x35ad83a3	1.2927816e-06
