TargetApproach/model.pth (torch, 274292 bytes, 6 tensors)

weight f4 [256, 3]
0	0xbef11e7e	-0.47093576
1	0xbed5a7d7	-0.41729614
2	0xbec3e02f	-0.38256976
3	0x3ee03b68	0.43795323
4	0xbe0c0439	-0.13673486
5	0x3ebe990a	0.37226135
6	0xbfe2b102	-1.7710268
7	0xbe289061	-0.16461326
8	0xbfc54a21	-1.5413247
9	0x3f0b9eb8	0.5453906
10	0xbeabfce5	-0.3359138
11	0x3e52213d	0.20520492
12	0xbfdad52e	-1.7096307
13	0xbe2bab6b	-0.1676461
14	0xbf830256	-1.0235088
15	0x3f8c65cf	1.096857
16	0xbdedcc0f	-0.11611187
17	0x3f92fbe2	1.1483119
18	0xbea28753	-0.3174387
19	0xbecb0dd7	-0.39658996
20	0x3e743ba0	0.2385087
21	0xbfe9f2e3	-1.8277248
22	0xbdef0541	-0.11670924
23	0xbfef5ecd	-1.8700806
24	0x3eaf32c3	0.34218416
25	0xbc330c8f	-0.010928287
26	0x3e84e2ee	0.25954384
27	0xbf833b97	-1.025256
28	0xbe308303	-0.17237477
29	0xbfb4494b	-1.4084867
30	0xbf09d6d8	-0.5384345
31	0xbee7a4dc	-0.45242965
32	0xbec013b6	-0.37515038
33	0xbfcdc605	-1.6076056
34	0xbe43021f	-0.19043778
35	0xbfc5a848	-1.544198
36	0x3e5e6ed0	0.21721959
37	0xb9975b21	-0.0002886886
38	0x3ec21dd6	0.37913388
39	0xbe8c62f6	-0.2741925
40	0xbbf76ccf	-0.007550813
41	0xbec32669	-0.38115242
42	0xbf8bea6b	-1.0930914
43	0xbc3b0020	-0.011413604
44	0xbfd65090	-1.6743336
45	0xbea34033	-0.31884918
46	0xbdcfafa7	-0.10140925
47	0xbf14b099	-0.58081967
48	0xbfe7c86b	-1.8108038
49	0xbe30b467	-0.17256318
50	0xbfaf45c2	-1.3693163
51	0x3efd6fdd	0.49499407
52	0xbf1241b3	-0.571315
53	0x3efac738	0.48980117
54	0x3eb70e3b	0.35753044
55	0xbdd2f8f8	-0.10301393
56	0x3f09298f	0.5357904
57	0x3ed1ebd8	0.41000247
58	0xbc5397b9	-0.0129145915
59	0x3e297b50	0.16550946
60	0x3e229427	0.15876828
61	0xbf01a213	-0.5063793
62	0xbe872cd3	-0.26401386
63	0x3d326f29	0.04356304
64	0xbe530e1b	-0.2061085
65	0x3ecac8c4	0.39606297
66	0xbfc405b4	-1.531424
67	0xbe0cc187	-0.137457
68	0xbfac962b	-1.3483328
69	0xbfa70252	-1.3047583
70	0xbe294b41	-0.16532613
71	0xbf65c8f3	-0.8975975
72	0xbf9f37ac	-1.2438865
73	0xbc570e88	-0.013126023
74	0xbfcbdd32	-1.5926878
75	0xbf813ec6	-1.0097282
76	0xbe2b1168	-0.16705859
77	0xbf4f3d97	-0.80953354
78	0xbeebcddb	-0.46055493
79	0xbeefb4d6	-0.46817654
80	0x3e8d7778	0.2763021
81	0xbee710e8	-0.45130086
82	0xbf071044	-0.52759194
83	0x3e65be18	0.22435796
84	0xbf0b6483	-0.54450244
85	0xbec9a425	-0.39383045
86	0x3eeb5c28	0.45968747
87	0x3d22f300	0.039782524
88	0xbdab50e6	-0.083650395
89	0x3e0545b8	0.13014877
90	0x3e9adc4a	0.30246192
91	0xbe8b5136	-0.27210397
92	0xbe678890	-0.22610688
93	0xbe132f65	-0.14373548
94	0xbf058d2d	-0.5216854
95	0xbe3b4ce0	-0.18291044
96	0x3ea1ce08	0.31602502
97	0xbe81d2bb	-0.25356087
98	0xbed362fc	-0.41286457
99	0xbea3bb39	-0.31978777
100	0xbdd33d02	-0.10314371
101	0xbe0ac5c5	-0.13552006
102	0xbc85cfa2	-0.016334359
103	0xbe0c5d2c	-0.13707417
104	0xbef55ac5	-0.47920814
105	0xbf060b9b	-0.5236146
106	0xbf0b418a	-0.5439688
107	0x3ed84ed8	0.42247653
108	0x3e6617e3	0.2247005
109	0xbe1d609e	-0.15368888
110	0x3e8e57bc	0.2780131
111	0xbfea48d5	-1.8303477
112	0xbe338a63	-0.17533259
113	0xbfe008ab	-1.7502645
114	0xbef4aa5b	-0.4778622
115	0xbf0cf06f	-0.5505437
116	0x3e4bc518	0.19899404
117	0x3defcc76	0.1170892
118	0xbdfd1804	-0.12358096
119	0xbe478f68	-0.19488299
120	0xbfa64dc0	-1.2992477
121	0xbe22a27c	-0.15882295
122	0xbfebf4c8	-1.8434076
123	0x3da7e40c	0.08197793
124	0xbe7c6b61	-0.24650337
125	0x3f0fd40f	0.5618295
126	0x3e8954d8	0.26822543
127	0xbea23c4e	-0.31686634
128	0xbe36191e	-0.17783019
129	0xbfd3a12f	-1.6533564
130	0xbe485710	-0.19564462
131	0xbfcedbb7	-1.6160802
132	0x3f3c37d8	0.7352271
133	0xbe19b6e3	-0.15011172
134	0x3e182bf8	0.14860523
135	0xbd3d7016	-0.04624947
136	0xbee965fa	-0.45585614
137	0xbe965a47	-0.2936575
138	0xbe79a496	-0.24379191
139	0xbe03768d	-0.12838192
140	0xbddc827a	-0.10767074
141	0xbdc5bbab	-0.096549354
142	0xbe119f1c	-0.14220852
143	0x3ee69a25	0.45039478
144	0x3dd76769	0.10517771
145	0xbe0786da	-0.13235036
146	0x3dba2ac9	0.09090192
147	0xbedbb0e5	-0.42908397
148	0xbe94a306	-0.29030627
149	0x3eb7aa27	0.35872003
150	0xbe1b7fa4	-0.1518541
151	0xbea31d43	-0.31858262
152	0x3dd7304f	0.10507261
153	0xbebb6017	-0.36596748
154	0xbe8dd2be	-0.27699846
155	0xba915fff	-0.0011091231
156	0x3caccf5e	0.021094974
157	0xbdf21901	-0.11821175
158	0x3e1c7cf8	0.15282047
159	0xbef1d34e	-0.47231525
160	0xbeb575e4	-0.35441506
161	0x3ebab97d	0.3646964
162	0x3e87a914	0.26496184
163	0xbd3de836	-0.04636403
164	0x3f148b07	0.5802464
165	0xbe213a70	-0.15744948
166	0xbd919e5a	-0.07110281
167	0x3e997bf8	0.29977393
168	0xbe9905e3	-0.29887304
169	0xbeffdcdb	-0.49973187
170	0x3f053cca	0.5204588
171	0xbed17995	-0.40913072
172	0xbe2aac3f	-0.16667269
173	0xbd807db1	-0.06273974
174	0xbfb1fb18	-1.3904753
175	0xbddd8f72	-0.10818376
176	0xbf885651	-1.0651342
177	0x3d5fb843	0.054619085
178	0xbe205a05	-0.1565934
179	0x3f1ae64f	0.60507673
180	0x3f024693	0.5088894
181	0xbde269be	-0.11055325
182	0xbdb8cf79	-0.09023947
183	0x3e6ab472	0.22920397
184	0xbf0e071f	-0.55479616
185	0xbf05a645	-0.5220683
186	0xbfd2cd16	-1.6468837
187	0xbe2dbb5f	-0.16966008
188	0xbfd0fddf	-1.6327475
189	0xbf886b29	-1.0657703
190	0xbdec20e6	-0.115297124
191	0xbf26d8b2	-0.651744
192	0xbd9d06dc	-0.07667324
193	0xbeb2ee85	-0.349476
194	0x3eab85c0	0.3350048
195	0xbef1e9ef	-0.4724879
196	0xbeb51c85	-0.3537332
197	0x3ea0e274	0.3142277
198	0xbef60cb5	-0.4805657
199	0xbe8a664f	-0.2703118
200	0x3f00edae	0.5036267
201	0x3e8c23da	0.27371103
202	0xbe8d7908	-0.27631402
203	0x3ef719ab	0.4826177
204	0xc004d016	-2.0752006
205	0xbd8b9a15	-0.06816498
206	0xbffadbc8	-1.9598322
207	0x3e52b16f	0.20575498
208	0xbf0942dc	-0.53617644
209	0x3e76e4b3	0.2411068
210	0x3f0e3ca6	0.5556129
211	0xbe24e269	-0.16101994
212	0x3f910de2	1.1332362
213	0xbf3f3a36	-0.746982
214	0xbcc82d68	-0.024435714
215	0xbf2acc03	-0.6671755
216	0x3eef8c99	0.46786955
217	0xbe1059bb	-0.1409673
218	0x3e85de50	0.26146173
219	0xbfc8cf67	-1.5688294
220	0xbd36d097	-0.04463252
221	0xbfbd6e34	-1.4799256
222	0x3e4ce441	0.20008947
223	0xbea3c357	-0.3198497
224	0x3d09b686	0.033621334
225	0xbecb1cf7	-0.39670536
226	0xbe8646b1	-0.26225808
227	0x3ef32f5b	0.47497067
228	0xbfa40f9e	-1.2817266
229	0xbe2c39c6	-0.16818914
230	0xbf52bbeb	-0.8231799
231	0x3f11fd47	0.57027096
232	0xbcda546a	-0.02665158
233	0x3e63705e	0.22210833
234	0xbf06ce41	-0.5265847
235	0xbe37f8fd	-0.17966075
236	0x3e9a3897	0.301213
237	0xbf86e12d	-1.0537468
238	0xbdb0bf9a	-0.08630295
239	0xbfd19d1d	-1.6376072
240	0x3e38ced7	0.18047653
241	0xbecb619c	-0.39722908
242	0x3ee75f24	0.45189774
243	0xbe9cdba6	-0.30636328
244	0xbe6178d4	-0.22018749
245	0x3eef0a06	0.46687335
246	0x3f0567e3	0.52111644
247	0xbe1a9d06	-0.15098962
248	0x3e7ca819	0.24673499
249	0xbfcf827d	-1.6211697
250	0xbdce9990	-0.100878835
251	0xbfb77ef6	-1.433562
252	0xbee75bc1	-0.4518719
253	0xbee91e0d	-0.4553074
254	0xbc307a3c	-0.01077133
255	0xbfae5fbf	-1.3622969

bias f4 [256]
0	0x3e64c590	0.22340989
1	0x3f71b906	0.9442295
2	0xbfa2ba7d	-1.2713162
3	0x3e571fe4	0.21008259
4	0xbfd4dda1	-1.6630136
5	0x3f9fb0e3	1.2475857
6	0xbf04f9c9	-0.5194364
7	0xbfa184a4	-1.2618604
8	0xbd8818cc	-0.06645355
9	0xbfd6fbe8	-1.6795626
10	0xbebb0339	-0.36525896
11	0xbf9c0620	-1.2189369
12	0x3e2bf633	0.16793136
13	0x3dda5e0c	0.10662469
14	0xbfadf177	-1.3589314
15	0xbdad55a5	-0.08463601
16	0xbfa844ee	-1.3146036
17	0x3d251044	0.040298715
18	0xbe6472c2	-0.22309402
19	0xbd88cb17	-0.06679361
20	0xbecff62c	-0.40617502
21	0x3ec7e703	0.39043435
22	0xbfcfb6cc	-1.622766
23	0xbf821765	-1.016339
24	0xbf457eda	-0.77146685
25	0xbf9750ca	-1.182153
26	0x3e76f9ef	0.2411878
27	0x3f00c44c	0.50299525
28	0xbf118121	-0.5683766
29	0xbdc7cfea	-0.09756453
30	0x3edefc71	0.43551973
31	0xbe604c86	-0.21904191
32	0xbe863dd9	-0.2621906
33	0x3ee423ea	0.4455865
34	0x3f0bfa5d	0.546789
35	0x3ee8c522	0.454629
36	0xbe467520	-0.19380617
37	0xbf962c91	-1.173235
38	0xbedfb6bb	-0.436941
39	0xbc398d34	-0.011325169
40	0xc0009149	-2.0088675
41	0xbed9d637	-0.42546245
42	0x3da36cd2	0.0797974
43	0xbfbc5d14	-1.4715905
44	0x3f4bfe75	0.79685146
45	0xbe7875a4	-0.24263626
46	0x3de2d2d2	0.11075367
47	0x3f451d59	0.76997906
48	0x3e31eaed	0.17374773
49	0xbe49c4e0	-0.19704008
50	0xbe9fcdc2	-0.31211668
51	0x3e97531f	0.29555604
52	0x3f01573e	0.50523746
53	0x3e7a625d	0.24451585
54	0xbcfc8970	-0.030827254
55	0xbf0f93ba	-0.5608479
56	0xba6b3bf1	-0.00089734705
57	0xbf1d2a7d	-0.61392957
58	0xbfdae727	-1.7101792
59	0x3ea47a11	0.3212438
60	0xbe99bbd0	-0.30026102
61	0xbe0fb808	-0.14035046
62	0xbfcfa113	-1.6221031
63	0xbf2616c2	-0.64878476
64	0xbde53269	-0.111912556
65	0x3ef6a51e	0.4817285
66	0xbec7b6ca	-0.39006644
67	0x3e8957c8	0.26824784
68	0xbff8d12a	-1.9438832
69	0xbec721e6	-0.3889305
70	0x3e91d0e8	0.28479695
71	0xbfc1ec01	-1.5150148
72	0x3ed09063	0.40735158
73	0xbf7bebdb	-0.9840676
74	0x3f0f71ed	0.5603321
75	0xbed02732	-0.40654904
76	0xbf9363a2	-1.151478
77	0xbe56909e	-0.20953605
78	0x3c82e4b0	0.015978187
79	0xbfa9ba24	-1.3259931
80	0xbef8fa07	-0.48628256
81	0xbe30f335	-0.17280276
82	0x3ecb49f7	0.39704868
83	0xbfdf7415	-1.74573
84	0x3e9c3eb5	0.30516592
85	0xbf87e7bb	-1.0617594
86	0xbec0b7f7	-0.37640354
87	0xbf743b74	-0.9540322
88	0x3ec7913f	0.38978
89	0x3de8acb8	0.113610685
90	0xbf9cd293	-1.2251762
91	0xbe6c61d5	-0.23084195
92	0xbf9c2ac2	-1.2200549
93	0xbf514610	-0.8174753
94	0xbf0d38bc	-0.55164695
95	0x3e931946	0.2873022
96	0xbfc1fb90	-1.5154896
97	0xbf96505e	-1.1743276
98	0xbad0e107	-0.0015936204
99	0x3e8eec28	0.27914548
100	0xbf477f34	-0.7792847
101	0xbf80c908	-1.006135
102	0x3e5a5bc1	0.21324064
103	0x3f0c7ede	0.54881084
104	0x3ee0d2e7	0.43910906
105	0x3f648a19	0.8927322
106	0xbd3959db	-0.04525171
107	0xbec06781	-0.37578967
108	0xbe54551a	-0.20735589
109	0xbfa66059	-1.2998153
110	0xbfc8f6ad	-1.570028
111	0x3f005025	0.5012229
112	0x3e77f4d4	0.24214488
113	0x3f123cd9	0.57124096
114	0xbf82cbed	-1.0218483
115	0xbe770b78	-0.24125469
116	0xbf099b5d	-0.5375269
117	0xbcea3225	-0.028588364
118	0xbef48a5b	-0.47761807
119	0x3e8fad92	0.2806211
120	0xbfc53806	-1.5407722
121	0xbf898a11	-1.074526
122	0xbdbfceeb	-0.09365638
123	0xbf5e229a	-0.8677155
124	0x3ec1d3ce	0.37856907
125	0xbf4675f5	-0.7752374
126	0xbc07ba3d	-0.008284149
127	0xbff38fd1	-1.9028264
128	0xbf83c567	-1.0294617
129	0x3ec445d2	0.3833452
130	0x3ea853d1	0.32876447
131	0x3f114cc4	0.5675776
132	0xbfc01a2e	-1.500799
133	0x3dffed90	0.12496483
134	0x3f2949bc	0.66128135
135	0xbf266f1a	-0.6501328
136	0x3ef2e018	0.47436595
137	0xbe154867	-0.145784
138	0xbfcd58d4	-1.6042733
139	0x3f0dbb56	0.55363977
140	0x3f00e1ce	0.5034455
141	0xbf56da76	-0.83927095
142	0xbf81d177	-1.0142049
143	0xbf9ab427	-1.2086228
144	0x3db08360	0.08618808
145	0x3d30963d	0.04311203
146	0xbfa7ba55	-1.3103739
147	0x3eec0385	0.46096435
148	0x3ee16086	0.44018954
149	0xbf2e82bb	-0.6816823
150	0xbf125e9c	-0.5717561
151	0x3f7e7102	0.99391186
152	0x3eb8157a	0.35953885
153	0xbfd2cbe3	-1.6468471
154	0x3e2c49f8	0.16825092
155	0xbfc9ecad	-1.5775353
156	0x3e0ae30d	0.13563175
157	0xbff12246	-1.8838584
158	0xbef28010	-0.4736333
159	0xbfd7dcee	-1.6864297
160	0xbfd4e7e6	-1.663327
161	0xbe93c526	-0.2886135
162	0xbe9f3108	-0.31092095
163	0x3d351eed	0.044218946
164	0xbe83a42c	-0.2571119
165	0xbfc8fc28	-1.5701952
166	0xbfc87c12	-1.5662863
167	0x3cae9fcc	0.021316431
168	0x3e394de0	0.18096113
169	0x3f3436c6	0.7039608
170	0xbe59c5b8	-0.2126683
171	0xbe3a7c61	-0.1821151
172	0xbdfb93e4	-0.12284067
173	0xbcaf28eb	-0.021381816
174	0x3ed5506d	0.41662923
175	0x3e8d6556	0.27616376
176	0x3e2a5fc3	0.16638093
177	0xbf0bae22	-0.5456258
178	0xbffdca5c	-1.982738
179	0xbf9cf67d	-1.2262722
180	0xbf491226	-0.7854332
181	0xbf08145d	-0.5315607
182	0x3f80ddcc	1.0067687
183	0xc0081718	-2.1264095
184	0xbf1316ba	-0.57456553
185	0xbf85297f	-1.0403289
186	0xbfbdaefe	-1.4819028
187	0xbfe2c76a	-1.7717106
188	0xbd269685	-0.04067089
189	0xbfb8243c	-1.4386058
190	0xbfb004e9	-1.3751498
191	0x3d7a6721	0.061133508
192	0xbfbde670	-1.4835949
193	0xbe6e4e74	-0.23272115
194	0xbed54a01	-0.41658023
195	0x3ea8e725	0.3298885
196	0x3e8569d0	0.2605729
197	0x3dffeb71	0.12496079
198	0xbe80ccf7	-0.25156376
199	0x3cb01f97	0.021499438
200	0x3f0bf542	0.5467111
201	0xbfcfc0dd	-1.6230732
202	0x3ec32aac	0.38118494
203	0xbe8268ce	-0.25470585
204	0xbfc5edf9	-1.5463248
205	0xbf4515d8	-0.76986456
206	0xbfc3779d	-1.5270878
207	0xbd0732c4	-0.0330074
208	0xbde3c075	-0.11120693
209	0x3f01fb88	0.5077443
210	0xbf927afa	-1.144378
211	0x3e833d49	0.25632694
212	0x3eb5f6b2	0.35539776
213	0xbfc0c553	-1.5060219
214	0xbfb29514	-1.3951745
215	0xbfe8c0fd	-1.8183895
216	0x3e315bf6	0.17320237
217	0x3db83490	0.089944005
218	0xbe935f5b	-0.28783688
219	0x3f202204	0.62551904
220	0x3cc920f6	0.02455185
221	0xbee2c723	-0.44292554
222	0xbfb6ce51	-1.4281713
223	0xbfe18dcf	-1.7621402
224	0xbf515e9b	-0.8178498
225	0xbec350fb	-0.3814772
226	0xbcc4ccac	-0.024023376
227	0x3dafd59c	0.08585665
228	0xbfad3f13	-1.3534874
229	0x3b7629c8	0.0037561525
230	0xbc429f2a	-0.011878768
231	0x3f0aabb8	0.5416827
232	0x3f3d3122	0.73903096
233	0x3bdd9e7a	0.0067632766
234	0xbf911d09	-1.1336986
235	0xbf7cc40e	-0.98736656
236	0xbf9a2f5c	-1.2045703
237	0xc00040dd	-2.003959
238	0xbfd0be1f	-1.630802
239	0x3eb6d20a	0.35707122
240	0xbfb867dd	-1.4406697
241	0xbf2df26f	-0.6794805
242	0xbce9942b	-0.028513035
243	0x3ee789d2	0.45222336
244	0xbf7bd3f9	-0.9837032
245	0xbec3d2f6	-0.38246888
246	0x3ee8d69b	0.4547623
247	0xbfd3691d	-1.6516453
248	0x3f13a6a1	0.5767613
249	0xbe217924	-0.15768868
250	0xbd69b3bd	-0.057056177
251	0x3d83588e	0.06413375
252	0xbf608028	-0.8769555
253	0xbe30672a	-0.17226854
254	0xbe5c053a	-0.21486369
255	0xbf567683	-0.83774585

weight f4 [256, 256]
0	0xbd7e600c	-0.062103316
1	0xbf00c10a	-0.50294554
2	0xbcf028e1	-0.029316368
3	0xbd127968	-0.035760313
4	0xbbbe590f	-0.0058089565
5	0xbf13941d	-0.5764788
6	0x3cbdc450	0.023164898
7	0xbc11334e	-0.00886233
8	0xbcaf68e4	-0.02141232
9	0x3d4dead0	0.050272763
10	0xbcce7c92	-0.025205884
11	0x3d9aec59	0.07564611
12	0xbd7911ac	-0.06080787
13	0x3d5266d4	0.051367596
14	0x3d8bcc9b	0.06826135
15	0xbf06ac46	-0.5260662
16	0xbb8d7f34	-0.0043181423
17	0x3c876234	0.01652632
18	0xbd1c6902	-0.03818608
19	0xbd3416f3	-0.0439672
20	0x3d66d5a8	0.056356102
21	0xbcd49dd6	-0.025954168
22	0x3d9662dd	0.073430754
23	0x3d47b74c	0.04875879
24	0xbbf83594	-0.0075747464
25	0xbf167ed5	-0.5878728
26	0x3cce5b98	0.02519016
27	0xbd0d01da	-0.034425594
28	0xbcf97220	-0.030449927
29	0xbd1775e4	-0.036977664
30	0xbd674b15	-0.05646809
31	0x3d3887de	0.045051448
32	0x3d43e55e	0.047826163
33	0x3cd718bc	0.026256911
34	0x3d1f59d4	0.038904026
35	0x3d5d2c80	0.053997517
36	0xbf116025	-0.5678733
37	0xbd03b8db	-0.032158714
38	0x3d007fa4	0.031371728
39	0x3c9cd898	0.019146249
40	0x3c8c8c10	0.01715663
41	0x3d79c54a	0.060979165
42	0xba54f200	-0.0008123219
43	0x3d2b72c2	0.04185749
44	0xbf06dfaf	-0.52685064
45	0x3d415410	0.04719931
46	0x3c7bb390	0.015362635
47	0xbf001776	-0.500358
48	0xbd02063a	-0.03174422
49	0x3b74c6a0	0.0037349835
50	0xba32a140	-0.0006814189
51	0xbd1bd750	-0.038047135
52	0xbf10ec6c	-0.5661075
53	0x3b361520	0.0027783588
54	0xbf0c6144	-0.54835916
55	0xbd7fd108	-0.062455207
56	0x3d6e2f9a	0.058150865
57	0x3e25bfb0	0.16186404
58	0x3d9d8f40	0.076933384
59	0xbf01f325	-0.50761634
60	0xbc22a638	-0.009927325
61	0xbcfcff5e	-0.030883487
62	0xbaa9e14f	-0.0012960824
63	0xbd1b1c1f	-0.037868615
64	0xbd62b95f	-0.055352565
65	0x3d681e88	0.056669742
66	0x3c7f5938	0.015585236
67	0xbd442c85	-0.04789402
68	0x3d7daaa4	0.061930314
69	0x3c9cdc00	0.019147873
70	0xbef25527	-0.4733059
71	0xbcc3eebd	-0.02391755
72	0xbf151e51	-0.58249384
73	0x3d01d78d	0.031699706
74	0xbceb1176	-0.02869485
75	0xbcc9db6a	-0.024640758
76	0x3d8f1711	0.069868214
77	0x3d1059d8	0.03524193
78	0xbd0cfd44	-0.03442122
79	0x3d67e17c	0.056611523
80	0x3b7114c0	0.003678605
81	0x38f2cc00	0.00011577457
82	0x3b604520	0.003422089
83	0xbf00c9a3	-0.50307673
84	0xbd7b0706	-0.061285995
85	0x3d810d31	0.06301344
86	0x3c87bd7c	0.016569845
87	0x398f2a43	0.00027306573
88	0xbc574de0	-0.013141125
89	0xbf123797	-0.57116073
90	0xbf01a31c	-0.5063951
91	0xbd68a3b6	-0.056796752
92	0xbca671f2	-0.020318005
93	0x3d85217a	0.06500526
94	0x3d0a6f34	0.033797458
95	0x3c129f78	0.008949153
96	0x3d29a45c	0.04141651
97	0xbcd78b88	-0.02631165
98	0xbcbaedd0	-0.022818476
99	0xbb239300	-0.0024959445
100	0xbca4d894	-0.020122804
101	0x3ceea7a3	0.02913267
102	0xbd76f06d	-0.06028788
103	0x3d6b5fc2	0.05746437
104	0xbcc9b0f4	-0.02462051
105	0xbf123c99	-0.57123715
106	0x3d6d74d6	0.05797275
107	0xbcdf3be4	-0.027250238
108	0x3cf2ada4	0.029623814
109	0x3bce7f57	0.006301801
110	0xbc82c470	-0.01596281
111	0xbc55ae28	-0.01304201
112	0x3d6fa3a6	0.058505677
113	0xbc299c40	-0.010352194
114	0x3ad419dd	0.0016182024
115	0xbf09639f	-0.53667635
116	0xbd5a0ba2	-0.05323375
117	0xbc9ca116	-0.01911978
118	0xbc6d9034	-0.014499713
119	0x3cd3b2cc	0.025842093
120	0x3da67d12	0.08129324
121	0x3c70d192	0.014698403
122	0xbb96f2f0	-0.004606597
123	0x38bc0c3d	8.966818e-05
124	0xbef94833	-0.48687896
125	0x3d572df1	0.052534048
126	0xbc3f9b84	-0.011694793
127	0x3c83d4f4	0.016092755
128	0xbbdcba85	-0.006736102
129	0xbd488efb	-0.04896448
130	0x3c957704	0.018245228
131	0xb8340000	-4.2915344e-05
132	0xbc60e0f2	-0.013725506
133	0x3bfd9ab0	0.0077393875
134	0xbf0a42c6	-0.5400814
135	0xbe961b47	-0.29317686
136	0xbc98bb12	-0.01864389
137	0x3c93275c	0.017963104
138	0x3d8af85b	0.06785651
139	0xbf10bfc6	-0.56542623
140	0xbd3db4e8	-0.046315104
141	0xbf01ea81	-0.5074845
142	0xbcede3cc	-0.029039286
143	0x3da12427	0.07868224
144	0xbf124fba	-0.57152903
145	0xbc18fc18	-0.009337448
146	0x3db378f0	0.08763301
147	0xbef6a9d4	-0.48176444
148	0x3c0afbd8	0.008482896
149	0xbf12a336	-0.5728029
150	0xbd5c18b2	-0.05373449
151	0xbef719c2	-0.4826184
152	0x3c7ad078	0.015308492
153	0xbf06f4ee	-0.52717483
154	0xbd617a2d	-0.055048157
155	0xbf09f757	-0.53893036
156	0xbd585602	-0.0528164
157	0x3d2f624c	0.042818353
158	0x3c9ef3ec	0.01940342
159	0x3db42102	0.08795358
160	0x3dbad2e6	0.09122257
161	0x3cc2c0a8	0.023773506
162	0x3c70e508	0.014703043
163	0x3d6543e6	0.055972956
164	0xbf179313	-0.5920879
165	0x3cbff963	0.023434347
166	0x3da167f8	0.078811586
167	0xbd7fc05e	-0.062439315
168	0x3cd14078	0.025543436
169	0xbef397cf	-0.47576758
170	0x3b762200	0.0037556887
171	0xbef7230b	-0.48268923
172	0xbcb275a8	-0.021784618
173	0x3d1b8ce8	0.037976176
174	0xbef929ec	-0.48664796
175	0x3c862f84	0.01638008
176	0xbd6f87dc	-0.058479175
177	0xbd7355b0	-0.05940789
178	0x3daa7f43	0.083250545
179	0x3d984489	0.07434947
180	0x3d774fe6	0.06037893
181	0x3cc836b4	0.024440147
182	0xbf16c2c2	-0.58890927
183	0x3d073762	0.0330118
184	0x3c750c40	0.014956534
185	0xbcfb9829	-0.030712204
186	0x3d9395fc	0.072063416
187	0xbb5bc321	-0.0033533054
188	0xbcf65eac	-0.03007444
189	0xbc202602	-0.009774687
190	0x3d69f4ee	0.05711835
191	0xbc9137dc	-0.017726831
192	0xbd0321b1	-0.032014553
193	0xbf033af5	-0.51261836
194	0xbd5d3607	-0.054006603
195	0xbf07375a	-0.52818835
196	0xbc9053cc	-0.017618082
197	0xbf0221df	-0.50832933
198	0x3d2a3622	0.04155553
199	0x3c2dfa80	0.010618806
200	0x3cf24f34	0.029578783
201	0x3d5dff2c	0.05419843
202	0xbcbb871a	-0.02289157
203	0x3bcbecc0	0.006223291
204	0xbcc99e47	-0.024611605
205	0x3dab07ce	0.08351098
206	0x3d810bef	0.06301104
207	0xbef5bffa	-0.4799803
208	0xbcee6c7e	-0.029104467
209	0xbc6f7880	-0.014616132
210	0xbd15585f	-0.03646123
211	0x3d32edac	0.043683693
212	0xbd42221a	-0.047395803
213	0x3d41c1b1	0.04730386
214	0x3d39a081	0.045319084
215	0xbbbbdb24	-0.0057329107
216	0xbcda44f8	-0.026644215
217	0x3cc64844	0.02420438
218	0x3d718a40	0.058969736
219	0xbf088bde	-0.5333842
220	0x3d3df8c2	0.046379812
221	0xbc797664	-0.01522598
222	0x3c5d3692	0.01350178
223	0xbc3f8dba	-0.011691505
224	0xbcd6cebf	-0.026221631
225	0xbcc2119e	-0.023690041
226	0xbf0ba7ef	-0.5455312
227	0xbef72f2f	-0.48278186
228	0xbf040054	-0.51563
229	0xbc88b734	-0.01668892
230	0xbccff09c	-0.025383286
231	0x3d0e5d62	0.034757026
232	0xbf06b126	-0.5261406
233	0xbca01470	-0.019540995
234	0x3db3cae7	0.08778935
235	0xbcbea856	-0.023273628
236	0x3d602356	0.0547212
237	0x3bb9e094	0.0056725238
238	0xbcfdf11a	-0.030998755
239	0xbf07e65d	-0.5308588
240	0xbcb65625	-0.022257874
241	0x3db517b3	0.08842411
242	0x3d6310e6	0.055436037
243	0xbf02981c	-0.5101335
244	0xbf077eaa	-0.5292765
245	0x3d0c5028	0.03425613
246	0x3d2d53e6	0.04231634
247	0x3da58d5e	0.08083604
248	0xbd191152	-0.037370034
249	0xbd487d3d	-0.04894756
250	0xbd7f883c	-0.062385783
251	0xb9ded900	-0.00042504817
252	0x3c4c84ca	0.012482831
253	0x3c8d50a0	0.017250359
254	0x3d233566	0.039845847
255	0x3db36407	0.08759313

bias f4 [256]
0	0xbef5a815	-0.479798
1	0xbe6c761d	-0.23091932
2	0xbe2eeb1e	-0.17081878
3	0xbf2a7989	-0.665917
4	0xbfa98d0a	-1.3246167
5	0xbe51806a	-0.20459142
6	0xbe5f4f9d	-0.21807714
7	0xbe51b7a5	-0.20480211
8	0xbe5878de	-0.21139857
9	0xbc84109a	-0.016121197
10	0xbf4c5f37	-0.79832786
11	0xbe1cc8ee	-0.15311024
12	0xbf19c60a	-0.6006781
13	0xbe128e13	-0.1431201
14	0xbe59e91e	-0.21280333
15	0xbf73d6cb	-0.95249623
16	0xbdf9ad7d	-0.121912934
17	0xbe47bcce	-0.19505617
18	0xbf19e5a3	-0.6011602
19	0xbf18bb9a	-0.5966126
20	0xbe4f2cec	-0.2023198
21	0xbe974058	-0.29541278
22	0xbe093bcb	-0.13401715
23	0xbf11f634	-0.570163
24	0xbe120412	-0.14259365
25	0xbf141bb4	-0.5785477
26	0xbe536eaa	-0.20647684
27	0xbe4607b1	-0.19338872
28	0xbe431114	-0.19049484
29	0xbe3fe690	-0.18740296
30	0xbe0e5a22	-0.1390157
31	0xbe320023	-0.17382865
32	0xbf018cf6	-0.50605714
33	0xbe45e074	-0.19323903
34	0xbe5293fe	-0.20564267
35	0xbf20841a	-0.6270157
36	0xbe3f8381	-0.18702509
37	0xbe47a6ec	-0.1949727
38	0xbe1a5db9	-0.15074815
39	0xbd227058	-0.03965792
40	0xbe51dffe	-0.20495602
41	0xbe6cc602	-0.23122409
42	0xbd9c7b36	-0.07640688
43	0xbe13a5f5	-0.14418776
44	0xbe45961a	-0.1929554
45	0xbdf0b780	-0.1175375
46	0xbe00e969	-0.12589039
47	0xbf34db07	-0.7064671
48	0xbe6874d0	-0.2270081
49	0xbe0129d3	-0.12613611
50	0xbe4fa2ec	-0.20276994
51	0xbe4d6ca9	-0.20060982
52	0xbe51ff96	-0.20507655
53	0xbe65292b	-0.22378986
54	0xbe6bf4dc	-0.23042625
55	0xbe66e97c	-0.22550005
56	0xbe63c009	-0.22241224
57	0xbdaf2fd9	-0.08554048
58	0xbe2d4d77	-0.16924082
59	0xbe50d09e	-0.20392081
60	0xbe32b999	-0.17453612
61	0xbe427fe0	-0.18994093
62	0xbe06aae5	-0.13151129
63	0xbd084f20	-0.033278584
64	0xbe33e6ec	-0.17568558
65	0xbe28875e	-0.16457888
66	0xbe66db67	-0.22544633
67	0xbe19767a	-0.14986601
68	0xbdfb366f	-0.12266242
69	0xbfaac2d8	-1.3340712
70	0xbddfd55a	-0.109293655
71	0xbe640f1a	-0.22271386
72	0xbe2112c0	-0.15729809
73	0xc0de76b0	-6.951988
74	0xbd32f059	-0.043686245
75	0xbe46f8d9	-0.19430865
76	0xbe42e0aa	-0.19031015
77	0xbf1b756f	-0.60726064
78	0xbe96531d	-0.29360285
79	0xbfa0a99e	-1.2551763
80	0xbf2e75ce	-0.68148506
81	0xbc95ed99	-0.018301772
82	0xbe0d3f11	-0.13793589
83	0xbe5d7429	-0.21626343
84	0xbd136deb	-0.035993498
85	0xbe25d737	-0.16195379
86	0xbe534838	-0.20633018
87	0xbc918d1c	-0.017767482
88	0xbe4a5674	-0.19759542
89	0xc1057ec9	-8.343453
90	0xbbd8f61f	-0.006621137
91	0xbd5cd445	-0.053913374
92	0xbe5a56a6	-0.21322116
93	0xbdfd708e	-0.12374984
94	0xbca60e1d	-0.020270402
95	0xbe3f0297	-0.18653332
96	0xbe136ee3	-0.14397769
97	0xbf41ea52	-0.7574817
98	0xbe0e881d	-0.1391911
99	0xbe272e2e	-0.1632621
100	0xbf4c0842	-0.797001
101	0xbe4036b7	-0.18770872
102	0xbfa821c6	-1.3135307
103	0xbf0a0eff	-0.5392913
104	0xbe27c7aa	-0.1638476
105	0xbe6d3ec1	-0.2316847
106	0xbe72bef6	-0.23705658
107	0xbe75b6de	-0.2399554
108	0xbdd6fbce	-0.10497247
109	0xbf419aa6	-0.756266
110	0xbf140be2	-0.5783063
111	0xbe289493	-0.16462927
112	0xbf5017c8	-0.8128629
113	0xbf3c932d	-0.7366207
114	0xbc010d94	-0.007876772
115	0xbf477929	-0.7791925
116	0xbcef46e6	-0.029208612
117	0xbe65e122	-0.22449163
118	0xbf0e08b5	-0.55482036
119	0xbe57d793	-0.21078329
120	0xbc1ebcdc	-0.009688582
121	0xbe1ef2d4	-0.15522319
122	0xbe01f078	-0.12689388
123	0xbe1eda78	-0.15513027
124	0xba4a7488	-0.0007723053
125	0xbf2f6c01	-0.68524176
126	0xbe4fbfdc	-0.20288032
127	0xbe317310	-0.17329049
128	0xbdf26a26	-0.118366525
129	0xbe37476b	-0.17898338
130	0xbe141a2a	-0.14463106
131	0xbdd8a356	-0.10578029
132	0xbe71d932	-0.2361801
133	0xbd5b6c11	-0.053569857
134	0xbf3c085f	-0.73450273
135	0xbe098e60	-0.13433218
136	0xbe0978d3	-0.13424997
137	0xbe7b681c	-0.24551433
138	0xbe294553	-0.16530351
139	0xbfa0a669	-1.2550784
140	0xbe0adf3f	-0.13561724
141	0xbe359554	-0.17732745
142	0xbdf31b7e	-0.11870478
143	0xbd0f3b74	-0.03496881
144	0xbe462179	-0.19348706
145	0xbd4d0f76	-0.050063573
146	0xbf1073b2	-0.5642654
147	0xbe191b8c	-0.14951915
148	0xbe485041	-0.19561864
149	0xbe6b8d28	-0.23003066
150	0xbe3c2015	-0.18371613
151	0xbdfeeed3	-0.12447896
152	0xbe3ce112	-0.18445233
153	0xbe679fdd	-0.22619577
154	0xbe6e0732	-0.23244932
155	0xbe254249	-0.16138567
156	0xbf2df899	-0.67957455
157	0xbe3e38b7	-0.18576322
158	0xbf4672e2	-0.7751905
159	0xbe5ec133	-0.21753387
160	0xbdfc7176	-0.123263285
161	0xbe956abe	-0.29183
162	0xbf3370c4	-0.7009394
163	0xbe0883e6	-0.13331565
164	0xbfa8961c	-1.317081
165	0xbf154c63	-0.5831968
166	0xbf1a498d	-0.6026848
167	0xbd1f62e1	-0.038912658
168	0xbddc9a78	-0.1077165
169	0xbd82a183	-0.06378462
170	0xbe70e9bb	-0.23526661
171	0xbd489c24	-0.048977032
172	0xbf43478a	-0.76281035
173	0xbe10cc82	-0.14140514
174	0xbf340e8d	-0.703347
175	0xbe0662d1	-0.13123633
176	0xbe35bc91	-0.17747714
177	0xbde29a41	-0.11064578
178	0xbf3c41f7	-0.73538154
179	0xbd87e96c	-0.066363186
180	0xbf2887e4	-0.6583235
181	0xbf4127d3	-0.7545139
182	0xbd8d85f5	-0.06910316
183	0xbe660602	-0.2246323
184	0xbf04488c	-0.516732
185	0xc0c22346	-6.066806
186	0xbba3ff30	-0.005004786
187	0xbe176aed	-0.14786883
188	0xbcb84c09	-0.022497194
189	0xbd36b1ee	-0.04460328
190	0xc112d428	-9.176796
191	0xbe1ece24	-0.15508324
192	0xbe24766a	-0.16060796
193	0xbe4527ff	-0.19253539
194	0xbe58fdd1	-0.21190573
195	0xbe638c9f	-0.22221611
196	0xbf4f543f	-0.80987924
197	0xbf0673df	-0.52520555
198	0xbe2bc04d	-0.16772576
199	0xbdf42d59	-0.11922712
200	0xbe06a057	-0.13147102
201	0xbd94e225	-0.07269696
202	0xbdc6b62f	-0.097027175
203	0xbdf58c0b	-0.11989602
204	0xbe4a792b	-0.19772784
205	0xbe627b4d	-0.22117348
206	0xbe6922c7	-0.22767173
207	0xbe0b8ce1	-0.1362796
208	0xbeeb8997	-0.4600341
209	0xbe699d32	-0.22813872
210	0xbe2c47ac	-0.16824216
211	0xbf242e57	-0.6413321
212	0xbe3d073c	-0.18459791
213	0xbe1a0ea9	-0.15044655
214	0xb9292589	-0.00016131079
215	0xbe1fb0b0	-0.15594745
216	0xbe56ec93	-0.20988683
217	0xbe262e32	-0.1622856
218	0xbe4d79ad	-0.20065947
219	0xbe414f6b	-0.18877952
220	0xbe13a139	-0.1441697
221	0xbeaca939	-0.33722857
222	0xbe2f4582	-0.17116359
223	0xbe52a508	-0.20570767
224	0xbf1c47ba	-0.61046946
225	0xbe0115a8	-0.12605917
226	0xbe423acd	-0.18967743
227	0xbe544ddd	-0.20732827
228	0xbe149695	-0.14510567
229	0xbf319541	-0.6936837
230	0xbe41bda1	-0.18919994
231	0xc18d82cd	-17.688868
232	0xbe1cfaf5	-0.15330108
233	0xbfd0ac07	-1.6302499
234	0xbc8c4270	-0.017121524
235	0xbdc926ad	-0.0982183
236	0xbe0ecc3f	-0.13945101
237	0xbe31ed6b	-0.17375724
238	0xbf3e5a62	-0.74356663
239	0xbdfe6d22	-0.12423159
240	0xbd54c32f	-0.051943954
241	0xbf277e54	-0.65427136
242	0xbc3e3cfc	-0.0116112195
243	0xbdb16e43	-0.08663609
244	0xbe5ba117	-0.2144817
245	0xbe0017d5	-0.12509091
246	0xbe2c99c7	-0.16855536
247	0xbe281708	-0.16415036
248	0xbe30d49d	-0.17268606
249	0xbdf7c31e	-0.120977625
250	0xbf34fb46	-0.7069591
251	0xbd1684a0	-0.036747575
252	0xbd471de7	-0.0486125
253	0xc108b8a3	-8.545077
254	0xbe01c68a	-0.12673393
255	0xbe1db210	-0.15399957

weight f4 [3, 256]
0	0x3d1f2db6	0.038861953
1	0x3df261a4	0.1183503
2	0xbe31951b	-0.17342035
3	0x3d24842c	0.04016511
4	0x3e9287fd	0.28619376
5	0x3e7334af	0.23750566
6	0x3e1100a2	0.14160398
7	0x3e089ced	0.13341112
8	0x3e24d3e8	0.16096461
9	0x3c746c28	0.014918365
10	0x3d98db51	0.07463706
11	0xbe0739bd	-0.13205619
12	0x3c03be61	0.008040995
13	0x3e41a046	0.18908796
14	0x3e03dcea	0.12877241
15	0x3f63005a	0.8867241
16	0x3e416040	0.18884373
17	0x3df2facd	0.11864243
18	0x3d39e568	0.045384794
19	0x3cb558b3	0.022137022
20	0xbe1d112a	-0.15338579
21	0x3e1cdab6	0.15317807
22	0x3e2a87c0	0.16653347
23	0x3ce53877	0.027981026
24	0x3de5a7be	0.11213635
25	0xbadb3efc	-0.0016727145
26	0xbdf0053b	-0.11719748
27	0x3e0ba152	0.13635758
28	0x3e2105ac	0.1572482
29	0xbe6276a2	-0.22115567
30	0xbe0d90ae	-0.13824722
31	0x3e21a6af	0.15786241
32	0x3d604e6a	0.05476228
33	0x3e599ebd	0.2125196
34	0x3c0c775f	0.008573382
35	0x3c0166d6	0.007898053
36	0x3e006d80	0.12541771
37	0x3e0eed12	0.13957623
38	0xbe264c85	-0.16240127
39	0x3e36914c	0.17828864
40	0xbdf4900a	-0.11941536
41	0x3e43213b	0.19055645
42	0xbe0d3e20	-0.1379323
43	0x3dc2b7db	0.09507724
44	0x3e33927e	0.17536351
45	0x3c82bdfe	0.015959736
46	0x3e1a1dc2	0.15050414
47	0x3d4d0826	0.0500566
48	0x3e1e5f36	0.15466008
49	0xbe17cee9	-0.14825024
50	0x3e13e2f7	0.14442049
51	0x3e448de7	0.19194756
52	0x3e17d2ca	0.14826503
53	0x3e26bce1	0.16282989
54	0x3df78228	0.12085372
55	0x3e01b58f	0.12666915
56	0x3e369fb0	0.17834353
57	0xbe276706	-0.16347894
58	0xbe143bb6	-0.14475903
59	0xbe836b0b	-0.25667605
60	0xbe55c4be	-0.20875832
61	0xbe126cca	-0.14299312
62	0x3ce5c8fd	0.02804994
63	0xbe8c5cb8	-0.2741449
64	0xbaaa76d2	-0.0013005382
65	0xbe1be008	-0.1522218
66	0x3e08cd49	0.1335956
67	0x3e09b5fa	0.13448325
68	0x3e0069b8	0.12540329
69	0xbdf1bf32	-0.11804046
70	0x3c06bfce	0.008224441
71	0x3e51f9f8	0.20505512
72	0x3e26bbbe	0.16282555
73	0x40356f4e	2.8349185
74	0x3add9e3b	0.0016908118
75	0xbe3d45b5	-0.18483622
76	0xbe24e45d	-0.16102739
77	0x3db8242d	0.08991275
78	0xbd82e8c9	-0.063920565
79	0x3d6e9965	0.058251757
80	0x3cb573c5	0.02214993
81	0xbd145c2b	-0.03622071
82	0x3e537101	0.20648576
83	0xbdff2fc1	-0.1246028
84	0xbdc1a603	-0.09455492
85	0x3e4ee4b9	0.20204438
86	0x3e1b7681	0.15181924
87	0xbd175570	-0.036946714
88	0x3e1e034a	0.15430942
89	0xc08dcdd8	-4.4313774
90	0x40b3fc2e	5.6245337
91	0x3d34e622	0.044164784
92	0xbe24e7d8	-0.16104066
93	0x3dbd94a8	0.092568696
94	0x3de8ab8a	0.113608435
95	0x3e0c5daa	0.13707605
96	0x3e11dfd1	0.14245535
97	0x3ce13cb3	0.027494764
98	0x3e02e8ce	0.1278412
99	0x3e343edc	0.17602104
100	0x3d76c466	0.060245894
101	0x3db09207	0.086216025
102	0x3da65eff	0.08123588
103	0x3d1ec124	0.038758412
104	0x3e5b2433	0.21400528
105	0x3e0ce0e2	0.13757661
106	0x3e20d6f5	0.15707
107	0x3e0615ea	0.13094297
108	0x3e472b00	0.19449997
109	0x3d89524e	0.067051515
110	0x3c85b23b	0.016320338
111	0x3e516df0	0.20452094
112	0x3cb37439	0.021906005
113	0x3d919f9a	0.0711052
114	0xbd7a5ccb	-0.06112365
115	0x3d6351c4	0.0554979
116	0x3d705798	0.058677286
117	0x3e227625	0.15865381
118	0x3db5cd32	0.088770285
119	0xbe2d3531	-0.16914822
120	0x3cfd1458	0.03089349
121	0x3e3374b4	0.17524987
122	0x3e2593af	0.16169618
123	0xbd334128	-0.04376331
124	0x405962e6	3.3966613
125	0xbca9cf73	-0.020728802
126	0x3e28636f	0.16444181
127	0x3e16f926	0.1474348
128	0x3e0e5d54	0.1390279
129	0x3e13a046	0.14416608
130	0x3de5e38b	0.11225041
131	0x3e4cc71b	0.19997828
132	0x3e19eaf0	0.15031028
133	0xbdb8bc72	-0.09020318
134	0x3da29600	0.079387665
135	0x3e38739c	0.18012851
136	0x3e2a822b	0.16651218
137	0x3d527996	0.051385485
138	0x3df75225	0.12076215
139	0xbe07b819	-0.13253821
140	0x3e0644d3	0.13112192
141	0x3e4b2814	0.19839507
142	0x3e6f8750	0.23391461
143	0x3c899704	0.016795643
144	0x3e352455	0.17689641
145	0xbd21c290	-0.03949219
146	0xbc95b20b	-0.018273374
147	0x3e4ca0e1	0.19983245
148	0x3e37dd7f	0.17955588
149	0x3e161748	0.14657319
150	0x3e225a82	0.15854838
151	0x3e370b65	0.1787544
152	0x3df81088	0.12112528
153	0x3de5605f	0.11200022
154	0xbd0e2e13	-0.03471191
155	0xbdc4c88a	-0.09608562
156	0x3d0a3ab8	0.033747405
157	0x3def01e2	0.11670281
158	0x3d35ef06	0.044417404
159	0x3e06e383	0.13172726
160	0x3e0387a5	0.12844713
161	0xbe4e5bd2	-0.20152214
162	0x3cecbdd5	0.028899113
163	0x3e34a12e	0.1763961
164	0xbe07dc29	-0.13267578
165	0x3d89d658	0.06730336
166	0x3cbe91c9	0.023262875
167	0x3d502614	0.050817564
168	0xbe4e12f0	-0.20124412
169	0xbda8d368	-0.082434475
170	0x3e47a4ce	0.19496462
171	0xbd54e3d1	-0.051975075
172	0x3c22482c	0.009904902
173	0xbd27d88c	-0.040978
174	0xbb35af11	-0.0027722756
175	0x3e202ecc	0.15642852
176	0x3e1ea6d9	0.15493335
177	0xbce41ff0	-0.02784726
178	0x3d1a4f9a	0.03767357
179	0xbe0c6826	-0.13711604
180	0x3d886340	0.066595554
181	0x3d2d4326	0.042300366
182	0xbe52e3f0	-0.20594764
183	0xbdfacfa9	-0.12246639
184	0x3d839da9	0.06426556
185	0x40b6bf2a	5.7108355
186	0x3d795470	0.06087154
187	0xbd8e985f	-0.06962656
188	0xbd625243	-0.055254232
189	0xbd15009a	-0.036377527
190	0xc0aca685	-5.395327
191	0x3d62f94b	0.055413526
192	0x3e09930d	0.13435002
193	0xbd9feeb4	-0.07809201
194	0xbdbfb805	-0.09361271
195	0xbd6ff1a8	-0.05858007
196	0x3d4f7a4a	0.050653733
197	0xbd74a091	-0.05972344
198	0x3e0c17e1	0.13680984
199	0x3e438dd8	0.19097078
200	0x3df97a9f	0.12181591
201	0x3c89b984	0.016812094
202	0x3d5aacdd	0.05338751
203	0x3e0d7d1c	0.13817257
204	0x3de7e89b	0.11323663
205	0x3e3eae32	0.18621138
206	0x3e0144bc	0.12623876
207	0x3d96717e	0.07345866
208	0x3fca2237	1.5791692
209	0x3e18b76b	0.14913718
210	0x3e1d792c	0.15378255
211	0x3d5f5e12	0.05453307
212	0xbe21ca3b	-0.15799801
213	0xbe294557	-0.16530357
214	0x3fde4254	1.7363992
215	0x3df239e3	0.11827447
216	0x3e40601c	0.18786663
217	0xbe0801a0	-0.1328187
218	0x3e3ca89f	0.18423699
219	0x3e329a96	0.17441782
220	0x3dc697c0	0.09696913
221	0xbd1fbad6	-0.03899654
222	0x3e2cdc3b	0.16880886
223	0xbe15cb04	-0.14628226
224	0x3d37c1c3	0.04486252
225	0xbc3529a6	-0.011057293
226	0xbdc9ded1	-0.09856952
227	0x3e1f1de7	0.1553875
228	0xbe7e924f	-0.248605
229	0x3d17c88c	0.03705649
230	0x3e438c9a	0.19096604
231	0x425ef942	55.743416
232	0x3e387e69	0.18016972
233	0x3dbce2f1	0.09222973
234	0x3c3544ae	0.011063738
235	0x3e315286	0.17316636
236	0x3e02f7a9	0.12789787
237	0x3e896be4	0.26840127
238	0xbc346bca	-0.011012027
239	0xbdf0a866	-0.117508695
240	0xbd5b36ea	-0.053519167
241	0x3fd05dd8	1.6278639
242	0xbcfb688a	-0.030689497
243	0x3e5326aa	0.20620218
244	0xbe1128e5	-0.14175756
245	0xbe46ac84	-0.19401747
246	0x3e0e7a62	0.13913873
247	0x3e42b802	0.19015506
248	0x3e65553c	0.22395796
249	0xbe26bc7d	-0.1628284
250	0x3d8990e5	0.067170896
251	0xbd481b0d	-0.048853923
252	0x3a987f3b	0.0011634597
253	0xc0c6e920	-6.2159576
254	0x3e2c0834	0.16800004
255	0xbe62989c	-0.22128528

bias f4 [3]
0	0x365966c8	3.2395346e-06
1	0x46509d43	13351.315
2	0x35ace05b	1.2880295e-06
