TargetApproach/model.pth (torch, 274292 bytes, 6 tensors)

weight f4 [256, 3]
00000000: f4c6 513e 15ed f7bd 4e92 673e 76a8 61bd
00000010: ac3a bfbd fe58 b83e 2377 06bf 4c7d e6be
00000020: 026a a8be 923b 0c3f 223b da3e 6846 eb3e
00000030: 5bb4 04bf 2ceb 0ebf 0352 d73e 73cb 0f3f
00000040: 5a2b 5cbe 6430 ebbe c89b 08bf 2ed0 7abe
00000050: b549 863d fd77 b8be 1908 91be f9d4 b6be
00000060: 21ec f43d c344 873e 00fa 0ebf 462a 6b3e
00000070: 7bf0 1c3c 843f debe 7996 f13e 9283 053f
00000080: 5856 9fbc 22f9 893e d386 b0be a01c a93d
00000090: 59be 80bd 6cbf 5bbd 07d2 2e3e 3ca2 0f3d
000000a0: e6f8 e03e edb3 c2be f414 843e 01ea fb3d
000000b0: 6738 8bbe 2f76 963e 4db4 a83e 6f66 cd3e
000000c0: a9a9 993e a6c8 40be f628 4b3d 7471 dcbe
000000d0: 41e4 5abe 1b6c 2e3e 7c8e 05bf 8b24 f0bc
000000e0: 1b17 433e c50c 0fbf 4eab a4be 36aa 82bd
000000f0: d988 f5be 990f d7bd 6e7b 38bd 124c aebe
00000100: 8aaa 0e3f d96f 713d 5bf5 77bd f721 9b3c
00000110: 3a4c 0abf 442b 99be c931 a63e dde7 64be
00000120: 8486 0ebf 30ad 803e b178 05bf ed8e 87be
00000130: c52e 08bf c5b0 083f 41ab 4fbd 50ec 093f
00000140: f17b 9c3e 5bcf d9bd 1aea e83e 4d6e 5ebd
00000150: c4de 503e 7334 1fbe 5dfd 9d3d 8b19 033f
00000160: 1418 3b3d f8fb bcbe e5bd 53be c215 873e
00000170: 8f55 c53e 4320 7ebd bf96 81be bfe2 8ebc
00000180: bfde babe 50b9 3d3e c276 423d 6770 4c3e
00000190: d098 fc3e 3535 023f 348d 7cbd 0824 f03c
000001a0: c00e 993e aa1d 593e 0365 68be aeb3 0dbf
000001b0: 1e55 08bf 7223 0abf 5fcf 423e 2cab 3a3d
000001c0: 604a 063f e3ba 763e 4209 9d3d be46 95bd
000001d0: 33e3 823e 3cc8 9cba 2884 01bf 9f60 d13d
000001e0: 69b9 643d 92ac 45bd daca 563d d997 8fbe
000001f0: 62cf 86bd 39e4 e13e 844b 8a3d d643 e4bd
00000200: 8bee 1b3e 19c9 c53e 4ac3 4ebe 2d0e c3be
00000210: bbc1 dcbe 7439 a2be 011f 18be a096 bd3d
00000220: cfb7 0fbf b788 f9be c970 a03e 449f 0cbe
00000230: 54d6 193e ec5e f93e 2d95 16be e1a0 a2be
00000240: 8912 0d3b bfc5 dbbe 6b19 353c a7a3 ef3e
00000250: 9b9a 42be 75ea d73e 69a9 d4be 271b efbe
00000260: 04e7 84be de87 56be c2f6 e1be 1c38 d33e
00000270: cb7c 013f 7a2f 8c3b 31b8 eebe 93e4 d83e
00000280: cfed 253e 37c6 893e bfe5 153e 6556 463e
00000290: f3ed fc3e 3b3f f8be b044 173d a6b3 b23d
000002a0: 8371 c43e 9a75 c13d e6cc 083e 42b1 9d3e
000002b0: 5c6e 07be ad70 90bd d904 ca3e 8cae 91bb
000002c0: 64af fdbd d23e 3bbe 74e0 3bbc 8d6e 16be
000002d0: 35f3 2dbe 2841 84be 46ed b03e 83ad f2bd
000002e0: 8344 ce3e 5182 9bbc 1839 a53e 13b1 c7b8
000002f0: b543 eb3e 3b26 3b3e b76d 0cbf 4580 0abe
00000300: 616c 223e 28b1 d1be ba9d a23e b8ec c43e
00000310: f9e6 133e 2673 acbe 842d 7b3e ec48 f9be
00000320: 4dbf 003f 70b7 cfbe 04dc d3be 2295 fcbe
00000330: 897e 98be 85fd a0be 1093 b33e 17b6 f33e
00000340: 2bcd ea3e be19 de3e bdb8 6f3d 6475 f0be
00000350: 90a8 78be 937c 06be c931 013f ad4d 043e
00000360: 3ba9 b53e ef89 df3a 3175 9b3e 0b9b b93e
00000370: 6542 f33e 4b6a 19be c9fd 3dbe e44e 5cbd
00000380: 3fb5 993e 8c1b 8cbe 69c3 f6be 80f7 103f
00000390: ab99 29be 2a23 19be 4316 03bf 52ea e43e
000003a0: a8fc b2bc 71a4 9b3e eda0 24bd 7b0e be3e
000003b0: 8722 023f 34fe 053e f17d 2f3d ccce 4b3e
000003c0: b347 973e c251 693d ad2b b5be f96f 9a3d
000003d0: 3108 8dbe 05eb 36be d79c 0c3f 9497 623c
000003e0: 3b3c 363e 54a6 bb3e 5fbe 833e eaec f0bd
000003f0: 333c 083f 3c7e b73e 5b00 eebe eec9 4d3e
0.20486051 -0.12105767 0.22614405 -0.055092297 -0.09337363 0.36005396 -0.5252554 -0.4501747
-0.32893378 0.547784 0.4262324 0.45952153 -0.518377 -0.55827594 0.42054757 0.56169814
-0.21500912 -0.45935357 -0.53362703 -0.24493477 0.06557027 -0.36029044 -0.2832649 -0.3570936
0.119591005 0.2641965 -0.5585022 0.22965345 0.009578819 -0.43407834 0.47185114 0.52153885
-0.019450352 0.26947886 -0.34477863 0.08257413 -0.06286306 -0.05364935 0.17072307 0.035066828
0.43939894 -0.38027897 0.25797236 0.12300492 -0.2719147 0.29387042 0.3295006 0.40117213
0.30012253 -0.18826541 0.04959961 -0.43055308 -0.21376134 0.17033426 -0.5217054 -0.0293143
0.19051783 -0.5587886 -0.32161945 -0.063801214 -0.4795597 -0.10501022 -0.045039587 -0.34042412
0.5572897 0.058944557 -0.060536724 0.018937094 -0.5402256 -0.29915822 0.32459858 -0.22354074
-0.55674005 0.25132132 -0.52137285 -0.2647623 -0.53196365 0.5339473 -0.05070043 0.5387621
0.3056331 -0.10635253 0.45491105 -0.05430441 0.20397478 -0.15547352 0.07714341 0.5121085
0.04567726 -0.36910987 -0.20677908 0.26383787 0.3854184 -0.062042486 -0.25310323 -0.017442105
-0.36498067 0.18527722 0.047476538 0.19964753 0.49335337 0.5086244 -0.0616581 0.029314056
0.29894066 0.21202722 -0.22694783 -0.55352294 -0.5325488 -0.53960335 0.19024418 0.0455734
0.5245724 0.24094729 0.076677814 -0.072888836 0.25563964 -0.001196153 -0.5059228 0.10223507
0.055840883 -0.04826028 0.052439548 -0.28045538 -0.06582524 0.44119433 0.06752685 -0.11145751
0.15227716 0.38629988 -0.20191684 -0.38096753 -0.43116555 -0.31684458 -0.14855577 0.09257245
-0.56139845 -0.48737118 0.31336048 -0.1373263 0.15023166 0.48705232 -0.14705344 -0.31763366
0.002152594 -0.42924306 0.011053423 0.46804544 -0.1900429 0.42171064 -0.415355 -0.46700403
-0.259575 -0.20950267 -0.44133574 0.41253746 0.50581044 0.0042781206 -0.46624902 0.42361888
0.16203998 0.26909038 0.14638422 0.19368894 0.4940029 -0.4848574 0.03693074 0.087256715
0.38367853 0.09446259 0.13359413 0.307993 -0.13225693 -0.07052741 0.39456823 -0.0044458564
-0.12386969 -0.18285683 -0.011467088 -0.1469061 -0.16987307 -0.2583096 0.34556025 -0.11849501
0.40286645 -0.018983038 0.32270122 -9.522042e-05 0.45950094 0.18276303 -0.5485491 -0.13525493
0.15861656 -0.40955472 0.3176096 0.38461852 0.14443578 -0.336816 0.24529082 -0.48688447
0.502919 -0.4056964 -0.41378796 -0.4933253 -0.2978404 -0.3144342 0.35073137 0.4759986
0.45859656 0.43379015 0.05852579 -0.46964562 -0.24283051 -0.13133459 0.5046659 0.12920256
0.35480675 0.0017054657 0.30362847 0.362511 0.47511593 -0.14981954 -0.18553843 -0.053786173
0.30021092 -0.27364767 -0.4819596 0.56627655 -0.16562526 -0.1495482 -0.51205844 0.44710022
-0.021848992 0.30398896 -0.040192533 0.37120423 0.50833935 0.13085252 0.042844716 0.19903105
0.2954689 0.056962736 -0.35384884 0.07540888 -0.27545312 -0.1786309 0.5492682 0.013830084
0.17796414 0.36650336 0.2573118 -0.11763938 0.53216857 0.35838497 -0.46484646 0.20096561

bias f4 [256]
00000000: 9c8c 0b3e 2f9d 5c3e 28f7 d33e 6d3d 1abe
00000010: ee08 32be 5be4 f1be 032a da3e 4ca8 aebd
00000020: 1ca6 41be f3c2 393e 97a3 d1be 5253 9a3e
00000030: a3f1 00bf c3c2 65be 6bad 85bd 23f0 30be
00000040: 63cf e63d e218 d7be eeb9 e2be 4d6d d8be
00000050: ba66 8e3e ffd5 f2bd 458b a33c 601b 793e
00000060: 187a ec3e 2d33 083f 4ee6 a13e 2691 c2be
00000070: 1728 113f beb9 c9be cd7d ae3e 2551 093e
00000080: 31d1 2ebe 9655 c2be 7233 633e 82e7 ab3e
00000090: 5c50 b4be 39f9 e53e 3624 01bf 0687 103e
000000a0: f332 c63e 9857 7b3d cad0 323c 626b 2e3e
000000b0: ea6f 8ebe 315a 9abe 29af cbbc 3090 a9be
000000c0: bb0d df3e d6d7 89be 290b f2bd 0964 f13e
000000d0: 0197 ee3d 1c3b 123e a628 93bb 56d8 debe
000000e0: 0192 f63e 8d34 70be cce2 13be f66d a0be
000000f0: 91f6 b1be 9d35 20bc 43a9 df3d cbfa 6dbd
00000100: 06d9 103f 9099 673e c55c 833e 3c96 123f
00000110: 0c17 a03e b933 cfbe 7174 843e dc61 2cbe
00000120: 2f62 003e 3816 88be 7897 f03e c6ab 11bc
00000130: aef2 8f3d 54d8 cdbe b42c a6be a7a1 23be
00000140: fc05 0ebf 966b e4bd b091 44be 0674 c4be
00000150: e6e8 453e 559a 873d 8d08 a7be 3bb8 10be
00000160: 3d2f da3e 005c 1d3e 969c 803e 3901 96be
00000170: 2247 f7be 2102 91bd d686 20be 602a db3e
00000180: e2a3 9b3e 066e cf3d 8884 283e 9991 663e
00000190: e4b5 763d e439 a43e 741c c0be af33 023f
000001a0: 0082 983e fb89 c33d b7dd 2cbc d906 273d
000001b0: d866 c53e 1a09 bfbd ff80 573e 1529 09bf
000001c0: 6eca 9abe c99b 4e3e cf39 003f a92d 04bf
000001d0: e226 e3be a525 7abe 5fa9 093e 704b 3bbc
000001e0: e5d1 633c 12ab 0f3f d6af 43bd e924 b13d
000001f0: f2f0 a93e e59c fc3d 9d26 8bbe 5967 b33c
00000200: b847 9bbe afe8 aebe db04 19be ecc0 0b3f
00000210: c6ec c83e 50f3 f33e 5bae f73e 2185 d3be
00000220: 765c 61be 45a2 d1be bbb5 403d adac 0f3f
00000230: 8b94 ec3e 3a43 31be 5833 b73e 5f19 513e
00000240: 9213 88be 25ad 1bbe 5fa8 d4be 1ead 093f
00000250: a314 ff3e 1da5 0a3f e763 84bc 5ada 88bd
00000260: 92ed 0cbf 817e cebe 5231 123f bfa5 0cbf
00000270: d039 0c3f 896c e53e fd14 05bf d4c3 c5bd
00000280: c836 06bf c78b ec3d be10 9cbe d13b ffbe
00000290: 6fd3 843e 4805 26be b291 1f3e 7468 31be
000002a0: 2c1d 17be 35a6 d93e ae1a c2bd bc04 113f
000002b0: 38f5 05bf 891b 10bf 5f0a 0f3f a817 d9be
000002c0: 5507 96be 3422 fcbe 54b7 d5be a8fa b1be
000002d0: b9fc 9bbe 1289 d53e 1853 45ba 9833 a1be
000002e0: 854b f73e 7d33 d9be a899 cfbe 3a55 c43e
000002f0: 9401 cbbe 8c0e 6b3e ffea 54be 281a cfbe
00000300: 368f 8c3c 4a0b f7be 1453 093f 5e73 063e
00000310: be90 f9be ae2e 5cbe 815f e1be b6c6 10bf
00000320: f27a ed3b 0e0b 0b3f 552d 5ebd 2911 9dbe
00000330: 1f4f ddbe fc1d 21be 03be a2be 553e 5ebe
00000340: fa9c 55be 4b01 69be 92fe cebe 7557 b83b
00000350: 9b98 053f 10d3 8b3e 3eee fbbe cff5 f13e
00000360: 7af4 09bf db8e 9dbe 3252 d5be 0a97 f5bd
00000370: 380f 9e3e 0d8f 133e 471a f43e db92 c4be
00000380: 9045 72be b02a 05bf 26ba be3e f069 813e
00000390: 2a48 763d 985d 9abd 97a3 0abf c23d efbe
000003a0: ac2b b0be f96c 97be b09b cabe df87 b2be
000003b0: 5e94 06bf 7fcb 293e 3146 f93e 65e2 8cbe
000003c0: b9ac cd3d 8d35 03be 309f 10bf 7b51 feba
000003d0: 348d c53e 1b56 fbbe b725 a4be abca 0ebf
000003e0: 090a 71bd 5644 053f 7922 a0be d5bb e13e
000003f0: f15a f63e 1861 fa3e 4ecf b93e f6f6 00bf
0.13627857 0.21544336 0.41399503 -0.15062495 -0.17386219 -0.47244534 0.42610177 -0.08528194
-0.18911022 0.18140773 -0.40945122 0.30141693 -0.5036871 -0.22437577 -0.065272175 -0.17279105
0.112700246 -0.42011172 -0.44282478 -0.4227089 0.2781275 -0.11857223 0.01996387 0.24326849
0.461869 0.5320309 0.3162102 -0.38001364 0.567018 -0.39399523 0.34080353 0.1340986
-0.17071988 -0.37955922 0.22187594 0.33575064 -0.3521756 0.44916704 -0.5044588 0.14114007
0.38710746 0.061362833 0.010914037 0.17033151 -0.2781976 -0.30146936 -0.024863796 -0.3311782
0.43565163 -0.26922482 -0.11818535 0.47146633 0.116498955 0.14280361 -0.0044909297 -0.43524426
0.48158267 -0.23457547 -0.14441985 -0.31333894 -0.34758428 -0.009778407 0.10920956 -0.058100503
0.5658115 0.22617173 0.25656715 0.5726049 0.31267583 -0.4046915 0.25870088 -0.16834205
0.12537454 -0.26579452 0.4699056 -0.008891052 0.07028709 -0.40204108 -0.3245598 -0.15979634
-0.5547788 -0.11153333 -0.191962 -0.3836977 0.19327125 0.066212334 -0.3262371 -0.14132778
0.42614165 0.15367126 0.25119466 -0.29297808 -0.48296458 -0.07080484 -0.15676436 0.42805767
0.3039847 0.10128407 0.16456807 0.22516479 0.06023206 0.32075417 -0.37521708 0.5086011
0.29786682 0.09547802 -0.010550908 0.040778015 0.38555026 -0.09327908 0.21045302 -0.5357831
-0.30232567 0.20176615 0.5008821 -0.5163217 -0.44365603 -0.24428423 0.13443516 -0.01143156
0.013905023 0.5612041 -0.047775112 0.08649618 0.3319164 0.12334613 -0.27177897 0.021899866
-0.30328155 -0.34161898 -0.14943258 0.5459125 0.39243144 0.4764657 0.4837521 -0.41312507
-0.22007927 -0.40944114 0.04704831 0.5612286 0.4620708 -0.17310801 0.3578136 0.20419835
-0.2657743 -0.15202768 -0.41534707 0.5377978 0.49820432 0.5415819 -0.016160918 -0.06682272
-0.55050004 -0.4033089 0.57106507 -0.5494041 0.54775715 0.44809368 -0.5198515 -0.09656492
-0.5242734 0.11550098 -0.30481523 -0.49850324 0.2594256 -0.16212952 0.15582922 -0.17325002
-0.14757222 0.42509618 -0.09477745 0.5664785 -0.523273 -0.56292015 0.558752 -0.4240086
-0.2930247 -0.49244845 -0.4174143 -0.34761548 -0.3046625 0.4170614 -0.00075273355 -0.31484675
0.48299804 -0.42422095 -0.40546918 0.38346273 -0.39649642 0.22954768 -0.20792769 -0.40449643
0.017158132 -0.482508 0.5364239 0.13129947 -0.48743242 -0.21502182 -0.44018176 -0.5655321
0.0072473222 0.54313743 -0.05424245 -0.30677155 -0.43224427 -0.15734094 -0.31785592 -0.21703465
-0.20860663 -0.227544 -0.40428597 0.00562566 0.5218598 0.27309465 -0.49205202 0.4725785
-0.53888667 -0.30773053 -0.41664273 -0.11991699 0.30870986 0.14410038 0.47676298 -0.38393292
-0.23659348 -0.5201826 0.37251395 0.25276136 0.060127415 -0.07537383 -0.5415587 -0.46726805
-0.3440832 -0.29575327 -0.39571905 -0.34869286 -0.5257014 0.16581534 0.48686364 -0.27516475
0.1004271 -0.12813397 -0.564929 -0.0019402945 0.38584292 -0.4908913 -0.32060024 -0.55777997
-0.05884746 0.520574 -0.312763 0.44088617 0.48116258 0.48902202 0.36290973 -0.5037683

weight f4 [256, 256]
00000000: c8b9 dcbb dc8d 47bd 243d 57bd 209e aaba
00000010: 53ae 35bd 003a 4e39 9af1 423d 57ac 13bd
00000020: a056 5fbc 1e7c adbc c23d 013d f8e9 ffbc
00000030: b6e6 57bd ba8c f5bc 289e 76bd 5c28 513d
00000040: 5882 e1bb 0002 7239 00c1 a439 7099 ab3b
00000050: 5a24 52bd 70bd 823c 3c49 4c3d ace2 efbc
00000060: 263f 3c3d 1621 a2bc 50ec 4dbc 6e22 b6bc
00000070: e45b ba3c 5899 903c 0811 80bc 9edf ecbc
00000080: 5ce7 f53c 995e 79bd 90f8 84bc c006 8b3a
00000090: 80b7 763a 939d 6dbd 8cbe 923c e435 843c
000000a0: 8a07 743d 80a7 093c be81 63bd a4e8 e33c
000000b0: 221b babc f4c1 633d 1085 a33c ec1c b23c
000000c0: e054 d23c 9884 623d 409a 68bb b003 3c3d
000000d0: 4b8e 58bd 1052 1bbd 32e9 1abd a5f8 70bd
000000e0: aef4 8abc 0c9f 42bc 700e 473d e499 df3c
000000f0: 96d2 e0bc d3dd 6abd 6826 4d3d 3806 7abd
00000100: 4eef 82bc de09 683d b89e ca3c 383d 743d
00000110: 98d0 c73c 2830 203c a858 3cbc 14b7 a2bc
00000120: 00bb b739 80a6 33bd becf 343d 6082 d03c
00000130: da7a 7b3d 7a5f d2bc 6a7e 18bd fc3b 3a3d
00000140: c8ab aebc eceb 8e3c 304a 15bd 080d 963c
00000150: 788c 05bd 7be4 72bd 0641 d0bc 7c2a 7fbc
00000160: 9aa5 0dbd dc2d 9c3c 7057 183d 1d29 2ebd
00000170: 0410 8ebc b0a6 17bb f243 d9bc 023b 83bc
00000180: d73f 66bd 381c 9d3c a63b 543d 5692 c8bc
00000190: f273 eabc 964e 0e3d 581e 193d c540 56bd
000001a0: 82ac 793d 4aea 013d ccfd f53c a821 2c3d
000001b0: 340f 9a3c 38a8 4dbd a8c8 2a3c 4c80 dbbc
000001c0: a40c 35bc 0088 ad3a 8046 fdbb 88f9 5a3d
000001d0: ce3c 01bd 5982 56bd d6d5 5f3d 2138 7cbd
000001e0: 504c 28bd c04d b7ba 50d7 61bd b001 a23c
000001f0: 0cb3 ae3c 74fd 07bc 6eee 21bd 0224 553d
00000200: c6a1 b8bc ccb9 5bbd aab1 44bd 8a84 47bd
00000210: a857 423c ce8f 86bc f7c1 2dbd 881d e43c
00000220: 0e73 0a3d c065 2dba 24ec 933c e84c ac3c
00000230: 01b6 79bd 7047 3a3d e819 3dbd 7c56 6dbc
00000240: 68d7 033d b03e 1b3c 2638 9cbc f22f 66bd
00000250: 56b2 25bd 64c5 5dbd ec3c ae3c 9ad8 553d
00000260: 0abc 29bd e6e6 76bd 1871 073d ba91 413d
00000270: b28b 25bd 77a0 62bd d441 b23c a2a3 47bd
00000280: e86b c23c 7c3e 0e3d 309d 47bb e0ec d2ba
00000290: 22cf 76bd 803a 733a 8ce2 0fbd 509a f3bc
000002a0: ced4 623d 7033 22bc b067 a33b 20f6 ae3c
000002b0: 5a53 1cbd 72c9 193d 9b01 35bd ba07 e9bc
000002c0: f6f3 c3bc d0a8 bcbb 660d 663d c226 023d
000002d0: 9006 ce3b 9c22 14bd bad6 3e3d 488e 0fbd
000002e0: f09b fabc 6852 09bd 5cba a2bc e5bd 6ebd
000002f0: dc6e f83c f880 143c 021e 1ebd 052e 31bd
00000300: 9cbb 6b3d 5cc8 30bc 000c 1f39 caf7 29bd
00000310: 00ce 38bc ded8 323d 00da 043b fc0b 58bd
00000320: bc6a 863c c8a3 5a3d 7869 5d3d ae67 4dbd
00000330: 1cb8 ba3c e4d6 a03c 26c0 9ebc 08da 03bd
00000340: 8eac 18bd b835 3d3c 8401 94bc 1e32 523d
00000350: 0ed0 1cbd d8d9 463d 5851 163d 4843 4f3c
00000360: dc9c f23c a03f 343d 9cfd eb3c d0ad dbbb
00000370: 8134 0bbd 40f3 e83b 6260 bbbc 282f 02bd
00000380: f4a3 343d 76ce 51bd e0be 493d 1b83 4abd
00000390: aea9 cdbc 5f77 7abd 3cbb 373d 9284 773d
000003a0: d8c7 d0bc 6c39 653d 6021 c53c 7403 453d
000003b0: 9072 4d3c 6463 a93c 98f2 853c 5355 44bd
000003c0: fec0 11bd fcb4 28bd 44dc 58bd 5a8f e2bc
000003d0: d849 bc3c 201c ee3c 4c39 b3bc e067 923c
000003e0: 8b6a 44bd 95ed 2dbd 9c5b 5d3d 7c62 5c3d
000003f0: a06b 983b 1c46 e43c e6f8 373d 62ec 563d
-0.006736014 -0.048719272 -0.052548543 -0.0013017096 -0.0443557 0.00019667298 0.04759369 -0.036053028
-0.013631493 -0.021177348 0.031553037 -0.031239495 -0.052710257 -0.02997433 -0.060209423 0.05106388
-0.0068819933 0.00023079664 0.00031424314 0.005236797 -0.0513042 0.015959471 0.04987453 -0.02928289
0.04595866 -0.019791167 -0.012568548 -0.022233214 0.022748895 0.017651245 -0.015633121 -0.028915223
0.030017547 -0.06088123 -0.016231805 0.001060687 0.0009411499 -0.058011603 0.017913125 0.016138978
0.059577502 0.0084017515 -0.055543654 0.027820893 -0.022718016 0.05560489 0.01996091 0.021742307
0.025675237 0.055302233 -0.003549233 0.045901954 -0.052870076 -0.037920058 -0.03782005 -0.058830876
-0.016962375 -0.01187874 0.048597753 0.02729506 -0.027444165 -0.057340454 0.050085455 -0.061041087
-0.01598325 0.056650035 0.024733886 0.059628695 0.024391457 0.009777106 -0.011495747 -0.01986269
0.00035043806 -0.04385996 0.04414343 0.025452793 0.061396457 -0.025680292 -0.037229933 0.04546736
-0.021322146 0.01744648 -0.036447704 0.01831676 -0.032604665 -0.059299927 -0.02542163 -0.015574094
-0.034581758 0.019064836 0.037192762 -0.042519677 -0.017341621 -0.0023140125 -0.026521657 -0.016019348
-0.056213226 0.019178495 0.051814698 -0.02448384 -0.02861974 0.034742914 0.037382454 -0.052307863
0.060955532 0.031717576 0.030028246 0.042024285 0.018806078 -0.050209254 0.010423817 -0.026794575
-0.011050377 0.0013239384 -0.0077293515 0.053460628 -0.03155213 -0.052370403 0.05464729 -0.061576966
-0.041088402 -0.0013984963 -0.05513698 0.019776195 0.02132561 -0.008300174 -0.039534025 0.052036293
-0.022538077 -0.053643987 -0.048020996 -0.048710383 0.011861719 -0.016425993 -0.042421307 0.027846113
0.03380113 -0.0006614588 0.018056937 0.021032766 -0.060964588 0.045478284 -0.046167284 -0.0144859515
0.03218785 0.009475395 -0.019069742 -0.056198068 -0.040453278 -0.054143324 0.021269284 0.05220852
-0.041439094 -0.060278796 0.03306684 0.047258116 -0.040416427 -0.055328812 0.021759905 -0.048740037
0.023733094 0.03472756 -0.0030458681 -0.0016092323 -0.06025613 0.00092784315 -0.03512816 -0.029736668
0.055378728 -0.009899959 0.0049867257 0.021357596 -0.038165428 0.03754563 -0.044190984 -0.028446067
-0.02392004 -0.0057574287 0.05616512 0.031775244 0.0062874034 -0.03616582 0.046591498 -0.0350478
-0.030591935 -0.033525854 -0.019864254 -0.058286566 0.0303263 0.009063952 -0.038602836 -0.04325678
0.057551965 -0.010789957 0.00015167892 -0.041496076 -0.011279583 0.043663852 0.002027154 -0.052745804
0.016408317 0.05337885 0.05405566 -0.050147705 0.022792868 0.019633718 -0.019378733 -0.032190353
-0.037273936 0.011548452 -0.018067129 0.051317327 -0.038284354 0.048547596 0.03669867 0.012650318
0.029615812 0.04400599 0.028807454 -0.0067040697 -0.03398562 0.007109076 -0.022873107 -0.031783253
0.04410167 -0.051222287 0.0492543 -0.04944144 -0.025105324 -0.061148997 0.044856295 0.060429163
-0.025485918 0.055962965 0.024063766 0.048098996 0.012539521 0.020677276 0.01635103 -0.047932934
-0.035584442 -0.041188225 -0.052944437 -0.027656246 0.02298443 0.029066145 -0.021877907 0.017871797
-0.04795317 -0.042462904 0.054042444 0.05380486 0.004651502 0.027865462 0.044915102 0.052471526

bias f4 [256]
00000000: 329c 563d 312c c83b c49a 523d bc08 b83c
00000010: 201f 113c 3fac 443d 34fa a33c e274 533c
00000020: 939b 7cbc 086d 223d a842 643c a017 c1bb
00000030: 3252 edbc c889 b83c eb94 71bd c89e 7b3d
00000040: d085 153c 330a 3abc 97ce 7c3d 823d 4e3c
00000050: 5a91 64bd b990 2e3b 8501 603d d277 543d
00000060: 988f 843c c4dc 523d d02d 053d 85f5 273c
00000070: 5d57 8e3d 0d95 b23b 57fb 413b 0e21 c43b
00000080: 08fe 18bc 1080 e83b 7149 67bd 27f7 8d3c
00000090: ad04 9e3c 1ed8 773d bcae d93c a05b e33b
000000a0: 8727 39bd d478 27bd 6e2c 32bc 4da5 443d
000000b0: ce60 adbc 902c fdbc a230 edbc a21f dabb
000000c0: 0b8a 39bd c844 26bd 433d 443d 8030 eebb
000000d0: 9e40 1fbd eed9 3dbc c24c 543d e4b5 653d
000000e0: 53e2 5f3d 2b2a 643d 108b 893c c277 faba
000000f0: 0dbd 62bc 7d37 863a b0dc 1fbc a890 3a3d
00000100: b86a 523d 3e00 09bd 0dfc 56bd a97d 7dbd
00000110: 938f 37bd 8423 11bc 3281 8ebc 32fb 2dbd
00000120: 327e 3bbd 2272 483d f6d1 1cbd d180 eabc
00000130: 3fc9 8b3c 509d 563c 68f2 e3bb ddf6 873c
00000140: 6945 a53c 33b8 4d3c 1088 78bb 2ba3 4b3a
00000150: 1cfc 413d 29c8 ee3c 6072 25bd b2b2 1d3d
00000160: 6074 f33b bc78 5dbd 89f1 16bd fcc4 05bd
00000170: b718 3cbc 9d99 3b3d 3ca6 223d b046 36bd
00000180: fdb5 bc3c b88e 63bd 34b3 193d ec3c 513d
00000190: 9a54 debc ff60 7f3d 0f2b 563c b0ea 17bd
000001a0: 5224 8bbc 5c42 35bc 9c50 8dbc d87c 44bd
000001b0: 5c54 d8bc 9f77 69bd e4a0 f4bb 5c70 9ebc
000001c0: d12c 22bd b4e5 733d 7b65 773d 5333 b4ba
000001d0: c22e 59bd 153d 723d 6b6b 373d 8162 c03b
000001e0: e0c4 013b 67a2 883c e68a 233d 99e3 0c3d
000001f0: 6425 0f3d 98b1 443d 7809 7e3d 74ce 873c
00000200: 9288 b73c a882 a83c c886 a93c dd0e 093d
00000210: c73b 70bd 125e 743c a446 2fbd 8873 a43c
00000220: d623 13bd 8a34 60bd 93f4 263c 40b0 a03b
00000230: 0e8d e8bc 28b9 313b 5c25 b1bc 9e42 5f3d
00000240: c290 513d afa6 8c3d 400d 3cbd 0ee6 c6bc
00000250: 9e75 3cbd 0002 563a d10a 983b 9596 61bd
00000260: a4e0 80bc 4cd2 ab3c 6c18 35bd c151 5cbd
00000270: 4e67 44bd dd0b 183c d0f5 debc f6d8 3f3d
00000280: 60da 0c3d b369 44bd fe0f 423c 2512 b6bc
00000290: 0005 6abb 436d f3bb e4ba c23c d668 0fbd
000002a0: cf1e 2cbb 97d5 793d b1e4 6f3c 5b6d 75bd
000002b0: e0ce 7abd 15ea 28bd 2795 853d d63e f8bb
000002c0: b05e ecbc 2d8e 92bb f48f 42bc 48e9 b23c
000002d0: 8e10 023d dc2a ba3c 08d5 183d 22bd 12bd
000002e0: c14f 113c 1ee4 363c e7aa 5e3c 70be 343d
000002f0: b257 2d3d 1cfb ab3c f930 69bd d9a0 e33c
00000300: 6510 5fbc 95f6 48bd f449 b4bc a40f 9e3c
00000310: 83a7 7b3d 8097 fc3b b1ea 263d 78a7 e03c
00000320: 5ff1 6bbd 90ae f33c 3a8e 02bd fe4c 123d
00000330: 2a31 be3c 18a7 cebb 0f4c f93c 708a 0d3c
00000340: 18b2 5f3c eae4 e4bc 5087 7bbb 5c6a 16bd
00000350: 99c4 17bd 6ef3 763d 4c10 95bc 4b10 183d
00000360: 95f6 fabc 6701 08bd 21bb 5e3b 3f43 49bd
00000370: f616 953c 861e 483d b099 1a3c 86d9 43bd
00000380: 8183 19bd e9a9 38bd beff 27bd 5ab0 ccbb
00000390: 7f72 50ba 5ab3 35bd 82ee 4d3d 5a62 483c
000003a0: 3030 67bd 7f63 e8bc 1895 093d 443a a6bc
000003b0: 69d2 da3c a52f 31bd 4c1b 1f3d e3ff 143d
000003c0: 6c3e 8c3c a7f3 61bb 23d2 3d3d c6aa de3c
000003d0: 4b13 43bd d72a 44bc e6c3 48bd 10f5 61bd
000003e0: a21b 6b3d 62c8 2fbd 70b8 313c 306f 4c3c
000003f0: 3125 e83c 34f1 873d c093 45bd f185 443d
0.052395053 0.0061087837 0.051417127 0.022465102 0.008857518 0.04801583 0.020016767 0.012906285
-0.015417951 0.03965476 0.013931908 -0.005892709 -0.028969858 0.022526637 -0.05897991 0.061430722
0.009126142 -0.011354971 0.061720457 0.012587907 -0.05580268 0.0026636554 0.05468895 0.051872082
0.016181752 0.05148007 0.032514393 0.0102514075 0.06950257 0.005449897 0.0029599273 0.0059853857
-0.0093379095 0.0070953444 -0.056466524 0.017329765 0.019289339 0.06050884 0.026572578 0.006938413
-0.04520371 -0.040886715 -0.010874851 0.048009206 -0.021164324 -0.030905038 -0.028953854 -0.006656603
-0.045297664 -0.04059294 0.047909986 -0.0072689652 -0.038879983 -0.011587603 0.051831014 0.056081668
0.0546592 0.055704277 0.016789943 -0.0019109177 -0.0138390185 0.0010239925 -0.009757206 0.04554811
0.051371306 -0.033447497 -0.052486468 -0.061887417 -0.044814657 -0.008858565 -0.01739559 -0.042475887
-0.045774646 0.04893697 -0.03828617 -0.028625878 0.017063735 0.01309903 -0.0069563873 0.016597206
0.020174699 0.012556124 -0.0037922896 0.00077681494 0.04735957 0.029148178 -0.04039228 0.038500495
0.0074296445 -0.05407022 -0.03685144 -0.032658562 -0.011480502 0.045800794 0.039709315 -0.044501007
0.023035998 -0.05555603 0.037524417 0.05108349 -0.02713995 0.062348362 0.013071789 -0.03708905
-0.016985092 -0.011063185 -0.017250352 -0.047970623 -0.026407413 -0.056998845 -0.0074654687 -0.019340687
-0.03959352 0.059545234 0.060399514 -0.0013748206 -0.053023107 0.059140284 0.044780176 0.0058711176
0.0019801185 0.016679002 0.039927386 0.03439674 0.034947768 0.04802093 0.06202075 0.016577937
0.022403989 0.020570114 0.020694152 0.03346144 -0.058650758 0.014915006 -0.042791978 0.02007462
-0.035922848 -0.054737605 0.010190147 0.004903823 -0.028387573 0.0027118418 -0.02162426 0.05450689
0.051163442 0.0686773 -0.045911074 -0.02427962 -0.046010606 0.000816375 0.0046399613 -0.055075247
-0.015732117 0.0209743 -0.044212744 -0.053788904 -0.04795008 0.009280172 -0.027216822 0.04683777
0.034387946 -0.047952365 0.011844633 -0.022225449 -0.0035708547 -0.0074287965 0.023770757 -0.03501209
-0.002626348 0.06099471 0.014641927 -0.059918743 -0.061232448 -0.041238863 0.06522589 -0.00757585
-0.028853744 -0.004472515 -0.011875141 0.021839753 0.03175407 0.022725515 0.037312537 -0.035824902
0.0088691125 0.011162786 0.013590551 0.044126928 0.04231996 0.020993762 -0.05693147 0.02778666
-0.013614749 -0.049063284 -0.02200792 0.019294567 0.06143905 0.00770849 0.040751163 0.027423605
-0.057603236 0.029746324 -0.03187392 0.035717957 0.023216803 -0.00630654 0.030431775 0.008638963
0.013653301 -0.027941186 -0.0038380213 -0.036722526 -0.037052725 0.060290746 -0.018196248 0.037124913
-0.030635158 -0.033204462 0.003398605 -0.049136396 0.018199425 0.048857234 0.009436056 -0.04781487
-0.037478928 -0.045083914 -0.04101538 -0.0062466087 -0.00079516316 -0.044360496 0.050276287 0.01223048
-0.05644244 -0.028367756 0.033589453 -0.020291455 0.02671166 -0.043258328 0.03884439 0.036376845
0.017119609 -0.0034477504 0.04634298 0.02718104 -0.04762582 -0.011973104 -0.04901495 -0.05516535
0.0573994 -0.04291571 0.010847196 0.012477681 0.028338047 0.06637803 -0.04823661 0.0479793

weight f4 [3, 256]
00000000: 5422 523d 09c4 14bd 9fd5 3a3b ae23 d3bc
00000010: 174c 5bbd f4bd 093c f092 80bc 9937 aebc
00000020: 8ced 253d 52a1 2bbd a931 41bd 8503 8a3c
00000030: d4df d5bc e53f 183d 0e66 3dbd 5bb3 783d
00000040: e0c6 763d db6a 863d 8bb1 43bb bcf2 083d
00000050: 2ced 83bc 057e ee3c ee4f 803c 376d ca3c
00000060: 9814 8dbb 9432 5b3d a589 103c 0e5f 3ebd
00000070: 4f17 b83b 8fe6 253c 284c f93c 19b6 2bbc
00000080: d406 723d c44e 5c3d e0a5 fc3c b0a8 1ebc
00000090: 4141 763d 38a2 5e3c 1c28 993c bc09 e13c
000000a0: 88c3 3fbd 13b8 7d3d f3b0 4f3d 16a5 95bc
000000b0: e05b 393d 5e84 3d3d d079 8a3d 7001 50bd
000000c0: 51a8 58bd 3739 0e3d 6d4b 37ba 8006 93ba
000000d0: 0031 c1b9 dad2 673c a08c 96bb 3b1e 01bd
000000e0: 45c4 48bc 1c84 15bd 58a8 4b3d 2ba3 5b3d
000000f0: add1 73bd 178e 0cbd deac 803d 242a 50bd
00000100: 409d 253b 937d 063d 90b5 b73c 589a 513c
00000110: e189 fdbb 20dd c63c c029 863c 6c77 e63c
00000120: b898 983c e1ad 883d bb5e 1abd 9e7a 043c
00000130: 8ab0 723d a132 1fbd 7ae3 e5bc 096b a0bc
00000140: 8461 503d 75e2 4bbd 3c10 273d 7228 febc
00000150: 1721 3fbd 7834 dbb9 982a 6a3c 3ea0 41bd
00000160: b6b2 c3bc 106f 473d 8186 36bd 1838 39bd
00000170: e22c 353d 32f5 1a3d d67c f63c 48c0 71bd
00000180: 256e 883c 308d 2fbd 348e 853d 7ed9 623d
00000190: 802e 283c f341 823d f4d3 463d fef0 3f3d
000001a0: 60a2 3bbd a485 c53c 1fed 17bd c158 dbbc
000001b0: 0a7b 483d 9210 a7bc 01cc a9bc 3c28 14bd
000001c0: 5194 113d 9f88 0cbd 8d29 033d 993e 96bc
000001d0: d8e3 213d 7991 13bd 8254 b83a 2c1c a63c
000001e0: d434 4cbd 6e4a a13b 00e1 8e39 70b7 153d
000001f0: b8a5 ee3c f353 c53c 89f2 423d 40b9 913a
00000200: d3c0 34bd 881d 20bc 5c61 6d3d 9918 603c
00000210: 717f dcbc d68e e13c 3397 4a3b 802c 8dba
00000220: 2b0d 5ebd 0919 2bbd 454a 23bc 040e f23c
00000230: d9a3 153d dcf7 9839 165e 9bbc 963e 43bd
00000240: b0b6 6c3d 440d 91bb c2e0 a8bc 0fd1 53bc
00000250: 623a 833d 7088 1abb ece4 bbbc c332 953c
00000260: 7c34 043d 4460 a8bc c8cd 14bd a1f8 5fbd
00000270: 8c49 81bc f3a6 4cbd eac5 60bd ee22 91bc
00000280: 34dc 133d f8c2 253c 9d20 53bd 2fd8 483d
00000290: 2289 97bc 3d4a 8cbc 7c07 babc 8ec8 17bd
000002a0: 9fdc 533d 5297 893d d994 8e3b f375 1abd
000002b0: 9aa8 703d 67f5 a8bc 669a 153c e1eb 603d
000002c0: 9220 463d b389 c03b 10c1 a7bb cb74 c2bc
000002d0: 0428 fdbc aec4 75bd eac0 3b3d be25 7d3d
000002e0: e17c 17bd 0320 153d 5bfc 443c e865 febb
000002f0: 249f 5dbc bb81 f73c 80a8 d7ba b5f3 0e3d
00000300: 74e5 ae3c c431 34bd 3863 f6bb 4082 883b
00000310: 6f4b b2bc 2447 3d3d 07f5 00bc d496 eb3c
00000320: 52bb 7a3d d30d 0cbd 062b cdbc 4078 c43c
00000330: 34bd 313d 381a 593c f860 f9bc b29d e8bc
00000340: e0a2 403d 1837 a03c 12bc d8bc 6cdc 78bd
00000350: 9ace 45bd 6c11 5c3d 99be b33c 13bf 143d
00000360: 6014 ba3c cb1e 84bc 0639 3cbc d80b bdbc
00000370: 0961 dc3c a08b c63c 4826 1dbc ebd8 ac3c
00000380: d5b5 20bd 207b 3a3d 08ea f23c deb0 793d
00000390: 025d b83c ca81 82bc 9671 e5bc 0f1f 113c
000003a0: 088c d73c 567c bf3c 04d6 a33c ab0e 64bd
000003b0: 19bb 6d3d 4e85 52bd 811a 273d bc1a df3c
000003c0: a0a9 1f3b a7a9 603d 8e83 3a3d 5f41 bf3c
000003d0: 44cf 48bc 07e1 723d 5b87 5fbd 092b 93bc
000003e0: 52e2 0dbc a2bb 0e3b 380c 77bd 5859 da3c
000003f0: 3b57 0ebd 6242 dd3c 5af8 d33b 8ea2 823d
0.05130227 -0.036319766 0.0028508676 -0.02577385 -0.05353936 0.008407105 -0.015695065 -0.021266745
0.040509745 -0.041901894 -0.0471665 0.016847381 -0.026107706 0.03717031 -0.046239905 0.06071792
0.060248256 0.0656335 -0.0029860463 0.033434615 -0.016104303 0.029112825 0.015663113 0.02471028
-0.0043054335 0.053515032 0.0088218795 -0.04647737 0.005618013 0.01012577 0.030431822 -0.010480427
0.059088543 0.053786054 0.030840814 -0.009683773 0.060120825 0.013588481 0.018695883 0.027470462
-0.046817333 0.061943125 0.05070586 -0.018267196 0.045253634 0.046268813 0.06761515 -0.05078262
-0.052894894 0.034722533 -0.00069921353 -0.0011217147 -0.00036848336 0.014149392 -0.0045944005 -0.03152297
-0.012253826 -0.036502942 0.049721092 0.053622406 -0.059526134 -0.034315195 0.06282972 -0.05082144
0.002527073 0.0328346 0.022425443 0.012793146 -0.0077373837 0.024275362 0.01637733 0.028133117
0.01862751 0.0667379 -0.037688 0.008085875 0.059250392 -0.038866643 -0.02806257 -0.019582288
0.05087425 -0.049776513 0.040786967 -0.031025145 -0.046662416 -0.00041810027 0.014292382 -0.04727196
-0.023888927 0.0486899 -0.044561867 -0.04521951 0.044232257 0.037831493 0.030088823 -0.059021264
0.016654084 -0.042859256 0.06521264 0.055383198 0.010264993 0.06360235 0.048541978 0.046860687
-0.04580915 0.024111576 -0.03709137 -0.02677572 0.048945464 -0.020393644 -0.02072716 -0.036171183
0.035541836 -0.03430998 0.032022048 -0.018340396 0.03952393 -0.036027405 0.0014063271 0.020277105
-0.04985507 0.004922203 0.0002725199 0.036551893 0.029131755 0.024087882 0.04759458 0.0011117831
-0.044129204 -0.009772666 0.057954177 0.01367774 -0.026916238 0.02753393 0.0030912876 -0.0010770708
-0.054211777 -0.041771922 -0.009966438 0.029547699 0.03653321 0.0002917637 -0.018965762 -0.04766711
0.057791412 -0.00442663 -0.020614985 -0.012928261 0.0640762 -0.0023579858 -0.022936307 0.018212682
0.032276616 -0.020553716 -0.03632906 -0.05468047 -0.01578214 -0.049963903 -0.054876246 -0.017716851
0.036098674 0.010117285 -0.051544774 0.049034294 -0.018498007 -0.017125243 -0.022708647 -0.0370565
0.051724073 0.06718315 0.00435124 -0.03771014 0.05875454 -0.02062483 0.00913105 0.05491245
0.048370905 0.00587579 -0.0051194504 -0.023737332 -0.03090287 -0.06000202 0.045838274 0.061803572
-0.03698433 0.036407482 0.012023057 -0.007763613 -0.013526712 0.030213227 -0.0016453415 0.034900386
0.021349646 -0.043992773 -0.007519152 0.0041659176 -0.021764485 0.046210423 -0.007870919 0.028758444
0.0612138 -0.03419287 -0.02504493 0.02398312 0.04339333 0.01325088 -0.030441746 -0.028395507
0.04703033 0.01955752 -0.026456866 -0.060757086 -0.048292734 0.053727552 0.02194147 0.036315035
0.022714794 -0.016127964 -0.011488205 -0.023076937 0.026901739 0.0242365 -0.0095916465 0.021099528
-0.03923591 0.045527577 0.02965261 0.06095969 0.022505287 -0.015931029 -0.028008264 0.008857503
0.02631189 0.023374718 0.019999512 -0.05567805 0.05803976 -0.05139666 0.04079676 0.027234428
0.002436258 0.054849293 0.045535617 0.023346601 -0.012256447 0.059296634 -0.054572444 -0.017964857
-0.008659916 0.0021779318 -0.060314387 0.02665393 -0.03475116 0.027009193 0.006468815 0.06378661

bias f4 [3]
00000000: abfc 813d 175a 14bd d4d1 68bc
0.06347021 -0.03621873 -0.014210183
